libs/models/discriminator.tflite (tflite, 686400 bytes, 14 tensors)

conv2d_1/Conv2D_bias f4 [64]
00000000: f9ee 61bd 04c0 b5bd 0671 65bd 6803 ef3b
00000010: a250 95bd a2e9 2cbc 63d7 17bd 8a8b 093a
00000020: 8bf1 6a3d 3d97 9dbd 24df ffbc dc26 4e3d
00000030: 701c 61bd a3fa ccbd 5054 2d3d 4d5b f83b
00000040: b44c bbbd d223 ea3c dd65 63bc dbb4 f03c
00000050: e53d aebd 3745 973d 5bf9 d3bd 60eb 98bd
00000060: b87c 96bd 1761 9dbc 06eb b03c e664 343d
00000070: b2e0 00bd dd50 16bb 9223 75bd 0ad4 ed3b
00000080: aa66 433b ee0d 933c 64b7 85bc c122 4f3b
00000090: 43df 95bd 4d21 1abd 9e0d 05bd ff30 eb3c
000000a0: db9a ccbd 0fe7 473d 403e 7db7 0e33 f73c
000000b0: 4ad4 95bc fe29 9e3d 8f53 013d 2a78 d03c
000000c0: a29a bbbd 7587 47bd 9a83 d4bd 94af 223c
000000d0: ec0c 9cbd 4871 75bd 14f4 25bb 89f0 f9bb
000000e0: 3fec 8aba 9b46 a8bc 81c0 0ebe 3da6 60bd
000000f0: 5077 46be 5468 89bd 28f2 59b8 af7a 5fbd
-0.055159543 -0.08874515 -0.05601599 0.007294107 -0.0729077 -0.010553749 -0.037070643 0.0005246928
0.05735926 -0.07694862 -0.031234331 0.050330028 -0.05495876 -0.10008743 0.042316735 0.0075792433
-0.09145489 0.028581534 -0.013879267 0.029383114 -0.08507899 0.073862486 -0.10350295 -0.07466769
-0.07348007 -0.019211335 0.021596443 0.044041537 -0.031464286 -0.0022936382 -0.059848376 0.007257943
0.0029815831 0.017950978 -0.016322799 0.0031606408 -0.073179744 -0.037629414 -0.03248369 0.028709887
-0.09990474 0.04880434 -1.5094469e-05 0.030175712 -0.018289704 0.07722853 0.03157383 0.025447924
-0.09160353 -0.048713166 -0.103766635 0.009929556 -0.07619652 -0.059922487 -0.0025322484 -0.007627551
-0.0010598971 -0.02054148 -0.13940622 -0.054846037 -0.19381452 -0.06709352 -5.1962357e-05 -0.05456036

conv2d_1/kernel f4 [64, 3, 3, 3]
00000000: 3ad0 b73d 86b9 813d a1c6 12be 007f 523e
00000010: a5fb f13d f8e8 6dbd bbb5 703e 5040 ad3d
00000020: 29cb 08bd de9e 5a3e 5bc2 9aba dae7 6fbd
00000030: d36a 423e 562e 0d3e d836 60bd 8860 213e
00000040: 8874 de3d f6fd 6fbe 65b0 b13d 8e0b a93d
00000050: 1bc7 0dbe 45a9 a43d 3ca9 393e 1f51 a2bd
00000060: db75 223e 6c06 e53d 66b1 aabd 005e 7d3e
00000070: a5e7 133d 206b 78be 2299 473e 25ae 1d3d
00000080: 569f bdbe 9eea 7c3e 2158 f93d ae49 8cbe
00000090: b904 343e 0650 1d3e 9b16 40be bcc8 453e
000000a0: f649 243d fafb b2be 51aa 8e3e a18e 233e
000000b0: 59d7 8abe 9d3b 853e 67ec aa3d ee8f 6ebe
000000c0: 92ac 7e3e db0d 123e 530b 60be bb62 923e
000000d0: d136 d03d 367c 6bbe a726 743e a590 093d
000000e0: 65d1 91be 172e 053e 0c35 a53d 0e8c a8be
000000f0: cb70 8e3e e887 473e 6182 44be ff95 6a3e
00000100: 3045 603c b427 86be ce7f 133e 823e 1d3e
00000110: b0ae 6bbe f46c ab3d c7e6 963c 6f7c 35be
00000120: cc90 173e c8fd d23d 98d6 5bbe 870a 753e
00000130: 4a14 2f3d 3b2f 83be 701f 8c3e dffc 403e
00000140: 773c e9bd 3764 a9be 6849 52be cdea e13d
00000150: f40b 1cbe 12f5 7cbe 408a a43d 0612 91be
00000160: 7acc 2bbe ac53 353e 7d44 29be 6650 85be
00000170: 5ea8 043e bd4c 8cbe fe1b 24be eb36 473e
00000180: f36b aabe c992 3ebe 116f 533e d7ae 7fbe
00000190: b46a 7cbe 7684 533e 58da 22be d813 a9bd
000001a0: bf75 833e a503 6dbe ff91 83bd 095a 873e
000001b0: fa0b 413e 84d6 f73d 86de 53bd 10b3 953d
000001c0: e7e1 4d3e 632a 9abb da3e 3f3e 74a2 2d3d
000001d0: 0358 a2bd 99ef 233d 2c01 943d ba1a 06bc
000001e0: 21b9 523e 4c60 8f3d e817 84bd 1ea3 eb3d
000001f0: a228 1e3e c668 02bd e307 9c3d 6e0e bb3c
00000200: c1a7 adbd dd79 1b3e c6e1 1d3e 89c5 4cbd
00000210: 3ea8 f63d 660c ac3d 4427 a1bd c159 3ebe
00000220: 78cd ecbd 8354 a7bd ecfa 47bd 9995 55be
00000230: a378 21be bd36 68be 9e54 82be 736c 1bbe
00000240: 5966 01be 0450 58bc f876 84bb 554a 34bc
00000250: 25a0 1cbe 24e9 31be 002f f4bd 5a8e fabd
00000260: e6c7 bcbd b080 03be 27ca 57be 1d1b 24bd
00000270: 5fe5 85bd aa6e 40be 32bc 04be 9474 a4bd
00000280: 8166 71be faf2 aabd ad7b 983d 25e4 103e
00000290: 28c8 7ebe 6a8e 2f3e 55e1 2a3d a233 72be
000002a0: 7222 863e 290c 2b3e ac1a ddbd 3e65 6b3e
000002b0: bf97 c23d 1417 54be 925e 793d 8db2 713d
000002c0: 37ee 1abe 9993 1e3e 62ab 9a3d 675c 88be
000002d0: 0d02 d83d d0d9 873d a805 1ebe 5454 673e
000002e0: a1f6 4b3e edb0 24be 00e1 313e 93a5 023e
000002f0: 4619 f4bd 4270 51be 3502 18be 241c 243e
00000300: 4896 82be 1dc9 02be 0f9e 5c3d 78ae 0cbe
00000310: 6216 58be 1f28 1f3e 12df 25be 4114 f9bd
00000320: 0fc8 1a3e 0215 a1be 5403 1dbe e39f 583d
00000330: 7e11 77be c5c2 1ebe b049 563e ef9d 16be
00000340: e69e 05be c74a 7b3e 3ac5 4abe 00cb 8ebd
00000350: 8f4f 093e 88c8 92be 8e6b 76be bce5 033e
00000360: f04e 71be 3b94 6ebe f920 533e f203 aabe
00000370: 9224 63bd 3f63 5c3e 60e4 93be 35de 7ebe
00000380: 68a0 6e3e a565 95be 191c f0bd 6ca8 3c3e
00000390: 3e73 a3be 5ade 30be 812b 153e 2847 98be
000003a0: dfe8 49be 2f91 833e c96f 77be 16c6 3fbe
000003b0: 2280 3b3e b098 76be 843f 37be b906 6e3e
000003c0: a39c 98be 3258 77be 3531 573e 539b 453e
000003d0: 7217 193e 8115 eabd 9365 7b3e c36e 2d3e
000003e0: dd2f e5bc c49a 573e 2e98 743d 29cc a4bd
000003f0: 6a24 a03d d1cd 313d d4ea cfbd 652b 3d3e
0.08975263 0.06334214 -0.14333583 0.20556259 0.118155755 -0.058083504 0.23506825 0.08459532
-0.033396874 0.21349666 -0.001180719 -0.05857072 0.18986063 0.13787207 -0.054739803 0.1575948
0.1086207 -0.23436722 0.08676223 0.08254157 -0.13845484 0.08040098 0.18130964 -0.07925629
0.15865271 0.111828655 -0.08334617 0.2474289 0.036109585 -0.24259615 0.1949201 0.038496155
-0.37035626 0.24698874 0.121750124 -0.27399963 0.17579927 0.15362558 -0.18758623 0.19314855
0.040109597 -0.34957868 0.27864316 0.15972377 -0.27117422 0.26022044 0.083458714 -0.23297092
0.24870518 0.14263098 -0.2187932 0.2859095 0.101667054 -0.22996601 0.2384287 0.03358521
-0.28480068 0.13005863 0.080667585 -0.32919353 0.2782043 0.19485438 -0.1919036 0.22908781
0.013688371 -0.26202166 0.14404222 0.15355876 -0.23015857 0.083703905 0.01842059 -0.17723249
0.1480133 0.10302311 -0.2146858 0.23929797 0.04274396 -0.2562197 0.27367735 0.18846463
-0.11388486 -0.3308427 -0.20535815 0.11031113 -0.15238935 -0.24702862 0.080341816 -0.28334063
-0.1677722 0.177077 -0.16530032 -0.26037902 0.12954852 -0.27402297 -0.16026303 0.19454543
-0.33285484 -0.18610682 0.20647837 -0.2496904 -0.24650079 0.20655999 -0.15903604 -0.08255738
0.2567577 -0.23145922 -0.06424331 0.2643588 0.18852225 0.121014625 -0.051725887 0.07309544
0.20105706 -0.00470476 0.1867632 0.042391255 -0.07926943 0.04002342 0.07226786 -0.008185083
0.20578434 0.07000789 -0.06449872 0.115057215 0.15445188 -0.0318382 0.07618692 0.022834029
-0.08479262 0.15183206 0.15418157 -0.04999307 0.120438084 0.08400802 -0.078688174 -0.18588926
-0.115626276 -0.08170416 -0.048823282 -0.20857848 -0.15768676 -0.22677131 -0.25455183 -0.15178089
-0.12636699 -0.013202671 -0.0040425025 -0.01100405 -0.15295465 -0.17374092 -0.11923027 -0.12234183
-0.09217815 -0.12842059 -0.21073209 -0.04006492 -0.0653789 -0.18792215 -0.12962416 -0.08030048
-0.23574258 -0.08347125 0.07445464 0.1414953 -0.24881041 0.1714417 0.0417188 -0.23652509
0.26198155 0.16703857 -0.10796103 0.2298784 0.095015995 -0.20711929 0.060881205 0.05900817
-0.15129934 0.15485992 0.0755222 -0.26632997 0.10547266 0.06633341 -0.15431845 0.22590762
0.199183 -0.16083117 0.17370987 0.12758474 -0.11918883 -0.20452979 -0.14844592 0.1602636
-0.2550528 -0.12772031 0.053861674 -0.1373843 -0.21102288 0.15542649 -0.16198376 -0.12162066
0.15115379 -0.3146134 -0.15333301 0.052886855 -0.24127766 -0.15503986 0.20926547 -0.14708684
-0.13048896 0.24540244 -0.19801798 -0.06972313 0.13409255 -0.28668618 -0.24064466 0.12880605
-0.23565269 -0.23298733 0.20618047 -0.33206135 -0.055454798 0.21522234 -0.28885174 -0.24889453
0.23303378 -0.2917911 -0.11724109 0.18423623 -0.3192386 -0.1727232 0.14567377 -0.29741788
-0.1971774 0.25696704 -0.24163736 -0.18727908 0.18310598 -0.24081683 -0.17895323 0.23244752
-0.29807004 -0.24154738 0.21014865 0.19297533 0.1495035 -0.11429883 0.24550466 0.16936783
-0.027976925 0.21055132 0.059715442 -0.08046753 0.078194454 0.043409172 -0.10152212 0.18473585

conv2d_2/Conv2D_bias f4 [32]
00000000: 96a2 8e3c 597c 8fbc 5634 8fbc 6dcd 83bb
00000010: 99b7 cf3a c5ff c6bc 978d 28bd b2ed c1bc
00000020: 23e8 82bc 2d22 c73a d443 48bd e5b5 8c3c
00000030: 9e1e 47bc b998 9ebc ae03 14bc b284 6bbb
00000040: 7e1e babb 0b65 13bd e1ea 26bd 1442 a1bc
00000050: f4e5 bd3a 7ff8 15bd 1d22 ed3c c3a4 afbb
00000060: 847c 15bd 7703 df3c 20fa 94bc e5e3 2dbc
00000070: fdd8 94bc 8877 87bb 3d12 b4bb 6ecc 8dbc
0.017411511 -0.017515348 -0.01748101 -0.0040222914 0.0015847563 -0.024291882 -0.041150656 -0.023672912
-0.015979832 0.001519268 -0.04889281 0.017176578 -0.012153296 -0.019359933 -0.00903408 -0.0035937247
-0.0056799045 -0.035985034 -0.04075134 -0.019684829 0.0014488087 -0.036613937 0.02894693 -0.0053602173
-0.0364957 0.027223332 -0.018185675 -0.010613416 -0.018169874 -0.0041341223 -0.0054953382 -0.017309394

conv2d_2/kernel f4 [32, 3, 3, 64]
00000000: addd 803d cff7 9f3c 68bf 8cbd 50ba fcbc
00000010: c141 8abd dd1a 95bd 4884 dc3d b138 bbbd
00000020: b17d cebd 53c6 eb3d cd9a 9b3d 7001 84bd
00000030: ea04 f53d dd5e 5e3d b8f1 b73d bdf2 b9bd
00000040: 7a26 513b d73b 563d 1756 873d 9e61 f0bd
00000050: 5ef6 43bd 24a7 9c3b fd81 e4bc 3a51 f33d
00000060: 8de2 c93d 74e5 0bbd 9f31 acbd ae7b e6bd
00000070: 6115 d2bc 72b5 8fbd a08b bf3c c6b5 3e3c
00000080: 3782 613d f52f 48bd 977b c43c c167 5f3c
00000090: 8f21 8d3c 7aaf 6dbd 867a 41bd f4b0 acbb
000000a0: 72dd 4fbd 15a5 b1bd 5672 6c3b facb 84bd
000000b0: 4c88 10bd 7b19 87bd 863d 06bd b029 0cbd
000000c0: 9cb6 57bd 9886 bb3d 316f 1d3d 88b0 c3bc
000000d0: cf0f e73d 42d8 29bd e9d7 53bd 9fb9 0f3d
000000e0: 170e 7fba c2cc 85bc e2f1 0abe 72c9 9b3d
000000f0: 9c8d 72be 5831 4f3c 7a8c 093b 9f10 e73d
00000100: 10c2 7cbd 5b30 d23c b21e d13d 9ef5 fd3c
00000110: 2abc b03d fdfe 0ebd 2e67 f03d 381b e8bd
00000120: 5789 81bd 987e 1b3d 7204 4f3d aa4d 5abd
00000130: bd99 f93b d638 45bc ea8c 523c 597d 543d
00000140: f151 0c3d 97a8 dbbd 3530 cebc 6290 c4bd
00000150: 328b ff3c e281 73bd 5e6d 18bc 7eb0 a9bd
00000160: 2d2f 813b e31e 0c3e 61fd 13ba d26f 0dbe
00000170: bf45 f93c 4570 ac3d 8bcd d03c 6793 4a3d
00000180: 2ad9 f53c c66d bbbc aa02 c5bd 534d d73c
00000190: aca8 933d 58df b43b 49f0 27bd 8d34 77bd
000001a0: 0421 c13c 753c 70bd d018 3a3d 5de5 86bd
000001b0: 0896 78bd 4455 4ebd cf72 bebd 38f2 8cbd
000001c0: 4bc3 d8bc 8a66 383b b588 27bc 035b b5bd
000001d0: bbe2 213d e77d 86bd 8939 893d 4f2d 093e
000001e0: 38bd c4bd e6df 9fbd 6156 90bd 4538 e0bc
000001f0: 13a3 93be 5372 c93c 1bdf aabd c028 483d
00000200: f709 7fbc f38b 7a3c a496 ed3d 7b65 d0bd
00000210: 2fa2 9b3d 156a f43c 5b34 a93d e8af dabd
00000220: 6d68 00be 338e 0dbd 129a 79bd acbc 16be
00000230: c40f a33d 08a8 c43c e304 b63d 189f 2a3d
00000240: ef23 ee3d 88d1 363d 7ac3 0fbd 1b5d e8bc
00000250: 3633 8a3b 7d6f 0c3d 64a1 9dbc cc40 44bd
00000260: 5397 c63d 47bb da3d 5d39 e33c 3b53 9fbc
00000270: cdee 82bd e5ea 073d 3684 9dba 8bfc 46bd
00000280: 6018 223e 7999 d2bc 58cf e1bc 050c ea3c
00000290: 0241 d43d 05f6 2ebd ce0c 773c af85 b8bc
000002a0: ef5a 16bd 04e5 94bd 1d7e 243e 8393 953c
000002b0: 05ee 80bc 7c46 bdbd ee44 38bc 3cff 0cbd
000002c0: d64a e5bd f22f 7f3d db58 c43d 9b9a e9bd
000002d0: e0f1 d6bc d26f 453d 43a3 13bd 9261 8a3d
000002e0: 391e 823c 6447 ddbd 5de6 c5bd d54e dfbc
000002f0: 42ce 8ebe e2f3 bfbc 4c97 34bd faca a23d
00000300: a287 da3d bb0f 163d f64c 5d3d cc7d f6bd
00000310: 15dd 3e3a 6b64 4a3d 7ff5 8cbd 5f85 33bc
00000320: b78c 58bd 05aa 40bd 5c9b 403d 7e98 4cbb
00000330: f7a4 dd3c bdd4 5dbd f369 183e 54e3 5b3d
00000340: 227b c6bc bcad a3bd 0cd7 11bd 70ea 90bd
00000350: 0329 f93d d3a1 023c dfde 983d 1740 9ebd
00000360: 422e d93c da22 bc3d 0d7e 92bd 9c1e efbd
00000370: 8e74 693d b7d1 833d a7a2 d5bc 32a0 673d
00000380: e243 f4bb 44f3 46bd bdc6 94bd 04aa 9a3b
00000390: 5563 a8bc 882f a7bc dac9 a7bb 367a 42bc
000003a0: c652 21bc 3e85 4eba 88cf dcb9 9560 83bc
000003b0: 94fa bebc aee8 93bd dd67 883c a06a b4bc
000003c0: a33c 7fbd 1744 7e3d a3a8 d53d ba99 f1bd
000003d0: e377 663c b57b 07bd aaf1 a6bd 633b a53c
000003e0: f6d2 5abd bb01 e6bd 979c 33be e0e0 ae3d
000003f0: 4853 82be b0fe f43c 77f5 7cbc 62a3 803d
0.06292281 0.019527344 -0.06872445 -0.03085056 -0.06750823 -0.072805144 0.10767418 -0.091416724
-0.100825675 0.11512437 0.07597885 -0.06445587 0.11963828 0.054289687 0.08981651 -0.09079502
0.0031913803 0.05230316 0.06608217 -0.11737369 -0.047842376 0.004780667 -0.027894014 0.11880727
0.09857664 -0.03415437 -0.08407902 -0.11254059 -0.02564496 -0.0701703 0.023382008 0.011640018
0.055055823 -0.04887386 0.023984713 0.013635577 0.017227916 -0.058028676 -0.047235988 -0.005270118
-0.050748296 -0.08674065 0.0036078892 -0.06484218 -0.035286233 -0.06596657 -0.032773517 -0.034219444
-0.052664384 0.09156531 0.03843612 -0.023887888 0.11282312 -0.041466005 -0.05171958 0.03508913
-0.00097295776 -0.016332988 -0.13568833 0.07606782 -0.23686832 0.012646042 0.0020988272 0.11282467
-0.06170851 0.025657823 0.10210933 0.031000908 0.086296394 -0.034911145 0.1173843 -0.113333166
-0.063250236 0.037962526 0.05054135 -0.053296722 0.007617204 -0.0120374765 0.012850979 0.051877353
0.034257833 -0.10725515 -0.025169471 -0.09597851 0.031194303 -0.059450038 -0.009303419 -0.08285616
0.0039423914 0.13683657 -0.00056453614 -0.13812187 0.030428765 0.08419851 0.025488636 0.04945698
0.030010778 -0.022879492 -0.09619649 0.026281988 0.07209906 0.0055197887 -0.04100064 -0.06035285
0.023575313 -0.058651406 0.04543382 -0.06586716 -0.060689956 -0.050374284 -0.09299242 -0.06882137
-0.02646031 0.002813729 -0.010225465 -0.0885525 0.039522868 -0.06566983 0.06700427 0.1339619
-0.09606403 -0.07806377 -0.070477255 -0.027370581 -0.28835353 0.024590647 -0.08343335 0.048866987
-0.015566341 0.015292156 0.11600998 -0.10175606 0.075992934 0.02983574 0.08261939 -0.10678083
-0.12539835 -0.03455944 -0.06093795 -0.1472041 0.079619914 0.024005905 0.08887651 0.04165563
0.116279475 0.04463342 -0.03509853 -0.028364709 0.0042175306 0.03428601 -0.019241996 -0.047913358
0.096968316 0.106802516 0.027737314 -0.019448867 -0.06393204 0.033182997 -0.0012017551 -0.048580687
0.15829611 -0.025707947 -0.02756469 0.028570184 0.10363962 -0.04271509 0.0150787365 -0.022524683
-0.036707815 -0.07270244 0.16063733 0.018258816 -0.015738497 -0.092419595 -0.011246903 -0.034423098
-0.111959144 0.062301584 0.0958726 -0.11406442 -0.026238382 0.048202343 -0.03604437 0.06756891
0.015883552 -0.10804632 -0.09663079 -0.02725927 -0.27891737 -0.023431722 -0.0440896 0.07948871
0.10670401 0.036636095 0.054028474 -0.120357126 0.00072808686 0.049412172 -0.06882762 -0.010957091
-0.05286857 -0.047037143 0.047023162 -0.0031218822 0.0270562 -0.05415796 0.14884166 0.053683594
-0.024228636 -0.079921216 -0.035605475 -0.070759654 0.121660255 0.007973152 0.07464384 -0.07727068
0.026511315 0.09186335 -0.071529485 -0.1167576 0.05699592 0.06436484 -0.026078535 0.05654926
-0.0074543813 -0.04857184 -0.07264469 0.0047199745 -0.020555178 -0.020408407 -0.005120498 -0.011869958
-0.009846395 -0.0007878131 -0.00042116293 -0.016037265 -0.023312844 -0.072221145 0.016651088 -0.022023499
-0.062313687 0.062076654 0.104325555 -0.11796899 0.014066669 -0.03307696 -0.081515625 0.02016992
-0.053423844 -0.11230799 -0.17540203 0.08538985 -0.25454164 0.0299066 -0.015439383 0.06281163

conv2d_3/Conv2D_bias f4 [32]
00000000: 990e c9bc 0d6e 10bd b725 92bd 9500 3fbd
00000010: 4e0c b4bd 728b dabc d576 f5bc 4ee4 a8bd
00000020: c852 cdbb 2cad 5c3a 0ea3 e83c 5322 d1bb
00000030: 668e 10bc f148 183d ba57 2cbd 7acb 0d3c
00000040: 2618 a9bd 9685 34bd 4cf9 98bd 3a88 943b
00000050: 4331 5dbd 44ac 2fbd 0d1e 5abd 7161 39bd
00000060: 078a 79bd c65c 5ebd 85ec 5ebd cdfa 97bc
00000070: d62c c7bd adeb 5cbd a77d 213d 1a5e 3cbd
-0.024543094 -0.035261203 -0.071361 -0.046631414 -0.087914094 -0.02667782 -0.02996389 -0.08246671
-0.006265972 0.00084181386 0.028398063 -0.0063822656 -0.008823013 0.037178937 -0.04207585 0.00865447
-0.08256559 -0.04407271 -0.074694246 0.004532841 -0.054002058 -0.042888895 -0.053251315 -0.045258943
-0.06092265 -0.054287694 -0.05442478 -0.018552208 -0.09725349 -0.053935695 0.039426472 -0.04598818

conv2d_3/kernel f4 [32, 3, 3, 32]
00000000: a5e0 8cbd 08c8 e1bc e0a2 acbd 706b 18be
00000010: 2f6d 1bbd fe93 1cbe 80ef 8bbc 9c85 00be
00000020: 0b22 75bc 2a94 02be 54fd 2f3d 2172 e63d
00000030: 0241 c1bd 0b50 dfbd 0285 57bd 7441 28bc
00000040: cbf7 2fbe 61d6 38bd fa18 04be aa65 31be
00000050: dd81 013e dd56 5bbc 1659 b73d e45c b83d
00000060: 4c0b 3ebd 09bb b83a 2716 94bd 062d c5bd
00000070: 41fa e33d 8134 343d 257c c8bd 88ed e6bd
00000080: a1b7 903c eb22 8dbd efd4 fbbd 6fb6 58bd
00000090: a593 a5bd 1e38 cabd 3a61 6cbd a539 25be
000000a0: cb90 70bd c153 3dbe 7fa1 833d bc25 d23d
000000b0: d666 20be a5bb 97bd 6deb 36bd ac2a 4dbd
000000c0: 9004 44bd 3dc5 ccbd ce6a 0abc 206d 2fbe
000000d0: 8e48 e8bb 11e1 b03a 24c4 ddbc c021 a73d
000000e0: 26c0 73bd 470d 55bd 2f6c 08be 772e 46bd
000000f0: 773a 623d d6ef b3bc b8ac b1bd d999 83bd
00000100: a78b 873c 1ab8 21be 5fb2 68bd 45f3 20be
00000110: e567 14be 544c 2bbe a54a b8bd 60e6 04be
00000120: c38d 8dbc 451c f3bc e495 dd3d d944 193d
00000130: f774 16be 1844 27bc 6e1a 5ebc 7498 193d
00000140: 0259 4dbd d990 cabd 39a8 b1bd 23cb 02bd
00000150: 4ead 68bd 20ce 00be 7d73 853d 12ba 75bd
00000160: a6f2 02be 407c c13c 3c8b 01be fb2e 39be
00000170: 9258 513b 415b 9c3d 3e74 6fbb 6e4b b5bd
00000180: 2392 4dbd 665a c2bd 7a70 41be f89d d0bd
00000190: ec6d 11be 8cf9 9cbc 87bd bbbd 22ed 63be
000001a0: 5fe0 33bd 27a5 28be 5ad2 6cbd c9c1 b33d
000001b0: ed10 01be a08c d0bd e192 a5bc 6d90 db3d
000001c0: 38a8 55be 17db a0bc b882 4f39 7b89 22be
000001d0: 9eab f83d def8 143d 6805 c2bc 30b0 8dbc
000001e0: 7b6c 34bd 99e3 733d fd99 96bd c882 80bd
000001f0: e47f 303d 1218 283d 0e87 cd3c 0ebd 80bd
00000200: e061 b73d e8ab fcbd b813 2cbe 1cb5 32be
00000210: a01b 29be f8b5 3abe fd69 b2bd 63d4 febd
00000220: 51d2 babc 52d5 0fbe eee6 363c 68ee 4e3d
00000230: 030d 5fbe 945d 1abe 942c 9b3c 6cba d6bc
00000240: 05cf 0ebe 5f23 dbbd 7354 22be a565 44be
00000250: eec7 f23d c250 c4bd e375 6abd d97b 81bd
00000260: 9f0c 28be 8a16 223d 7cab a3bd 73fa 51bb
00000270: dbb1 0d3e 0b5d 3e3d ec94 8dbb 2de2 2cbe
00000280: c224 963d 82a3 25be 8dc8 e2bd 2539 88bd
00000290: 4830 98bd ed86 2bbe 6924 edbd c067 70be
000002a0: eb8c d8bd eb13 3abe c6e9 5dbd f6af 073e
000002b0: 2bf5 04be e518 00be f897 04be 7a19 96bc
000002c0: 4e65 57be a213 95bd 6cc6 dcbd 1b98 44be
000002d0: 7d5e be3d 3578 77bd 2182 5dbd 1671 0e3d
000002e0: 52ef 1fbe a4cb 453d a529 65bb 0134 1ebe
000002f0: 82c8 f43d 2874 ce3d 8403 21bd 272c c6bd
00000300: 64ff c53d 2259 34be 744e 9bbd a31b cdbb
00000310: d95b 3ebc 5d5d f0bc 909e bcbd c39d 76be
00000320: 76a3 31be e1f2 90bd 7e01 933d 771b 983d
00000330: 47ea 89bc ccc4 1c39 5f7e 863c adc7 423d
00000340: 05fd c4bd 464d 3cbd 8a51 04be 7878 28be
00000350: 20e9 c73d 669b cbbc 4716 b53c d4bf 7e3d
00000360: ba22 3fbe c645 bf3c a52c 94bd 7dc0 f1bc
00000370: 819e d53d c199 cc3d 4698 613d e3fe 0ebe
00000380: c3b2 ba3d f595 8abd 1818 44be c20b 85bd
00000390: 2555 87bd fe76 aebd 97c8 17bd 083c 38be
000003a0: 2ac4 e4bd 79e1 b3bc 3587 22bd 9bed 84bc
000003b0: 202a 30be 2bb8 d9bd 658c b0bd 4814 ce3c
000003c0: c841 3bbe 4dd9 13be cf24 50bd 8987 37be
000003d0: b98e 60bc 738c 21be 44b8 a73d 3cf7 47bc
000003e0: 0d59 f8bd 8872 18bd c625 cfbc 2b45 9cbd
000003f0: 212c 093e b7b9 f43d 2844 463d 1063 3ebe
-0.06878785 -0.027561203 -0.084295034 -0.14884734 -0.037945922 -0.1529083 -0.017081976 -0.12550968
-0.01496173 -0.12751833 0.042966202 0.11252237 -0.094362274 -0.10903939 -0.05261708 -0.0102695115
-0.1718437 -0.045126323 -0.12900153 -0.17323938 0.12647195 -0.013387409 0.08952539 0.090020925
-0.046397492 0.0014093827 -0.07230788 -0.09627728 0.111317165 0.043995384 -0.09789304 -0.11275774
0.017665686 -0.06891426 -0.12296473 -0.052908357 -0.080848016 -0.09873985 -0.05770991 -0.16135271
-0.058731835 -0.18488981 0.06427287 0.102611035 -0.15664229 -0.07408837 -0.044658113 -0.050089523
-0.047855914 -0.09998558 -0.008448316 -0.17131472 -0.0070887273 0.0013494809 -0.027071066 0.08160734
-0.05950942 -0.052014615 -0.13322519 -0.048384156 0.055231538 -0.021964949 -0.086755216 -0.064258285
0.016546084 -0.15792885 -0.056810733 -0.157178 -0.14492758 -0.16728336 -0.08998612 -0.12978506
-0.017279511 -0.029676566 0.10819605 0.037419174 -0.14693056 -0.010209106 -0.013556106 0.037498906
-0.050133713 -0.09890909 -0.08674664 -0.031932008 -0.0568059 -0.1257863 0.06516168 -0.059991904
-0.12787876 0.023618817 -0.1265077 -0.18084328 0.003194366 0.07634593 -0.0036537792 -0.08852278
-0.050188195 -0.094898984 -0.18890563 -0.1018638 -0.14202088 -0.019161962 -0.09167009 -0.22258428
-0.04391515 -0.1646925 -0.057817794 0.08777196 -0.12604113 -0.10183072 -0.020211639 0.107209064
-0.20864952 -0.01963572 0.00019789755 -0.15872757 0.121421084 0.03637015 -0.023684219 -0.017295927
-0.044048768 0.059543226 -0.0735359 -0.062749445 0.043090716 0.04103858 0.025088813 -0.06286059
0.08954215 -0.12337476 -0.16804397 -0.174519 -0.16514444 -0.18233478 -0.08711622 -0.12442853
-0.022805365 -0.14046219 0.011163456 0.05052033 -0.21782307 -0.1507476 0.018942155 -0.02621194
-0.13946159 -0.10700106 -0.15852527 -0.191794 0.1185454 -0.09585716 -0.05724133 -0.0632245
-0.16411065 0.039572276 -0.079916924 -0.0032040149 0.13837378 0.04647545 -0.0043207314 -0.16883154
0.0733123 -0.16175655 -0.11073408 -0.066515245 -0.07431084 -0.16750689 -0.1157921 -0.23477077
-0.10573753 -0.1817166 -0.05417802 0.13250718 -0.12984149 -0.12509497 -0.12948596 -0.018322695
-0.21034738 -0.07279135 -0.107800335 -0.19198649 0.09295366 -0.060417373 -0.05407918 0.034775816
-0.15618637 0.04828991 -0.003496745 -0.15449525 0.11952306 0.10080749 -0.039309993 -0.0967639
0.096678525 -0.17612126 -0.07583323 -0.006259398 -0.011618578 -0.029341394 -0.09209931 -0.24083619
-0.17347512 -0.070775755 0.07178019 0.074271135 -0.016835345 0.00014950632 0.01641768 0.047553707
-0.09618572 -0.04597213 -0.1292173 -0.16452205 0.09761262 -0.024854373 0.02210535 0.06219466
-0.18665591 0.0233487 -0.07235078 -0.02951073 0.10430623 0.09990264 0.05507686 -0.13964419
0.09116127 -0.06766883 -0.19149816 -0.06496383 -0.06608037 -0.0851879 -0.03705653 -0.1799165
-0.11170228 -0.0219581 -0.039679725 -0.01622658 -0.1720357 -0.106308304 -0.08620528 0.025156155
-0.18286812 -0.14438362 -0.050816353 -0.17922796 -0.013705903 -0.15776233 0.08189443 -0.012204941
-0.1212636 -0.0372186 -0.025286566 -0.0763038 0.1339574 0.11949485 0.048404843 -0.18592477

conv2d_4/Conv2D_bias f4 [24]
00000000: 5720 65bd 2cf6 ec3b 95ad 43bc 8b0e d2bc
00000010: 5c40 fe3c 1398 b33c 373c b83c 229a 313c
00000020: f770 5dbd 302b a8bd f522 71bd 707b 1c3d
00000030: f72a c73c 0b73 21bd 7f7f 7abd 66a1 863c
00000040: 52c2 8bbd 228e 6abd dbc2 843c d048 76bd
00000050: d74b 9e3c 91fb 71bd 5412 863c 4fb8 2b3c
-0.055939045 0.0072314944 -0.011943241 -0.0256417 0.031036548 0.0219231 0.02248965 0.010839971
-0.05406281 -0.08211362 -0.05887123 0.038203657 0.02431248 -0.039416354 -0.061156746 0.016434383
-0.06824173 -0.057264455 0.016206196 -0.060128033 0.019323273 -0.059077803 0.016366161 0.010480954

conv2d_4/kernel f4 [24, 3, 3, 32]
00000000: 7a5e 79be 4419 423d 2821 11bd 3a7a 8e3d
00000010: 9109 31be cc6b 70be 3d2b 67be e151 1dbe
00000020: 5be6 52be 3bb9 5abe 6bd0 c3bd 244a b3be
00000030: fa94 653d 277b 54be 169a 89be 8788 70be
00000040: db48 823c d607 e7bb 4c84 8bbd 2ffe 4dbe
00000050: 258f a13d 38da 90be 7420 393d 3977 ef3c
00000060: 2880 7cbe 0730 51bb 1303 99be bf44 e7be
00000070: c143 22be 6c76 cc3d 3bca d2be e422 073c
00000080: bb08 69be 73d6 de3d b51b 93bc 8d57 853c
00000090: 8eda 2a3c 7be0 1cbe a6a0 81bd e40c 523d
000000a0: 189b b0bd 4aaf 6ebe 2d1d 8b3c ff18 49be
000000b0: f6e6 7fbd 129c 61be 2811 2fbe d512 14be
000000c0: a25a d1bb 685f 593c ab84 4d3b 195d 40bc
000000d0: e58d 49bd 6426 0fbd e31e e7bc 17d8 94bd
000000e0: 483d a8bd ab5d 99bd f2ad 2c3a 1c8e 0bbe
000000f0: e1cd 11bd ee64 64bb 3334 16be 1ff8 1e3d
00000100: e94d 123e 86c5 81bd 7aa8 32be 3847 423d
00000110: d79b c7bc 183b c13d 2bec 933d 0004 cd3d
00000120: 7084 f73d 5403 e03d 3e62 3ebd f9b5 3e3e
00000130: 7779 1ebe a0f3 42be 40b1 7d3d 52ee 6d3e
00000140: 8239 c9bd 3550 143d 061b 82bd 048f 223e
00000150: 7ece b2bd af24 de3c b852 1ebd 4687 f5bd
00000160: beb3 2e3d 569d 00be 8957 7a3d 9806 563e
00000170: ff95 043e d852 6dbd ef41 e33d bd01 0bbe
00000180: d87e 9cbe 8415 3cbc 5aec ec3c b5d6 dc3d
00000190: 17b4 75be e0e7 95be 6a1c 41be 1e6e fabd
000001a0: 8549 eabd 3bee a9be 8a7e a8bc bb5b 93be
000001b0: 96c3 71bc 0c87 92bd cd08 debd ba58 32be
000001c0: 7398 a5bd 4a64 92bd a3dd 7abd 87b5 94bd
000001d0: c166 843d 9e7f 59be c883 943d 51cd 963d
000001e0: cd39 7fbe 0e06 523d 6e3f 72be 5f24 81be
000001f0: 9cc0 06be 154a eb3d b4e6 1abe f86c 943d
00000200: bca3 10bc 54fe 00bd 8da9 ac3d ea7f 933d
00000210: fcdf 87bd 51d8 0e3d 9039 08bc d391 d8bd
00000220: 7272 163d 3c13 45bd c59f dabd a92a b5bd
00000230: d795 5abd 0005 2fbe 5193 04be 21bf fbbd
00000240: 560d 9f3d 3379 d03d 5fc2 113c fe4a aebd
00000250: efb1 a6bd 451d 2b3c 23e6 8a3c 58d1 953b
00000260: 654d 08be 783f 883c 35eb 0fbe 8f5b 72bd
00000270: e55c 7bbd fba5 64bd ac8b 9bb9 b996 503d
00000280: ddee 783e ada3 07be 3d17 8cbd 8ffc ddbc
00000290: 9d56 a53c da5c 803e f1b1 da3d 45ae 863b
000002a0: 01ed 923e d989 943e c064 0bbe 29f8 803e
000002b0: 9f94 dfbd f518 d6bd d430 003e 10f0 7d3e
000002c0: 6cbb 35bd 9aee 933d 07a0 00be f2e8 3d3e
000002d0: dce1 64bd 0598 303e bd0b dfbb 2d5a 17be
000002e0: 698b a23d d8fc f3bd e3ff 33bc f320 433e
000002f0: 031f 133e 402c 48be 5b65 733e 6d60 1fbe
00000300: cbe3 c2bc e5f1 92bd 4912 763d 317f 6a3d
00000310: ce14 57bd 3840 dbbd b206 d1bd 9d44 cabd
00000320: a692 91be c18a 76be ca3e 83bd 2ed0 00be
00000330: fe16 763d 0f1c 3a3c e4a5 3bbd 5558 57be
00000340: fc52 fc3b 78d3 46bc c6db 4bbd aceb 80bd
00000350: 907f 413d 758f 1bbe f42b 01bd 1fbf 9fbb
00000360: 7155 e3bd bc0e 573d f05e efbd 892b 56be
00000370: 908f 4cbe 76f3 543c 5011 80be 0d52 c43c
00000380: 4c6e 0f3d 8d09 fbbc 57a1 9dbd 929a 063d
00000390: 7d6e a4bd de1c 553d 5fb4 bd3d b490 1fbd
000003a0: 922f b53d ef38 d6bd a3d5 e9bd b747 3dbc
000003b0: be2b 883d f44b 633c 0a83 d83d 3240 9dbc
000003c0: 9256 7c3d 54b3 843d 85fd 2cbd ecf2 643d
000003d0: 4b9e f8bd ae7b 54bd 0025 d3bd 784e e3bc
000003e0: 83a9 ad3d 35ff 9dbd 810f 053c 6256 b2bc
000003f0: 2261 6bbd 036d 32bc ed72 adbd 51fc 92bd
-0.24352446 0.047387376 -0.03543201 0.069569066 -0.17288806 -0.23478621 -0.22575088 -0.15363266
-0.20595686 -0.21359722 -0.09561237 -0.35017502 0.05605028 -0.20750104 -0.2687537 -0.23489581
0.01590388 -0.0070504947 -0.06812343 -0.20116495 0.07888631 -0.28291488 0.045196965 0.029231654
-0.24658263 -0.0031919496 -0.29885158 -0.45169637 -0.15846159 0.09983525 -0.41169915 0.008248065
-0.22757237 0.10880747 -0.017957548 0.016277099 0.010428084 -0.15320008 -0.063294694 0.051281825
-0.08623332 -0.23309055 0.016981686 -0.19638442 -0.06247612 -0.22032192 -0.17096388 -0.14460309
-0.006388978 0.0132673755 0.0031359594 -0.011740946 -0.049207587 -0.03494872 -0.02821297 -0.07267778
-0.082148135 -0.07488569 0.0006587199 -0.13628429 -0.035596732 -0.0034850198 -0.1466835 0.038810845
0.14287533 -0.06336503 -0.17447081 0.0474312 -0.024366302 0.09435099 0.0722278 0.100105286
0.12085807 0.10938135 -0.04648041 0.18624105 -0.15476023 -0.19038248 0.061936617 0.23235443
-0.09825422 0.036209304 -0.063528106 0.15874869 -0.087307915 0.027117101 -0.038653105 -0.11988692
0.042651884 -0.12560019 0.061118636 0.20900953 0.12947844 -0.057940334 0.1109656 -0.13574882
-0.30565524 -0.011479739 0.028921295 0.107831396 -0.2399448 -0.2927847 -0.18858495 -0.122280344
-0.11439804 -0.33189568 -0.020568151 -0.28780922 -0.014756104 -0.071546644 -0.10841522 -0.17416659
-0.08085718 -0.07148035 -0.061246525 -0.07261186 0.06464911 -0.21240088 0.07251698 0.0736338
-0.24924393 0.051275305 -0.23657009 -0.2522306 -0.13159412 0.114887394 -0.15127069 0.07247347
-0.0088281 -0.031492546 0.08430777 0.07202132 -0.066345185 0.034874264 -0.008314505 -0.10574689
0.036730237 -0.048114046 -0.10675005 -0.088460274 -0.053365555 -0.17091751 -0.12946822 -0.12292314
0.077662155 0.10179367 0.008896439 -0.085103974 -0.08139407 0.01044399 0.01695544 0.004572075
-0.13310774 0.016631827 -0.14054568 -0.05916935 -0.061367888 -0.055822354 -0.00029667967 0.05092499
0.24309869 -0.13246031 -0.0684037 -0.027097968 0.020182902 0.2507084 0.10678471 0.00411013
0.28696445 0.2901142 -0.13612652 0.2518933 -0.10917019 -0.10453979 0.12518626 0.24798608
-0.044368193 0.07223244 -0.12561046 0.18545893 -0.05587946 0.17245491 -0.0068068192 -0.14780493
0.079367466 -0.119134605 -0.010986301 0.19055538 0.14367299 -0.1954813 0.23769133 -0.15564127
-0.02379026 -0.07175044 0.06007603 0.057250205 -0.052510075 -0.10705608 -0.10206355 -0.09876368
-0.28432196 -0.24076368 -0.064084604 -0.12579414 0.06008052 0.011359229 -0.045812503 -0.2102979
0.007700322 -0.012135379 -0.04977014 -0.06294951 0.047240794 -0.15191443 -0.031536058 -0.0048750783
-0.11100281 0.052504286 -0.1168803 -0.20915045 -0.1997664 0.012997499 -0.25013208 0.023964906
0.035017297 -0.030644203 -0.07696789 0.032862253 -0.080288865 0.052029483 0.09262919 -0.03895636
0.08846964 -0.10460078 -0.11417701 -0.011552743 0.06648968 0.013873089 0.10571869 -0.01919565
0.061605997 0.064795166 -0.042233963 0.05589573 -0.12139567 -0.051875763 -0.103097916 -0.027747378
0.084795974 -0.077146925 0.008121372 -0.021769706 -0.05746568 -0.010890248 -0.08469186 -0.07177032

dense_1/MatMul_bias f4 [192]
00000000: 2cb5 dfbb bd2b d6bc a8ec 46bb 3fd5 2abc
00000010: 3696 9fba d3a0 f63b 2be6 04bb 481c 0d3c
00000020: 25d1 1b3c 716e e9bb c626 593c e03a 0b3c
00000030: f6ce 2cbb d539 203c c0e6 d53b cfb2 9dbb
00000040: 74a5 0e3c 91b6 75bc 35f0 65bc c043 0bbd
00000050: f4a2 f43b 5540 e93c 2f90 aabc 64d6 67bc
00000060: ee37 31bc 1395 5cbc 5a14 b53a 40fb 15bc
00000070: ebd2 dbbc c096 a4bc 6000 a7bc 37ea 503c
00000080: d841 553c 381f 0cbb e894 63bb b4fa 0e3c
00000090: 2c67 c73b 9f35 61bc 3ce2 c5bb 68fa 393b
000000a0: e82b a5bc 12c0 7b3b 1a78 47bc 27f1 0bbc
000000b0: d72d f0bc 1e1a 07bd 999b 493c 76fa 413c
000000c0: d546 d9ba 638e 3a3b 0ad8 0c3b ad0d 8e3a
000000d0: b6e7 2abb 128c 43bb 5480 ee3b 6dd9 8dbc
000000e0: a20f 96bb 96b5 2b3c 7ce6 00bd 3c91 2c3b
000000f0: 432b 8d3a c0be ea3b b42c 0cbb d1ac 193c
00000100: 516c 00bc a039 90ba 360d ceb9 dfb6 cc3b
00000110: 0acb 42bb 831c 66bb 2178 10b9 430a 943b
00000120: 9d42 0e3b f7cc 973c 3b1c 5f3c 62fe bb3b
00000130: 80b7 49bb c0fd 9539 1665 853b 999f 3a3a
00000140: c6cf 6dbc 7c20 d1bc 04ce 88b9 6318 6fbc
00000150: 760d 4e3c 8445 7cbb 3846 1bbb f0c3 6c3c
00000160: a527 3b3b f798 203c 12b4 76bc 1831 2b3c
00000170: d35f 9fbc 2f23 843c 763a d0ba 17d8 cb3b
00000180: 692e 51bc a789 a3bc 6cdd 67bc 5cbe 0abb
00000190: 3591 74bb 2916 22ba e6f3 34bc 89fd f13b
000001a0: 5f02 8a3b c7f1 fb3a 27a8 7eba 100b b3bc
000001b0: d9ec 14bc 2a60 923b 44d4 b7ba 9e12 a93a
000001c0: 06d7 183b 570a 1fbc 9abe 1539 fbfd 3a3c
000001d0: 7220 923b c374 2f3c ae4a a2bb 50ee 443b
000001e0: 492e 173c 3222 d13c a129 1b3a 19c0 26ba
000001f0: 1270 94bc 3b4c a8ba 5d03 53bc 7eea 883c
00000200: 455b d4ba b901 7e3a a203 0ebc 1d56 683b
00000210: 9161 38bc 3fcf 37ba 10e0 bc3b f566 9d3b
00000220: ba43 8db9 5787 9d3c 496f a63a a9a1 25bc
00000230: b30f 0f3b ca52 613c c93e 01bb 368d c1bb
00000240: 5fa9 de3b b840 b5bc 43ba a7bc 6230 81bc
00000250: 9e3f c9bb d432 363c 8579 86bb c0b8 1ebc
00000260: 7c29 d73b d259 e3bc 8c34 a1bb fe04 473a
00000270: db0a 88bc 5f4a b3b9 4a1d c33a 9aa8 863b
00000280: c878 c4bb ea89 04ba cafc 023a d867 b4bc
00000290: a5d6 1ebc 3246 9abc 8081 513c 88bd 183c
000002a0: 47c8 063b c476 7bbb 4e8d 58b9 e4e0 ed3a
000002b0: c449 1b3c f9ec 143c d03f fa39 a48d 2bbc
000002c0: 9df7 93bc 8eb1 04bb 16b8 00bc ddfd df3a
000002d0: e82d 06bc bfe6 073c 6dca 81bc f88a 79b9
000002e0: 7890 d63a 21cb 96bb e794 e6bb fc4b feba
000002f0: 92ee 4d3b 63c9 0fbb a52b d83b 4a90 d43a
-0.0068270173 -0.026143903 -0.003035346 -0.010426818 -0.0012175504 0.007526496 -0.0020278792 0.0086127
0.009510313 -0.0071237613 0.013253873 0.008497924 -0.0026368476 0.009779413 0.0065277517 -0.0048125754
0.008706439 -0.0149971405 -0.014034321 -0.03400016 0.0074657146 0.028473059 -0.020820705 -0.014150236
-0.010816557 -0.013463276 0.0013815269 -0.009154141 -0.026833972 -0.020091414 -0.020385921 0.012751154
0.013016187 -0.0021380913 -0.0034726206 0.0087267645 0.006085297 -0.013745694 -0.006038932 0.0028378014
-0.020162538 0.0038414043 -0.012174631 -0.008541382 -0.029318733 -0.03298389 0.012305164 0.0118395
-0.0016576896 0.0028466217 0.0021491074 0.0010837816 -0.0026078052 -0.0029838127 0.0072784815 -0.01731559
-0.0045795003 0.010480305 -0.031469807 0.0026331684 0.0010770339 0.0071638525 -0.002138895 0.009379582
-0.007838325 -0.0011003502 -0.00039301225 0.006247386 -0.0029723071 -0.003511221 -0.00013777662 0.004517825
0.0021707185 0.018530352 0.0136175705 0.005737112 -0.003077954 0.00028608553 0.0040708883 0.0007119119
-0.014514869 -0.025528185 -0.00026093435 -0.014593217 0.0125764515 -0.0038493583 -0.0023692977 0.014451012
0.0028557566 0.009802095 -0.015057581 0.010448717 -0.019454872 0.016130058 -0.0015886563 0.0062208283
-0.012767413 -0.019963099 -0.014151912 -0.0021170592 -0.0037317995 -0.00061831117 -0.011044478 0.00738496
0.0042117084 0.0019221836 -0.00097143877 -0.021855861 -0.009089672 0.00446703 -0.0014025052 0.0012899225
0.0023321523 -0.009707055 0.00014280752 0.011413093 0.004459434 0.0107089905 -0.00495275 0.0030049272
0.009227344 0.025529 0.0005918984 -0.0006361022 -0.018119846 -0.0012840101 -0.01287922 0.016713377
-0.0016201517 0.0009689588 -0.008667858 0.0035451718 -0.01125373 -0.0007011778 0.005764015 0.004803533
-0.00026944076 0.019229574 0.001269796 -0.010109344 0.0021829426 0.013752649 -0.001972126 -0.0059067262
0.006795093 -0.022125587 -0.020474559 -0.015770141 -0.006141617 0.011120517 -0.0041038417 -0.0096876025
0.0065662246 -0.02775279 -0.004919594 0.00075919915 -0.016606739 -0.0003419695 0.0014886048 0.0041094543
-0.0059958436 -0.0005055951 0.0004996775 -0.022022173 -0.00969473 -0.0188323 0.012787223 0.0093225315
0.0020566152 -0.003837035 -0.00020652005 0.0018148688 0.009478036 0.009089702 0.0004773126 -0.0104707815
-0.018062407 -0.0020247432 -0.0078563895 0.0017089207 -0.008189656 0.00829476 -0.015843594 -0.0002379826
0.0016369959 -0.0046018516 -0.0070367935 -0.0019401307 0.0031422717 -0.0021940104 0.0065969997 0.0016217318

dense_1/kernel/transpose f4 [192, 600]
00000000: d964 63bd 3d84 38bd ef42 0fbd 39cd 7dbd
00000010: 2111 0e3d fa15 243a 8099 08be 336f 283d
00000020: 25d5 df3c b937 21bd c48a 74bd 20c9 8e3d
00000030: b253 48bc 00f3 a83a 005d f73b 5c77 b6bc
00000040: 7665 7bbd 273f c53d 581f d63d 2f33 ed3b
00000050: 3fad 5f3d ed31 50be 9e44 2a3d cd69 f03c
00000060: 867a bf3d 74ea a0bc 7174 e8bd 553e c43d
00000070: 42d4 1abd ad74 523d 501a 9ebd 2d03 673d
00000080: 94d3 08be d9d0 7bbd b22e 1a3d 89c0 603c
00000090: ded1 1bbc b861 e73c 0e0d b6bd 0235 d23b
000000a0: 5e63 603d 7fe0 863c e166 8fbd 6ec1 703d
000000b0: c59e 01bd 246e 9e3d eaa0 8cbd 8b9a 8e3d
000000c0: e205 0fbe e542 d4bd e606 23be 3258 0fbc
000000d0: 2d52 413d 193a 6cbc 58e6 76be 3121 033e
000000e0: 08c6 00be ed66 3cbd 32d5 943d 19c9 333d
000000f0: 4b2a ccbd 8742 a73d 072e 0dbe 33c7 8cbd
00000100: 9d26 803c ba86 9a3d 5fbf 5ebd 8ee5 6b3b
00000110: 3190 08bd 2d81 d23c 1347 2bbd 78d7 873d
00000120: b6f9 c53c 2389 b1bd 8ec8 06be 1262 ddbc
00000130: 13a8 73bc 11e3 3dbd 6961 36be e353 fd3d
00000140: b2f2 92bc 7fe3 953d 4cf8 363d a384 49bd
00000150: 2893 0bbe 131b ec3d 0c40 d9bd 91d1 17bd
00000160: 6c93 1fbd 7542 813c 4040 85bd 043f b93d
00000170: 7fe7 d9bc 210b 793d 1be8 c3bc be1a b23d
00000180: 0bb3 8ebe a3a9 81bc 5ef2 4bbd 4b35 30bd
00000190: 0899 d43d e864 6b3c c7f7 d7bd 74d6 083c
000001a0: 3dbe 5a3c c35c f7bb 07d6 57bc 41b8 d3ba
000001b0: b17e a83d 1da1 5cbc e1e9 89bd 7f7e 27be
000001c0: 126a 11be f835 a1bc ced7 31bc 823c 41bd
000001d0: 8875 2c3d 8727 203e af2f 853c 48e6 003e
000001e0: 8216 463e 74d9 17bd 2845 12be d4a5 873d
000001f0: 77a7 a8bd c269 b33b ee4a c2bd d841 103e
00000200: 40f1 8dbd e0f1 0abd b1af c13d fef5 40bd
00000210: a715 10be 66d3 ac3d 1071 8dbd 8dd1 efbd
00000220: e9c2 c13d 4365 923d 2f24 dd3c 9882 0abd
00000230: 2fb2 0a3d d7ce 61be 2a78 5abd 1d4f 213c
00000240: 3453 153e 3c7a 123d ee22 c1bd fd4b 153e
00000250: df08 84bb d4a5 e1bc 0ea7 45be ec49 6c3d
00000260: 8b73 b9bd ab41 4bbb a241 3cbd 9fe5 0d3d
00000270: eb7e ddbb 306d a53c 4aa6 88bd 5409 2dbe
00000280: 3b79 01bd f9f1 57bd 557b e7bd 221e 913c
00000290: 4cac 803c f94f 91bd 9f7c b8bd 0bcd 96bd
000002a0: 7677 c6bc 23c0 04be 26fc 1ebe 7134 253d
000002b0: a563 dabd 1e8c b4bd 1296 7dbd 71a7 4cbd
000002c0: 471c 4a3a 8ee2 b43c 9c7a 6ebd f5af 56bd
000002d0: 9e9e 22be 2d79 a3bd b0f9 d9bd 76f5 fbbd
000002e0: 5676 4abd 2c9b 853c b606 9bbd c6ab f03d
000002f0: 0e99 c53a f437 083d 9972 c4bd 58f5 5abc
00000300: c7bb eb3d 108e a8bd 58e4 0fbe 97d1 b73d
00000310: 00d2 d7bd d58d 43bd 8bc6 2abe b91d f1bb
00000320: af22 91bd bb5b b8bd 3e88 6e3d 1d78 583a
00000330: 0040 b9bd 473a 86bd ad87 84bd d76e 75bd
00000340: bd9e 14bd 6fc1 043d b3fd abbb 20c2 37bd
00000350: b0d0 1bbd b361 dcb9 67d9 c7bd 4e18 863c
00000360: a9a0 083b edfe 12bd 8e07 acbd 3d01 bbbc
00000370: 2f04 e9bd a265 d7bd 5cf9 b1bd e54e 833d
00000380: 31f6 1dbd 95c7 af3c 33a5 1c3d d29c b7bc
00000390: 90cc 70bd 9295 d63c 997c 04bd d4ac 28bd
000003a0: c4e9 6cbd 413e 133e be9d c3bd 096d b83d
000003b0: f41d dbbc 6edf 2eb9 c5a3 72bd 5665 d73d
000003c0: 8cc0 0e3e 57a2 a43d f522 2dbe c75c 55bd
000003d0: c1da d53c 1c9a 673b ed9b e1bd 81d8 f43d
000003e0: ce17 a9bd 7df3 933d 9637 d93d 0225 3dbd
000003f0: 8878 03bd 20a2 dc3d 1290 3bbe 53d4 ea3c
-0.055516098 -0.045047987 -0.034975942 -0.061963294 0.034684304 0.0006259378 -0.13339806 0.041121673
0.027323315 -0.039359782 -0.05970265 0.06971955 -0.012226986 0.0012889802 0.0075489283 -0.022273712
-0.061376058 0.09631186 0.10455197 0.0072387676 0.05460858 -0.20331545 0.041569345 0.029347325
0.09349541 -0.019643046 -0.113503344 0.095822014 -0.03780008 0.051380802 -0.077198625 0.056399513
-0.1336196 -0.06147847 0.03764219 0.013717779 -0.009510485 0.028244838 -0.08889209 0.0064150104
0.054782264 0.01646447 -0.070020445 0.05877822 -0.031645555 0.077358514 -0.068666294 0.069630705
-0.13967088 -0.103643216 -0.159206 -0.008749055 0.04719751 -0.014418148 -0.24111307 0.1280563
-0.12575543 -0.045996595 0.07267226 0.043892954 -0.09969004 0.08166986 -0.1378709 -0.06873932
0.015643412 0.07545228 -0.054381724 0.003599498 -0.033340637 0.025696361 -0.04181583 0.06632894
0.024166923 -0.08668735 -0.13162443 -0.027024303 -0.014871615 -0.046359126 -0.17810597 0.12369516
-0.017937992 0.07318782 0.044670388 -0.049198758 -0.13630354 0.115286015 -0.10607919 -0.037065092
-0.03895895 0.01577876 -0.06506395 0.090452224 -0.026599644 0.06080163 -0.023914387 0.08696507
-0.27870974 -0.01582796 -0.049791686 -0.043019574 0.10380751 0.01436732 -0.10545307 0.008351911
0.01335102 -0.0075489 -0.013173587 -0.0016152934 0.082272895 -0.013466147 -0.06734062 -0.16356848
-0.14200619 -0.019679055 -0.0108546745 -0.047176845 0.042104274 0.15640078 0.016258089 0.12587845
0.19344524 -0.037072614 -0.14284194 0.06623426 -0.082350664 0.005475254 -0.09486948 0.14087617
-0.069307804 -0.033922076 0.094573386 -0.047109596 -0.1407076 0.084387586 -0.069063306 -0.117098905
0.09461004 0.071482204 0.026994793 -0.03381595 0.033861335 -0.2205156 -0.053337254 0.009845522
0.1458252 0.035761103 -0.094304904 0.14579768 -0.004029378 -0.027544893 -0.19302008 0.057687685
-0.09055241 -0.0031014483 -0.04596103 0.034642812 -0.0067595146 0.020193666 -0.06672342 -0.1689809
-0.031609755 -0.052720997 -0.113028206 0.017714564 0.015707158 -0.07095332 -0.090081446 -0.073633276
-0.024226885 -0.1296392 -0.15525874 0.040333215 -0.10663537 -0.08815788 -0.061910696 -0.049964372
0.0007709902 0.022080686 -0.0582224 -0.0524139 -0.1588082 -0.07982097 -0.10643327 -0.12302677
-0.04942926 0.016309343 -0.075696394 0.11751513 0.0015075521 0.033256486 -0.0959217 -0.013364159
0.11510425 -0.08230221 -0.1405195 0.08975523 -0.10538101 -0.047742683 -0.166773 -0.0073582795
-0.070866935 -0.09001871 0.0582354 0.00082576444 -0.0904541 -0.06554084 -0.064711906 -0.05992016
-0.036284197 0.032411035 -0.005248749 -0.044862866 -0.038040817 -0.00042034462 -0.09758263 0.016369011
0.0020847714 -0.035887647 -0.083998784 -0.022827739 -0.11377751 -0.10517432 -0.0869014 0.06411532
-0.038564865 0.021457473 0.038243484 -0.022413645 -0.058788836 0.026194368 -0.032345388 -0.041180447
-0.057840124 0.14379217 -0.09551571 0.09005172 -0.026747681 -0.00016677167 -0.059238214 0.10517375
0.13940638 0.08038776 -0.16907866 -0.052090432 0.026105287 0.003533966 -0.110160686 0.11955357
-0.082564935 0.07224176 0.10606305 -0.04617787 -0.03209737 0.107731104 -0.18316677 0.028665697

dense_2/MatMul_bias f4 [96]
00000000: 0212 0c3c 7584 e5bc 0d66 133c 61c4 82bc
00000010: 3cd0 cfbc 0e61 0d3c 0442 fdbb 2abc 91bc
00000020: 439a aa3c 78a9 8039 9453 993c 1066 773a
00000030: f054 9bbb a020 04bc dce5 59bb 7401 47bc
00000040: 1cd9 eebb 0562 d73b f9d9 3b3b e6b7 32bb
00000050: 0c2d f9ba 74a5 b63a a898 19bc 913d 7abb
00000060: b942 19bc 6ed1 423c cb9e c5ba 8dee b93c
00000070: ba50 bb3b b92a 00bc b9d4 a5ba 84e8 58bc
00000080: 7cb3 c33b a53e e83c b083 0ebb f1dc a6bc
00000090: c512 283c 6a19 92bc b0ff ff3b 325e 703c
000000a0: a977 e3bc 25e5 293c 57e4 f2bb 9311 383a
000000b0: b77d 7abb 41f3 59bc f4ba da3b 1735 39bc
000000c0: 41a9 1cbc 904a ea3b e034 c9bb abb6 b63c
000000d0: f58c 193c e511 29bd 14a3 b9ba ba81 f43c
000000e0: d3e7 36bb c50f e03b 26e2 a3bc 7b7d a7bb
000000f0: 167c 8b3b 1120 f43a 7d6f 3bba 0d73 f93b
00000100: 6cfd 5eba 90c0 bdbb b77d d43b 86e2 b03b
00000110: 2ef6 8cbc 6691 163b aeae 7a3c 2f0b 5b3c
00000120: a134 0e3c 7b43 2fbc 2818 f93b 63f1 85bb
00000130: 125e bbbb 6670 813c 3adc 9e3b ff36 7abc
00000140: 4caf 5cbc 1a39 663c d6cd 723b f40c 423c
00000150: 2297 18bb f7df 5ebb d296 6bbb df5f 23bc
00000160: 5b7c 86bb 777e 183c 10c9 3e3b bc57 183c
00000170: c751 6ebc cdf8 bb3b 2064 4f3c fa2a 3d3c
0.008549215 -0.028017262 0.008996499 -0.015962781 -0.025367849 0.008629097 -0.007728817 -0.017789919
0.02082551 0.00024540327 0.018716611 0.0009437511 -0.00474035 -0.008064419 -0.003324858 -0.012146343
-0.007289065 0.006572964 0.0028663857 -0.0027270257 -0.0019010617 0.0013934807 -0.009374775 -0.003818367
-0.009354287 0.011890752 -0.0015077231 0.022696758 0.0057164105 -0.007822686 -0.0012651897 -0.01323903
0.005972324 0.028350184 -0.0021745972 -0.020369025 0.010258381 -0.017834384 0.0078124627 0.014670895
-0.02776702 0.010369574 -0.007412474 0.0007021662 -0.0038221905 -0.013302625 0.0066751186 -0.0113041615
-0.009561838 0.007150002 -0.0061403364 0.0223039 0.009371986 -0.04127683 -0.0014162981 0.029847015
-0.0027909174 0.0068378174 -0.020005297 -0.005111394 0.0042567356 0.0018625279 -0.0007150097 0.007612592
-0.0008506391 -0.0057907775 0.006484713 0.0053980974 -0.017207231 0.0022974848 0.015300436 0.013369366
0.00867954 -0.010697241 0.0076017566 -0.0040876134 -0.005718001 0.015800666 0.0048480304 -0.015271901
-0.013469528 0.0140517 0.0037048957 0.011843909 -0.0023283442 -0.0034008005 -0.003594805 -0.009971588
-0.00410418 0.009307495 0.0029111542 0.009298261 -0.014545864 0.0057364465 0.012658149 0.011545891

dense_2/kernel/transpose f4 [96, 192]
00000000: d270 ea3d 347d 0c3e ea94 82bc 3560 063e
00000010: a010 e83d 7ce2 793d 04cd c23b 4a67 15bd
00000020: c3f7 afbd 88bb 03be 49ad 713d e9f9 9b39
00000030: a38c 3fbe ac38 9abe 18b4 a1be 21bf d9bd
00000040: 46dd aebe 8820 d23d 295a 50bd b23d 873d
00000050: 309d 3f3e 9bd7 763d 11dc a43b f308 183d
00000060: b866 93bd 991e 1dbe 5466 b43d 10d3 403e
00000070: 93f5 3c3e fa46 c73d 7546 913d 9751 0fbe
00000080: 3bdf 5dbe 10df fb3c 366c 713a d637 10be
00000090: 7136 083d 889a 19bd 8f10 ebbb 1523 19be
000000a0: 18bc ad3d 60f7 d53c aaed d4bd f33f 75bd
000000b0: eb10 a13d 4997 843e da77 43be 7153 0cbc
000000c0: 34e5 223d 373a 2ebc 2bbe 95bd bf7e 563d
000000d0: 07bf 1dbe fe79 213d 81a2 3abd 61b6 4d3c
000000e0: cf05 04bd 8c37 ebbd d0e1 803d e497 0cbe
000000f0: 7b1e 003d 79c1 4fbd 77cb 7ebe 159c 73bc
00000100: d367 08be dadc f13d e3f0 95bd 6331 c4bd
00000110: 8f74 b7bc 1c3b 3dbc d2e1 0abe 66b8 843d
00000120: 072d 14bd afbf 7dbe c164 3ebe c707 b5bc
00000130: 1cf1 313d 1dd1 113e 9a73 24be 45e3 50be
00000140: f766 b13c 0e39 8abd b430 8b3d a68d 373e
00000150: 7e18 413d d8ab 18be 2604 673d b5b2 29bd
00000160: 436f 3ebd 5c0c 48be 8546 653d 4f7b 0d3e
00000170: 0955 11be 4714 44bd 9e14 da3c 235e 05be
00000180: aa5f 5ebc 7259 ffbc 3847 f23d 9483 44be
00000190: c295 3abe ff7d 7e3c b28e 8bbd 4ee9 49be
000001a0: 1ff5 0dbd 35b9 12bd 8b6f b6bb 3dfd 47be
000001b0: eb6e 0e3e b1a6 5cbd ccb9 34be 7f42 0b3e
000001c0: 3c8c 733d f440 c33d 82a4 8dba 3ff6 113e
000001d0: 431e e1bc 3049 963d 0d40 fa3d 2bec 09be
000001e0: cefc 7b3c 180d 973c 76e1 a13d cd2b 02bd
000001f0: 3457 8abc dba8 1e3e d9a0 02bc f67f 41be
00000200: 6fe6 7e3d c45b 853d b273 6d3e a358 e6bd
00000210: 8dc6 dd3d db49 d2bd 1913 4f3d 2986 7fbd
00000220: 84a3 183e dc98 403b 9670 843d 34c6 03be
00000230: c19a 0c3d 3edd d4bd 1dc9 cb3d f3bc 07be
00000240: 7871 6d3b 9e71 e3bd 7cc9 1dbe e260 10be
00000250: 4ea1 41bd ed3e 003e 1052 3a3d 3ce7 123e
00000260: 8bf1 5dbe 0be4 e33c 5c33 a73d cf67 07be
00000270: 519f d83d 7946 d93d 1f62 1cbe 0bed 1abe
00000280: e979 6c3c f3cc 6cbc e840 033e fc0a 79bd
00000290: 3449 d83d 0767 37be c066 c83d 7446 303d
000002a0: df72 d13d 413a d3bc 85b2 ae3d aa6e 113d
000002b0: ec5e cabd 53fc e3bd 3017 483e a04b d93c
000002c0: 2d9f d83d 9eef f53d d1fa 35bd fb27 7bbd
000002d0: a629 c8bd b72e 73bc 0a4b 163e 7560 fc3c
000002e0: bd88 db3c 8b38 723d e276 0ebc 65d7 1fbe
000002f0: d24f 203e 1069 1c3d 379e f1bd 67d9 22be
00000300: d3df 52be ccfc 09be 48ca 243e 7b1d 463d
00000310: f80b 733d 8d16 19bd ee6f 43be 8f55 fc3b
00000320: 21d9 43bd 7c77 e93c 8b8d 17bd 2d49 94bd
00000330: e1ed da3c 508e 3f3e 44ff 3b3e aa92 233e
00000340: 8981 d43e 65fa 95bd 18f4 893d a4c9 bbbd
00000350: e02a 86bc 7688 b9bb e3a5 66be a553 02be
00000360: 0c72 7fbd 355a b9bc f8cb bfbb eac6 8cbb
00000370: 73af 26be e2c6 c9bd 3a7c 3abe 2281 573d
00000380: c4ef 843c aca7 06be eebe e6bd 7805 513d
00000390: 3006 3f3e 1fd7 e3bd 42c5 f3bc be50 fcbb
000003a0: 196d 82bd 224f cdbd e1a3 133d 7f1e 023e
000003b0: 4037 4ebe a583 0fbe a2aa 023e 91cd 85bc
000003c0: 2426 fd3d 726a 6dbe ae0b 393e 39e1 6f3d
000003d0: d457 55bd 2cd0 ec3d 468e 9b3e 1631 2fbd
000003e0: 6bbc 87bb ffed 063e 5017 d0bb 58ed 5d3e
000003f0: fd60 81bd 12a9 303d 1b9b a83e 1831 693b
0.114473 0.13719636 -0.015940148 0.13122638 0.11331296 0.061007008 0.00594485 -0.036475457
-0.08592179 -0.12864506 0.05900315 0.000297501 -0.18705992 -0.30121362 -0.31582713 -0.10632158
-0.34153193 0.10260111 -0.050867233 0.06603564 0.18712306 0.06026421 0.005031117 0.03711791
-0.071973264 -0.15343703 0.0880858 0.18830514 0.18453054 0.097303346 0.07093517 -0.13995968
-0.21667187 0.030746013 0.0009209545 -0.140838 0.033255044 -0.037500888 -0.007173605 -0.14954789
0.08483142 0.026118934 -0.10396893 -0.05987544 0.07864555 0.2589667 -0.19088688 -0.008564816
0.039769366 -0.010633997 -0.07311662 0.05236697 -0.15404902 0.03942298 -0.045565132 0.01255569
-0.032232102 -0.11485204 0.0629307 -0.13729817 0.03127907 -0.05072162 -0.24882303 -0.014868756
-0.13320856 0.11809702 -0.07321336 -0.09579732 -0.022394447 -0.011549737 -0.13562706 0.06480484
-0.036175754 -0.24780153 -0.18593122 -0.022098435 0.04344283 0.14239927 -0.16059723 -0.20399196
0.021655543 -0.067491636 0.06796399 0.17925128 0.0471425 -0.14909303 0.05640044 -0.041430194
-0.046492826 -0.19535965 0.055975456 0.1381657 -0.14192595 -0.0478709 0.02662116 -0.13024192
-0.013572613 -0.03117058 0.1182999 -0.19190818 -0.1822119 0.0155329695 -0.06814326 -0.19717905
-0.034657594 -0.03582116 -0.005567496 -0.19530196 0.139095 -0.053869907 -0.17649001 0.13599585
0.05945991 0.09533873 -0.0010806473 0.14254092 -0.02748025 0.07338178 0.12219248 -0.13468997
0.015380098 0.01843886 0.079043314 -0.031780053 -0.016887285 0.15494101 -0.007972919 -0.1889647
0.062231477 0.065116435 0.23188666 -0.11247375 0.10828886 -0.10267993 0.050555322 -0.062383804
0.14906126 0.0029387986 0.064667866 -0.12868577 0.034327272 -0.10393761 0.09950469 -0.13255672
0.0036230963 -0.11105655 -0.15408891 -0.14099458 -0.047272973 0.12524004 0.045488417 0.14346021
-0.21674173 0.0278187 0.08164093 -0.13223194 0.10577262 0.10609145 -0.15271805 -0.15129487
0.0144333625 -0.014453161 0.12817729 -0.06080149 0.105608374 -0.17910396 0.09785223 0.04303594
0.10226988 -0.025784614 0.08530144 0.035505928 -0.09881386 -0.111321114 0.19540095 0.026525319
0.10577235 0.12008594 -0.04442865 -0.061317425 -0.09773569 -0.014842681 0.14677063 0.030807713
0.0267986 0.059135955 -0.008695336 -0.1560951 0.15655449 0.038186133 -0.11797755 -0.15903245
-0.20593195 -0.1347534 0.16092789 0.04836796 0.059337586 -0.03737502 -0.19085667 0.007700629
-0.047814492 0.028499357 -0.03700022 -0.0724052 0.026724758 0.18706632 0.18359095 0.15973917
0.41505077 -0.073231496 0.0673601 -0.09169319 -0.016377866 -0.0056620194 -0.22524218 -0.1272722
-0.062364623 -0.022626022 -0.0058531724 -0.0042961733 -0.16277866 -0.09852387 -0.18211451 0.052613385
0.01622761 -0.13149899 -0.11266886 0.051030606 0.18654704 -0.111250155 -0.029757146 -0.007700055
-0.06368465 -0.10024859 0.03604496 0.12706946 -0.20138264 -0.14015062 0.12760404 -0.016333373
0.1236079 -0.23185137 0.18070862 0.0585644 -0.052085713 0.11563143 0.30381984 -0.04277142
-0.004142334 0.13176726 -0.0063504353 0.2167257 -0.06317327 0.043129988 0.32930836 0.003558224

dense_3/MatMul_bias f4 [2]
00000000: 737a 5f3c 417a 5fbc
0.013640034 -0.013639987
