libs/models/discriminator.tflite (tflite, 50944 bytes, 16 tensors)

batch_normalization_1/FusedBatchNorm_add_param f4 [2]
0	0xc1f08d01	-30.06885
1	0xc0a349e4	-5.10277

batch_normalization_1/FusedBatchNorm_mul_0_param f4 [2]
0	0x4282822e	65.25426
1	0x424cd2af	51.205746

batch_normalization_2/FusedBatchNorm_add_param f4 [4]
0	0xbe2e84f8	-0.17042911
1	0xc23ffadb	-47.994976
2	0xbcb4e056	-0.022079628
3	0xc07062b2	-3.756024

batch_normalization_2/FusedBatchNorm_mul_0_param f4 [4]
0	0xc0577fdb	-3.3671787
1	0x429b044a	77.50838
2	0x3d851571	0.0649823
3	0x41e865c9	29.0497

batch_normalization_3/FusedBatchNorm_add_param f4 [8]
0	0xbd53061f	-0.05151951
1	0xc0c40d40	-6.1266174
2	0xc07bf804	-3.9370127
3	0xc0fea32c	-7.9574184
4	0xc0a2a8b3	-5.083093
5	0xbfa5e4c1	-1.2960435
6	0x3de45c27	0.11150389
7	0xc0a342b2	-5.1018915

batch_normalization_3/FusedBatchNorm_mul_0_param f4 [8]
0	0x3e871050	0.26379633
1	0x4196929f	18.821592
2	0x40b5866f	5.6726604
3	0x41a1fd87	20.248793
4	0x413f187e	11.94348
5	0x4185c1c3	16.71961
6	0xbef2eafb	-0.474449
7	0x4142660f	12.149917

conv2d_1/Conv2D_bias f4 [2]
0	0xbe17dfbc	-0.14831442
1	0xbfc76f63	-1.5580868

conv2d_1/kernel f4 [2, 7, 7, 3]
0	0x3bb71101	0.005586744
1	0x3bf74821	0.00754644
2	0x3b8142b8	0.003944721
3	0xbc9d9d2d	-0.019239986
4	0xbc7ed000	-0.015552521
5	0xbc9181c4	-0.017762072
6	0xbcd49c5f	-0.02595347
7	0xbcb3b04f	-0.021934656
8	0xbcc4b274	-0.024010874
9	0xbc1a06db	-0.0094010485
10	0xbbe122fb	-0.006870625
11	0xbc3a3c61	-0.0113669345
12	0x3c38c933	0.011278438
13	0x3c49f416	0.012326261
14	0x3bd64b85	0.0065397643
15	0x3cb39fd0	0.02192679
16	0x3cb528f1	0.022114249
17	0x3c7a944e	0.015294148
18	0x3c313923	0.010816845
19	0x3c1961a6	0.00936166
20	0x3ad1d542	0.001600899
21	0x3ba90140	0.0051576197
22	0x3b924ed9	0.004464966
23	0x3b31d60a	0.0027135634
24	0xbc91870b	-0.017764589
25	0xbc870988	-0.016484037
26	0xbc816662	-0.01579589
27	0xbcd6ff28	-0.026244715
28	0xbcc6153e	-0.024180051
29	0xbcb76cbf	-0.022390721
30	0xbcab6ec5	-0.020926842
31	0xbc9c5613	-0.019084012
32	0xbca0a522	-0.019609991
33	0xbba46a94	-0.005017588
34	0xbb6f03ca	-0.0036470764
35	0xbbba24f3	-0.005680674
36	0x3c3a5d53	0.011374789
37	0x3c4f13de	0.012639014
38	0x3c19f87b	0.009397621
39	0x3bf82c6d	0.0075736553
40	0x3c082228	0.008308925
41	0x3b7aa399	0.0038244484
42	0x3bf16630	0.007366918
43	0x3bbb93e9	0.0057244194
44	0x3ba75415	0.005106459
45	0xbc81f33f	-0.01586306
46	0xbc8307e3	-0.015994972
47	0xbc7b99cd	-0.015356493
48	0xbcbed0b7	-0.023292882
49	0xbcb5152d	-0.022104824
50	0xbca38ad2	-0.019963656
51	0xbc979bf9	-0.01850699
52	0xbc8ee358	-0.01744239
53	0xbc6f54e8	-0.014607646
54	0xbc318b8d	-0.010836494
55	0xbc14b90c	-0.009077322
56	0xbbd8853d	-0.00660768
57	0xbb8979b9	-0.0041954187
58	0xbaf93811	-0.0019013901
59	0xba579c5f	-0.00082249
60	0xbb87c3d6	-0.0041432185
61	0xbade22e7	-0.0016947658
62	0xbb298c42	-0.0025870954
63	0x3c88ca37	0.016697986
64	0x3c6db7f3	0.014509189
65	0x3c62d0d7	0.013843737
66	0xbb1fb0d2	-0.0024366868
67	0xbb6a1d60	-0.0035723075
68	0xbba93d26	-0.00516476
69	0xbbfac57e	-0.0076529374
70	0xbbf3bc90	-0.00743825
71	0xbc07c19e	-0.008285908
72	0xbbc2eea9	-0.0059488607
73	0xbbb759c6	-0.0055954186
74	0xbb6b2d10	-0.0035885014
75	0xbbe6158b	-0.007021611
76	0xbbb18ddb	-0.005418522
77	0xba9d465d	-0.0011999119
78	0xbc224f70	-0.009906635
79	0xbbe8602b	-0.0070915422
80	0xbb24c91a	-0.002514428
81	0xbcac80e3	-0.021057552
82	0xbc8c44c4	-0.017122634
83	0xbc65e98f	-0.0140327355
84	0x3cdb482a	0.026767809
85	0x3cce7a70	0.025204867
86	0x3cd0aefc	0.025474064
87	0x3c920ddf	0.01782888
88	0x3c843b16	0.016141456
89	0x3c644ae4	0.013933871
90	0x3bf5ae98	0.00749762
91	0x3bdd520d	0.006754166
92	0x3b7c7bbe	0.0038525905
93	0xbadc9fba	-0.001683227
94	0xbb0b7d8d	-0.002128455
95	0xbb1a6d7c	-0.0023563793
96	0xbc09005d	-0.008361903
97	0xbbe3e7c6	-0.00695512
98	0xbb27a78f	-0.002558205
99	0xbc8cbf3a	-0.017181028
100	0xbc65a94b	-0.014017413
101	0xbbdf28ca	-0.0068102824
102	0xbd02d9ca	-0.03194598
103	0xbcdf00eb	-0.027222117
104	0xbca1f7ba	-0.019771446
105	0x3d191f51	0.03738338
106	0x3d14419f	0.036195394
107	0x3d16cf1d	0.036818612
108	0x3d368c5d	0.044567455
109	0x3d2dc226	0.042421483
110	0x3d23e38d	0.04001193
111	0x3d0ab688	0.03386548
112	0x3d014f56	0.0315698
113	0x3ce31cc4	0.027723677
114	0x3c6a6c52	0.014308052
115	0x3c496243	0.012291494
116	0x3c1c830e	0.00955273
117	0x3a3e8b86	0.00072687154
118	0x3a021e72	0.0004963643
119	0x3b414cd7	0.0029495263
120	0xbc18e8df	-0.009332865
121	0xbbf2b5f0	-0.0074069425
122	0xb8df6f96	-0.00010654253
123	0xbcb36c0b	-0.021902105
124	0xbc8fe4bd	-0.017565126
125	0xbc0b8fd0	-0.008518174
126	0x3cb6bfaa	0.02230819
127	0x3cb54396	0.022126954
128	0x3cc1d96d	0.023663247
129	0x3d175835	0.036949355
130	0x3d0ea197	0.034822073
131	0x3d04a3d5	0.032382805
132	0x3d0b9d8c	0.034085795
133	0x3cfea1f8	0.031083092
134	0x3cdb3b59	0.026761698
135	0x3c96d63b	0.0184127
136	0x3c745494	0.014912743
137	0x3c35a05c	0.011085596
138	0x3be79a1d	0.0070679323
139	0x3ba4caa3	0.005029039
140	0x3bc0448c	0.0058675464
141	0xbba9d63c	-0.0051830094
142	0xbba63760	-0.005072519
143	0x3a2aafad	0.0006511163
144	0xbc90ab3f	-0.017659782
145	0xbc6f2130	-0.014595315
146	0xbbdc500b	-0.006723409
147	0xbcea941e	-0.02863508
148	0xbc93f3af	-0.018060533
149	0x3cc24b18	0.023717448
150	0xbd212105	-0.03933813
151	0xbcdf9510	-0.027292758
152	0x3c416ddb	0.011805977
153	0xbcea1f2a	-0.028579313
154	0xbc7994ff	-0.015233277
155	0x3cb0eda4	0.02159769
156	0xbd289bc2	-0.041164167
157	0xbcd43b64	-0.025907226
158	0x3bf26c82	0.007398189
159	0xbd05cac8	-0.03266409
160	0xbc9208c6	-0.01782645
161	0x3c359fcf	0.011085465
162	0xbd2596f4	-0.040427163
163	0xbcdd854d	-0.027041102
164	0xbb06aa48	-0.0020548273
165	0xbd07b41e	-0.033130758
166	0xbcadfd11	-0.021238836
167	0xba413e40	-0.00073716417
168	0xbcd270c4	-0.025688536
169	0xbc41e236	-0.011833718
170	0x3cd959ef	0.026532141
171	0xbd17bb37	-0.037043776
172	0xbcb61919	-0.022228764
173	0x3c70cdbd	0.014697489
174	0xbcc73977	-0.024319394
175	0xbc1639cd	-0.009169054
176	0x3cd7305a	0.026268173
177	0xbd0dd0ba	-0.034622885
178	0xbc918c12	-0.017766986
179	0x3c845685	0.016154537
180	0xbcafabe7	-0.021444274
181	0xbbbcdc29	-0.00576355
182	0x3cc598b2	0.024120662
183	0xbcc5dafc	-0.024152271
184	0xbc1ca881	-0.009561659
185	0x3c9ccbe5	0.019140193
186	0xbc94c76d	-0.0181615
187	0xbb91d867	-0.004450846
188	0x3ca707a2	0.020389382
189	0xbce79975	-0.028271416
190	0xbc45a755	-0.012063821
191	0x3cb3fb45	0.0219704
192	0xbd29057f	-0.041265007
193	0xbccbf89b	-0.024898818
194	0x3c10caa2	0.008837374
195	0xbcf98436	-0.03045855
196	0xbc66227a	-0.014046306
197	0x3ca0c114	0.019623317
198	0xbd2a5802	-0.041587837
199	0xbcc55aca	-0.024091143
200	0x3c1ed7ff	0.009695052
201	0xbccb77d7	-0.024837418
202	0xbc0fa96e	-0.0087684225
203	0x3cb820bc	0.022476546
204	0xbcb88c44	-0.022527821
205	0xbc12b2a5	-0.008953725
206	0x3cb379de	0.021908697
207	0xbc76347b	-0.015027161
208	0xbb0fb041	-0.0021925124
209	0x3cd6d007	0.026222242
210	0xbcbb70a5	-0.022880862
211	0xbbb296bc	-0.005450098
212	0x3cc621cf	0.024186043
213	0xbd272b58	-0.04081282
214	0xbcb9097b	-0.022587528
215	0x3c01ae25	0.007915054
216	0xbd0996c0	-0.033591032
217	0xbc85d555	-0.016337076
218	0x3c7902c6	0.015198415
219	0xbd353641	-0.044241194
220	0xbcd682f9	-0.0261855
221	0x3be3aa23	0.006947772
222	0xbcc14e65	-0.023596952
223	0xbc0b4155	-0.008499463
224	0x3cbeed65	0.023306558
225	0xbca34309	-0.019929426
226	0xbbf30d20	-0.007417336
227	0x3cd0e3f3	0.02549932
228	0xbc3e4c46	-0.011614865
229	0xba167bce	-0.0005740494
230	0x3cfa432e	0.030549612
231	0xbc77d078	-0.015125386
232	0xb9090758	-0.00013068074
233	0x3cc46270	0.02397272
234	0xbd0d58d7	-0.034508552
235	0xbc98d2d4	-0.018655218
236	0x3bc46780	0.0059937835
237	0xbcf95011	-0.030433686
238	0xbc7e5ba3	-0.015524778
239	0x3c4986a7	0.01230017
240	0xbd29f06e	-0.041489057
241	0xbcd381fd	-0.02581882
242	0x3b5365e6	0.003225678
243	0xbc9b344d	-0.018945837
244	0xbbcd71fe	-0.0062696924
245	0x3cbdedf9	0.023184763
246	0xbc861446	-0.016367089
247	0xbbe4f67d	-0.0069873915
248	0x3cc7505b	0.024330309
249	0xbbe56743	-0.007000835
250	0xb887aee4	-6.4698776e-05
251	0x3d01d6e4	0.031699076
252	0xbadf53de	-0.0017038544
253	0x3c47bd7a	0.012191171
254	0x3cfce28f	0.03086975
255	0xbcd99fbb	-0.026565423

conv2d_2/Conv2D_bias f4 [4]
0	0xbec6e9a8	-0.3885014
1	0x3f084c4b	0.53241414
2	0x3f661b2b	0.89885205
3	0xbfd27276	-1.6441181

conv2d_2/kernel f4 [4, 3, 3, 2]
0	0x3b8aff61	0.0042418693
1	0xbc5c860d	-0.013459695
2	0x3b4027e8	0.002932066
3	0xbc4d2737	-0.012521557
4	0xba01f3d8	-0.0004957295
5	0xbc3a832e	-0.011383815
6	0x3c011a2e	0.007879777
7	0xbc531c69	-0.0128851915
8	0x3c08cdd0	0.008349851
9	0xbc3edee8	-0.011649825
10	0x3b856ee3	0.0040720566
11	0xbc2c4949	-0.010515519
12	0x3bc98670	0.0061500594
13	0xbc473f4c	-0.012161087
14	0x3c275f52	0.010215597
15	0xbc30beb5	-0.010787656
16	0x3c0c21c6	0.008552974
17	0xbc18de7e	-0.00933039
18	0xbc51f3a0	-0.012814432
19	0x3cfc45cd	0.030795002
20	0xbd7e5cac	-0.062100098
21	0x3d9b6779	0.07588095
22	0x3cc8b25f	0.024499116
23	0x3de6a6dd	0.112622954
24	0x3c44f407	0.012021071
25	0xbda33e96	-0.07970922
26	0xbc884d2c	-0.01663836
27	0xbc89cbb4	-0.016820766
28	0xbbb1689b	-0.0054140813
29	0x3d50624a	0.050874986
30	0xbb0685db	-0.0020526561
31	0xbe091038	-0.13385093
32	0x3c0fd960	0.008779854
33	0xbd98097e	-0.074236855
34	0x3ae25328	0.0017267214
35	0x3c862c50	0.016378552
36	0x37494a96	1.19978995e-05
37	0xb78ceea2	-1.6800423e-05
38	0x372032b5	9.548549e-06
39	0xb78abad0	-1.6537873e-05
40	0x370fa443	8.561709e-06
41	0xb78714de	-1.6102971e-05
42	0x372c8214	1.0282285e-05
43	0xb79460d7	-1.768807e-05
44	0x370532e4	7.939267e-06
45	0xb7927d7c	-1.746299e-05
46	0x36ead60f	6.998663e-06
47	0xb78e314d	-1.6950677e-05
48	0x372ead23	1.041152e-05
49	0xb79abc56	-1.8445931e-05
50	0x370ae66e	8.279092e-06
51	0xb79a06de	-1.8361428e-05
52	0x3703179c	7.813705e-06
53	0xb7955f0f	-1.780645e-05
54	0xbdc0b5cb	-0.09409674
55	0x3c5d1b66	0.013495302
56	0xbd022ab1	-0.031778995
57	0x3c04a60b	0.008096228
58	0x3de27cf5	0.1105899
59	0x3cba1aea	0.022717912
60	0x3d30bbfa	0.04314802
61	0x3a8f0307	0.0010910936
62	0xbd03ec81	-0.03220797
63	0xbc4af491	-0.012387411
64	0xbcbd9f6d	-0.02314731
65	0x39fbe98c	0.00048048457
66	0x3dde0685	0.10841087
67	0xbc6f52cc	-0.014607143
68	0x3c4251d4	0.01186033
69	0xbc709387	-0.014683611
70	0xbdd449ad	-0.10365615
71	0xbc9dfcd8	-0.019285604

conv2d_3/Conv2D_bias f4 [8]
0	0xbfb53d34	-1.4159303
1	0xbede8480	-0.43460464
2	0x3f387af0	0.7206259
3	0xbe0076ce	-0.1254532
4	0xbe6fba6b	-0.23410957
5	0xc001b0bc	-2.026412
6	0xbf971089	-1.1801921
7	0xbef54bb8	-0.4790933

conv2d_3/kernel f4 [8, 3, 3, 4]
0	0x2964a553	5.0769566e-14
1	0xa8c941b4	-2.2343977e-14
2	0x2337b3d4	9.95853e-18
3	0xa8a7ed09	-1.8643522e-14
4	0x2965d05a	5.102893e-14
5	0xa894f63c	-1.6538088e-14
6	0x2338acfc	1.0011291e-17
7	0xa8f3621a	-2.7020964e-14
8	0x2965d278	5.1030767e-14
9	0xa8bfa19d	-2.1275348e-14
10	0x2338015c	9.974948e-18
11	0xa895207f	-1.6556416e-14
12	0x2965d5de	5.1033715e-14
13	0xa8aba7e8	-1.9057631e-14
14	0x234a988c	1.0982745e-17
15	0xa8dcea04	-2.4526395e-14
16	0x29669688	5.1200824e-14
17	0xa8a9ef74	-1.8866615e-14
18	0x235c8ed8	1.1956472e-17
19	0xa8c65b70	-2.202207e-14
20	0x29672fe8	5.1333856e-14
21	0xa8c5cb01	-2.1959432e-14
22	0x234ce7be	1.11079355e-17
23	0xa8ef535b	-2.657048e-14
24	0x296d0950	5.263265e-14
25	0xa883d0d2	-1.4634483e-14
26	0x233de2e8	1.029376e-17
27	0xa8982a11	-1.6893633e-14
28	0x296c5b0f	5.2481508e-14
29	0xa8a708cf	-1.8544545e-14
30	0x235c2998	1.1935032e-17
31	0xa8d51908	-2.3658606e-14
32	0x296c670e	5.2491912e-14
33	0xa8d644a2	-2.3788537e-14
34	0x2349bffd	1.0936887e-17
35	0xa889cb85	-1.5298318e-14
36	0x3bae0465	0.0053105825
37	0xbd0e8b44	-0.034800783
38	0x3857a6c2	5.14153e-05
39	0xbcc3776a	-0.023860652
40	0x3b8591df	0.004076227
41	0x3d513ce5	0.051083464
42	0x38952be8	7.113052e-05
43	0xbd1a7da8	-0.03771749
44	0x3b64d4aa	0.0034916797
45	0xbca43f77	-0.020049794
46	0x386ac789	5.597578e-05
47	0xbcaf19f0	-0.021374673
48	0x3ba00848	0.0048837997
49	0xbcda35b2	-0.026636932
50	0x3861c644	5.382883e-05
51	0xbcf1c25c	-0.029511623
52	0x3b54194b	0.0032363709
53	0x3d5903d9	0.052982185
54	0x38980cc0	7.2503e-05
55	0xbd023ca5	-0.031796116
56	0x3b5f6608	0.0034087915
57	0xbca22103	-0.019791132
58	0x38948137	7.081258e-05
59	0xbc42d5f2	-0.011891829
60	0x3b8a5fe3	0.0042228564
61	0xbcd005fa	-0.025393475
62	0x386492ee	5.4496275e-05
63	0xbd0ef33e	-0.034899943
64	0x3b4414b8	0.0029919576
65	0x3d4e70ff	0.05040073
66	0x389e72b7	7.5553944e-05
67	0xbce0b9ab	-0.027432283
68	0x3b9c6d7d	0.004773794
69	0xbcd34f8a	-0.025794763
70	0x38a5d17e	7.906834e-05
71	0xbca95f6d	-0.020675385
72	0x3b62e13a	0.0034619109
73	0x3bbe0e6d	0.0058000595
74	0xb8d55fe1	-0.0001017449
75	0x3b2a4747	0.0025982426
76	0x3b724eb5	0.0036973183
77	0x3c173b19	0.009230399
78	0xb8d5d04c	-0.0001019543
79	0x3bb91e56	0.0056493683
80	0x3b70905f	0.0036707146
81	0xbb8ae703	-0.0042389645
82	0xb8d6cb7c	-0.00010242217
83	0x3a9c9cc4	0.0011948575
84	0x3b32b0ea	0.0027266094
85	0x3cb42418	0.021989867
86	0xb8d3fd1b	-0.000101084086
87	0xbb503807	-0.0031771676
88	0x3b499dd9	0.003076425
89	0x3ce52521	0.027971806
90	0xb8d1f5e3	-0.000100116966
91	0x3c13be1e	0.009017495
92	0x3b5ce421	0.0033705311
93	0x3c3ded3b	0.011592205
94	0xb8d3a007	-0.000100910715
95	0x3b595dc2	0.0033167456
96	0x3b2487aa	0.0025105276
97	0x3b3e6488	0.002905162
98	0xb8d23809	-0.00010024018
99	0xbc12cbff	-0.008959769
100	0x3b1e995c	0.0024200296
101	0x3c363abe	0.011122404
102	0xb8cc9420	-9.7550685e-05
103	0xbb25c902	-0.0025296812
104	0x3b331a89	0.0027329049
105	0x3c0eccd9	0.008715832
106	0xb8ccd0ae	-9.766348e-05
107	0x3bf472e0	0.007459983
108	0x3c8edfc9	0.017440693
109	0xbcafd221	-0.021462502
110	0x3916aa9a	0.00014368669
111	0xbc92ba22	-0.01791102
112	0x3c7ded62	0.015498491
113	0xbce4a267	-0.02790947
114	0x391735c7	0.00014420516
115	0x3b2aa0f4	0.0026035877
116	0x3c73abff	0.01487255
117	0xbb460bbf	-0.0030219404
118	0x3917f3c7	0.00014491296
119	0xb9a841fe	-0.00032092625
120	0x3c865874	0.0163996
121	0x3d536cbe	0.051617377
122	0x3917ac1c	0.00014464598
123	0xbd1559d1	-0.03646261
124	0x3c6e749a	0.014554167
125	0x3d179045	0.03700282
126	0x39185113	0.00014526052
127	0xbcdcd8c6	-0.026958834
128	0x3c6b3d35	0.014357855
129	0x3ce0878c	0.027408384
130	0x3918564f	0.00014528002
131	0xbce9146c	-0.02845212
132	0x3c805123	0.015663689
133	0xbd1045d0	-0.03522283
134	0x3917d108	0.00014478352
135	0xbc9d1293	-0.019173896
136	0x3c607b5b	0.013701285
137	0xbc5c482b	-0.013444941
138	0x39185c67	0.00014530272
139	0xbba5cced	-0.0050598294
140	0x3c655015	0.013996144
141	0xbcd9a49c	-0.02656775
142	0x391889c8	0.00014547177
143	0xbbd9fd8a	-0.0066525387
144	0x3b84a194	0.004047582
145	0x3cf29903	0.029613977
146	0xb71d8440	-9.388721e-06
147	0xbc9b3abb	-0.018948903
148	0x3b7da3b8	0.003870232
149	0x3d21901f	0.039444085
150	0xb70b01d7	-8.285474e-06
151	0xbca9b536	-0.02071629
152	0x3b8976a2	0.0041950503
153	0x3cd978f5	0.026546935
154	0xb70df6c5	-8.46171e-06
155	0xbcb4c095	-0.022064487
156	0x3b3aa30e	0.0028478536
157	0xbc0d15af	-0.008611127
158	0xb71b533f	-9.258102e-06
159	0xbc89bd88	-0.016814008
160	0x3b1251c4	0.0022326568
161	0xb98cbdf7	-0.00026844416
162	0xb7163ba5	-8.954584e-06
163	0xbc814439	-0.015779601
164	0x3b04ca71	0.0020262266
165	0x39b5b2ba	0.00034656172
166	0xb7167dc2	-8.969977e-06
167	0xbc4782be	-0.012177167
168	0x3b4378b5	0.0029826586
169	0xbc8fbb84	-0.01754547
170	0xb70d8597	-8.435359e-06
171	0xbc3ae29c	-0.011406567
172	0x3b1371d4	0.0022498267
173	0xbc8adf40	-0.016952157
174	0xb70beef1	-8.3406785e-06
175	0xbc6995de	-0.0142569225
176	0x3afb7cba	0.0019186952
177	0xbc6c1029	-0.01440815
178	0xb7122064	-8.70982e-06
179	0xbc5169e1	-0.012781591
180	0xbabba0db	-0.0014314906
181	0xbd99beeb	-0.07507118
182	0xba08bb1e	-0.0005215871
183	0xbcb937fa	-0.0226097
184	0xbb3acf11	-0.002850477
185	0xbdb95b13	-0.09050574
186	0xba0733af	-0.0005157543
187	0xbd69c37b	-0.05707119
188	0xbaff0e0b	-0.0019459141
189	0xbd7ae931	-0.061257545
190	0xba07e387	-0.00051837455
191	0xbd51c4f6	-0.051213227
192	0x3b02ba3c	0.001994743
193	0x3cf78a88	0.030217424
194	0xba0aaf83	-0.00052904355
195	0xbc212b28	-0.009836949
196	0x3ab936ad	0.0014130675
197	0x3bc6490e	0.0060511893
198	0xba0a4587	-0.00052746426
199	0xbcfffad5	-0.031247536
200	0x3b63b939	0.0034747852
201	0xbc8f2857	-0.01747529
202	0xba0b36d7	-0.0005310601
203	0xbd4c1c03	-0.0498314
204	0x3b1bca17	0.0023771578
205	0x3d89eae1	0.06734253
206	0xba097b8a	-0.0005244544
207	0xbd1695aa	-0.036763825
208	0x3b48d3bb	0.003064378
209	0x3da68c07	0.08132177
210	0xba097f61	-0.0005245116
211	0xbd2dcc7a	-0.042431332
212	0x3bbd637e	0.0057796827
213	0x3d5506c7	0.052008417
214	0xba0a71b0	-0.0005281223
215	0xbd36f290	-0.04466492
216	0xad2854d0	-9.5685265e-12
217	0x2fe5e598	4.1817994e-10
218	0xb1615732	-3.2791374e-09
219	0x30781c36	9.0261965e-10
220	0xaf14f722	-1.3548321e-10
221	0x2ff43bd7	4.442586e-10
222	0x31093d21	1.9970872e-09
223	0x2feb4032	4.2791864e-10
224	0xaeb41852	-8.1897725e-11
225	0x30545d64	7.7257867e-10
226	0x2dcd116e	2.3313542e-11
227	0x2f9da610	2.8676128e-10
228	0x2e360840	4.1389336e-11
229	0xaddb054a	-2.4899766e-11
230	0x2fd35bd1	3.8445916e-10
231	0x30080ccc	4.94947e-10
232	0xaf050eba	-1.2101511e-10
233	0xaf2efc39	-1.5914815e-10
234	0xb100adf8	-1.8725341e-09
235	0x302327f9	5.935586e-10
236	0xaeb9f1e0	-8.4557916e-11
237	0x2f621374	2.0561491e-10
238	0x32cd4cf2	2.3900132e-08
239	0x2fdf88c0	4.066063e-10
240	0x2eede802	1.0818725e-10
241	0x3062be47	8.248872e-10
242	0x365144b4	3.1183417e-06
243	0x2ff0bab2	4.37884e-10
244	0xae97c58e	-6.901778e-11
245	0x301b5696	5.651172e-10
246	0x389415b2	7.061231e-05
247	0x2ea42ab0	7.4654394e-11
248	0xae81c152	-5.9005814e-11
249	0x305260d4	7.6535156e-10
250	0x310d5950	2.0568969e-09
251	0x303cf405	6.8740774e-10
252	0xbc183927	-0.00929097
253	0xbd1ff643	-0.039053213
254	0x390e4f6e	0.00013571765
255	0x3b1022c7	0.0021993385

dense_1/MatMul_bias f4 [8]
0	0xbf825e08	-1.0184946
1	0xbf022778	-0.50841475
2	0xbfe7919f	-1.8091315
3	0xbf4e6377	-0.8062052
4	0xc08912d5	-4.283549
5	0xbecd4573	-0.40092048
6	0xc0d4a2f5	-6.644892
7	0xc08caa59	-4.3957944

dense_1/kernel/transpose f4 [8, 1352]
0	0x29aa4da4	7.562985e-14
1	0xbaa8d207	-0.0012879976
2	0x3c910fea	0.017707784
3	0x3cdd107c	0.0269854
4	0x3ca1ac5d	0.01973551
5	0x3c775dd3	0.015098053
6	0xb08408fe	-9.60682e-10
7	0x3c807291	0.01567963
8	0x29a86847	7.478788e-14
9	0x3c9c5085	0.019081363
10	0x3c21adb3	0.009868073
11	0x3c0c517b	0.008564348
12	0x3c82f668	0.015986636
13	0x3c40ee2d	0.0117755355
14	0xb0107198	-5.254832e-10
15	0x3b3830b6	0.0028105206
16	0x29af5fed	7.7882016e-14
17	0x3c62e252	0.013847904
18	0x3b72833e	0.0037004496
19	0x3c64ed7f	0.013972639
20	0x3c33c743	0.010972801
21	0xbadb4f52	-0.0016732013
22	0xafe01bd3	-4.0765133e-10
23	0x3cc266d4	0.023730673
24	0x29adb377	7.7138755e-14
25	0x3c814db2	0.015784118
26	0x3b5aad4a	0.0033367448
27	0x3bad2d0b	0.0052849106
28	0x3c2fa77a	0.010721082
29	0xbca1397e	-0.019680735
30	0xaf8994e8	-2.502596e-10
31	0x3c978df0	0.018500298
32	0x29ad0675	7.6838634e-14
33	0x3c71db09	0.014761695
34	0xba98aa8f	-0.001164751
35	0xbbb12de4	-0.005407082
36	0x3bc4fdb3	0.0060116886
37	0xbcd657bf	-0.026164887
38	0xaffd241a	-4.6046084e-10
39	0x3cab1c61	0.020887556
40	0x29b036a0	7.825446e-14
41	0x3cd87052	0.026420746
42	0xbb866156	-0.004100959
43	0x3b0223e2	0.0019857814
44	0xb97c2e19	-0.00024049765
45	0xbd0b6c20	-0.034038663
46	0xb04ed110	-7.523946e-10
47	0x3c55dd66	0.013053274
48	0x29b04e2d	7.8295314e-14
49	0x3ccb2777	0.024799092
50	0xba444ebe	-0.000748854
51	0x3a95017a	0.0011368238
52	0xbb9e724b	-0.004835402
53	0xbcf096f7	-0.02936886
54	0xafa30484	-2.9652736e-10
55	0x3bb38b94	0.0054792855
56	0x29af349f	7.7806895e-14
57	0x3bf6745f	0.0075211967
58	0xbba02081	-0.0048866873
59	0xbb153bb0	-0.0022771172
60	0xbbb6a8c7	-0.005574319
61	0xbd0dbaf5	-0.034602124
62	0xaf455ede	-1.7950749e-10
63	0xbc251b8c	-0.0100773685
64	0x29aa0b18	7.551441e-14
65	0x3cd87feb	0.026428184
66	0x3ac206dd	0.0014803071
67	0x3afaac93	0.0019124917
68	0xba7b7115	-0.00095917407
69	0xbd055cfa	-0.032559372
70	0xafc4b6a0	-3.5781955e-10
71	0x3b026e47	0.0019902156
72	0x29a36c8b	7.257483e-14
73	0x3c988209	0.018616693
74	0x3b5926fd	0.003313481
75	0xbb880a7d	-0.004151641
76	0x3b84a1fc	0.0040476304
77	0xbcbc5825	-0.02299125
78	0xb060b975	-8.1754276e-10
79	0x3c8f0ec4	0.017463095
80	0x29ac6c7f	7.6571555e-14
81	0x3cd69146	0.026192319
82	0x3bf6887f	0.007523596
83	0xbc018fba	-0.007907802
84	0x3bcf0eb8	0.0063188933
85	0xbc90b0c7	-0.017662419
86	0xafcc944d	-3.7212758e-10
87	0x3ce23aa0	0.027615845
88	0x29a95a71	7.520797e-14
89	0x3c9c42ea	0.019074876
90	0x3bfb3866	0.0076666353
91	0xbbd06903	-0.0063601746
92	0x3bc5497f	0.0060207243
93	0xbbfec92b	-0.007775446
94	0xb05c9520	-8.0247453e-10
95	0x3d3c24a8	0.045933396
96	0x29a59275	7.352878e-14
97	0x3ccb5422	0.024820391
98	0x3c21d1ce	0.0098766815
99	0x3bb23f20	0.005439654
100	0x3c3460aa	0.011009375
101	0x3c7e7ac6	0.015532201
102	0xb0929c42	-1.0667309e-09
103	0x3c655ee4	0.0139996745
104	0x29ad8b4d	7.706908e-14
105	0xbcbaa7c5	-0.022785077
106	0x3c431740	0.011907399
107	0x3d0512c7	0.03248861
108	0x3cfc15e9	0.030772166
109	0xbbf91df1	-0.0076024462
110	0xb02f3aea	-6.374835e-10
111	0x3c2b033e	0.010437785
112	0x29ab6ffe	7.613353e-14
113	0xbb969cd7	-0.0045963335
114	0x3c3b191b	0.01141956
115	0x3c8f59f1	0.017498942
116	0x3cc669e2	0.02422041
117	0xbc37dccf	-0.011222078
118	0xb030ef3d	-6.4368405e-10
119	0x3a6b4196	0.00089743116
120	0x29ac26c4	7.645059e-14
121	0x39d62964	0.000408481
122	0x3bc80013	0.0061035245
123	0x3c50b8ac	0.012739342
124	0x3c71dd8a	0.014762292
125	0xbcbc46d0	-0.022982985
126	0xb02bbeb4	-6.2480443e-10
127	0x3c528846	0.012849873
128	0x29a7ef6c	7.457823e-14
129	0xbaf6e5c7	-0.001883679
130	0x3b85703e	0.004072218
131	0x3bbc5b7e	0.0057482114
132	0x3c3d9f07	0.01157356
133	0xbd094cce	-0.033520512
134	0xb021115a	-5.8596117e-10
135	0x3a47f19b	0.00076272496
136	0x29aac9f3	7.584549e-14
137	0xbbacb441	-0.0052705114
138	0xbb803dca	-0.003913616
139	0x3bef76d9	0.007307869
140	0x3c4a6fc9	0.012355753
141	0xbd170891	-0.036873404
142	0xb0160ac5	-5.4584987e-10
143	0x3aa41703	0.0012519065
144	0x29acf2a4	7.680426e-14
145	0x3c82a93a	0.015949834
146	0xbb432045	-0.0029773873
147	0x3bb5fe33	0.0055539845
148	0x3c3ae073	0.011406052
149	0xbd42a19c	-0.047517404
150	0xafca6358	-3.6814174e-10
151	0x3b9caa55	0.0047810473
152	0x29b19466	7.886122e-14
153	0x3b2ed45e	0.0026676874
154	0xbb907c75	-0.0044093677
155	0xba2d118f	-0.00066020427
156	0x3c38b089	0.011272558
157	0xbd60763b	-0.054800253
158	0xaff0ca04	-4.3799286e-10
159	0xbbb98a20	-0.0056622177
160	0x29b07ca5	7.8375925e-14
161	0x3be167de	0.006878837
162	0xbbc58b57	-0.0060285735
163	0x39a40039	0.00031280683
164	0x3c18f9bb	0.009336884
165	0xbd5f2565	-0.05447902
166	0xaf9e6208	-2.8809688e-10
167	0xbc835424	-0.016031332
168	0x29aba014	7.6216946e-14
169	0x3c40821b	0.01174977
170	0xbbb89acd	-0.005633688
171	0xbb1b6f2d	-0.002371739
172	0x3c55e6c9	0.013055512
173	0xbd08b91e	-0.033379667
174	0xb0142be4	-5.390446e-10
175	0xbc4e2f03	-0.012584451
176	0x29a0d55c	7.142439e-14
177	0x3bfad898	0.0076552145
178	0xba9dab2d	-0.0012029164
179	0xbb3c0d45	-0.0028694433
180	0x3c9d8433	0.019228077
181	0xbccec9ee	-0.025242772
182	0xb07d1dcc	-9.208321e-10
183	0x3c1b774f	0.009488895
184	0x29a8d5ce	7.497788e-14
185	0x3b017078	0.0019750874
186	0x3c10e05e	0.008842556
187	0xbae13530	-0.0017181989
188	0x3c95f3f6	0.018304806
189	0xbc9fa0b4	-0.019485809
190	0xb08a659f	-1.0069704e-09
191	0x3c3a40b2	0.011367964
192	0x29a95fad	7.521705e-14
193	0x3b470882	0.0030370061
194	0x3c0781e3	0.0082707135
195	0xbaa7503a	-0.0012764998
196	0x3cc6e594	0.024279393
197	0xbc6f9f77	-0.014625422
198	0xb09d15d3	-1.1429456e-09
199	0x3cdd086a	0.026981551
200	0x29a9a30a	7.5333904e-14
201	0x3c5a5f82	0.013328435
202	0x3c07074d	0.008241487
203	0x3c0a35c3	0.008435669
204	0x3d134aa3	0.03595985
205	0x3a6692d3	0.0008795682
206	0xb0485d28	-7.289196e-10
207	0x3ac6f233	0.0015178382
208	0x29a61c5d	7.376801e-14
209	0xbc14c096	-0.009079119
210	0x3c0418bb	0.008062537
211	0x3cc8f612	0.024531398
212	0x3c98c9ed	0.018650973
213	0x3c1de58b	0.009637247
214	0xb004b590	-4.8279336e-10
215	0x3c0e0d4d	0.008670163
216	0x29a4a57b	7.311769e-14
217	0x3a998572	0.0011712743
218	0x3c14c995	0.009081264
219	0x3c4bedf9	0.012446874
220	0x3c34cf56	0.011035761
221	0xbac7f8fa	-0.0015256696
222	0xafa1b7a4	-2.9416214e-10
223	0xbb45f9a8	-0.0030208621
224	0x29a4c320	7.316912e-14
225	0xbbd1544c	-0.006388223
226	0x3b98f7c4	0.004668208
227	0x3bce1dd6	0.006290178
228	0x3bd59650	0.006518163
229	0xbc9cb4d6	-0.019129198
230	0xaf8b5d3e	-2.5350205e-10
231	0xba411ca8	-0.0007366636
232	0x299f1bfb	7.065872e-14
233	0xbb73032e	-0.0037080753
234	0xbb6ef2d9	-0.0036460666
235	0x3b928cc1	0.0044723456
236	0x3c20b154	0.009807903
237	0xbd0ddbed	-0.034633566
238	0xafaf2786	-3.1860398e-10
239	0xbc29dc23	-0.010367426
240	0x29a1f519	7.192354e-14
241	0xbb7e6ae4	-0.0038821036
242	0xbc331e00	-0.0109324455
243	0x3b8d6e9a	0.0043161632
244	0x3b5f2754	0.003405054
245	0xbd1805a9	-0.037114773
246	0xaee08504	-1.0209969e-10
247	0x3b662620	0.003511794
248	0x29a1a7cb	7.178944e-14
249	0x3ca06ea2	0.019584004
250	0xbc39873b	-0.011323745
251	0xbc0cf863	-0.008604142
252	0x3b56ac50	0.0032756515
253	0xbd3e2395	-0.046420652
254	0x2da5cdf0	1.8849783e-11
255	0xbad3133e	-0.0016103757

dense_2/MatMul_bias f4 [2]
0	0xbfd85192	-1.6899893
1	0x3fd84151	1.6894933

dense_2/kernel/transpose f4 [2, 8]
0	0x41029280	8.160767
1	0xc101fd5d	-8.124356
2	0x410ef58c	8.934948
3	0x4116d0c1	9.425965
4	0xc0cff268	-6.4983406
5	0x413a28c3	11.634952
6	0x3e6f9903	0.23398213
7	0xc0baa02a	-5.8320513
8	0xc1022aab	-8.135417
9	0x410faf98	8.98037
10	0xc11e7c5c	-9.905361
11	0xc115e2e2	-9.367891
12	0x40b0c7ed	5.524405
13	0xc13aee69	-11.683206
14	0x3edef64c	0.43547285
15	0x40a78a85	5.235659
