libs/models/mlp_proposal.tflite (tflite, 218660 bytes, 16 tensors)

batch_normalization_1/batchnorm/mul f4 [768]
0	0x3ca981a5	0.020691702
1	0x3bb2b357	0.005453508
2	0x3b76d5f6	0.0037664152
3	0x3b8034c4	0.00391254
4	0x3bb5ea1b	0.005551589
5	0x3c0e280c	0.00867654
6	0x3bdb5711	0.0066937287
7	0x3c072dd4	0.008250672
8	0x3c07a800	0.0082798
9	0x3c0c57f9	0.008565896
10	0x3c16d8f5	0.009207
11	0x3c2914e4	0.010319922
12	0x3c227cbc	0.009917434
13	0x3c325acf	0.010885908
14	0x3c4b02e5	0.012390827
15	0x3c373f7c	0.011184569
16	0x3c486a36	0.012232354
17	0x3c6aafb7	0.01432412
18	0x3c66a751	0.014077977
19	0x3c853f35	0.016265491
20	0x3c8866df	0.016650615
21	0x3c9a19fd	0.01881122
22	0x3c863942	0.016384725
23	0x3c835572	0.016031954
24	0x3c7a2f56	0.015270075
25	0x3c91b3fd	0.01778602
26	0x3cae6f59	0.02129333
27	0x3c8674c4	0.0164131
28	0x3c81e2c2	0.015855197
29	0x3c797125	0.01522473
30	0x3c7c59d1	0.015402273
31	0x3c895bd8	0.016767427
32	0x3c72d514	0.01482131
33	0x3c5dd614	0.01353981
34	0x3c8543dd	0.016267711
35	0x3c7e5d27	0.015525139
36	0x3c840952	0.016117726
37	0x3c7e3871	0.015516386
38	0x3c7e491e	0.015520362
39	0x3c724082	0.014785888
40	0x3c84af89	0.016196983
41	0x3c8a4bca	0.016881842
42	0x3c8d7e7a	0.017272223
43	0x3ca37b90	0.01995638
44	0x3ca4a4ee	0.020098176
45	0x3cad52dc	0.021157674
46	0x3ca5bc38	0.020231351
47	0x3c97e6ab	0.018542608
48	0x3c9dc911	0.019260915
49	0x3c9de642	0.019274835
50	0x3ca39780	0.019969702
51	0x3cacf491	0.021112712
52	0x3c98243d	0.018571967
53	0x3cb563b7	0.022142274
54	0x3cb74397	0.022371097
55	0x3ca64530	0.020296663
56	0x3ca81d00	0.02052164
57	0x3ca7f28d	0.0205014
58	0x3cb839d2	0.022488508
59	0x3cbae07a	0.022812117
60	0x3cb5378f	0.022121219
61	0x3cbb4adc	0.022862844
62	0x3cb9e383	0.022691494
63	0x3cbd1d9c	0.023085408
64	0x3cb0baa0	0.021573365
65	0x3cafe9d1	0.021473797
66	0x3ca59404	0.02021218
67	0x3cb7e7d6	0.022449415
68	0x3cac3e30	0.021025747
69	0x3cb936c5	0.022609124
70	0x3cb6e217	0.022324605
71	0x3cbd27cf	0.023090271
72	0x3cc31e45	0.023818145
73	0x3cb4dec0	0.022078872
74	0x3cc74948	0.024326935
75	0x3cbf77eb	0.023372611
76	0x3cb0732f	0.021539299
77	0x3cba6cbb	0.022756925
78	0x3cbe3756	0.023219746
79	0x3ca51ef8	0.020156369
80	0x3cb44134	0.022003748
81	0x3ca8518d	0.020546699
82	0x3cadfe4f	0.021239428
83	0x3ca615e8	0.020274118
84	0x3c939e6d	0.01801988
85	0x3ca3492e	0.019932356
86	0x3c9fd448	0.019510403
87	0x3c952a09	0.01820852
88	0x3ca1a32c	0.019731127
89	0x3c9f1b6f	0.019422261
90	0x3ca16bd2	0.019704733
91	0x3c9fac95	0.019491473
92	0x3c90e95f	0.017689405
93	0x3c910428	0.017702177
94	0x3c94a1a5	0.018143484
95	0x3c9023c4	0.01759518
96	0x3c973a89	0.018460529
97	0x3c9189dd	0.017765934
98	0x3c8d24d0	0.017229468
99	0x3c8b7605	0.01702405
100	0x3c8de786	0.017322313
101	0x3c87b9c2	0.016568068
102	0x3c8d8794	0.017276563
103	0x3c8aa919	0.016926335
104	0x3c866e03	0.01640988
105	0x3c8a6750	0.016894966
106	0x3c8a8307	0.016908182
107	0x3c8b0f76	0.016975146
108	0x3c8b96be	0.017039653
109	0x3c90182b	0.01758965
110	0x3c8a2509	0.016863363
111	0x3c8d0f74	0.017219283
112	0x3c8e664c	0.017382763
113	0x3c8e6aba	0.017384876
114	0x3c931fa2	0.01795942
115	0x3c93f62f	0.018061725
116	0x3c92ddb9	0.017927991
117	0x3c96b0a3	0.018394774
118	0x3c91cd1d	0.017798001
119	0x3c962264	0.018326946
120	0x3c950da3	0.018194979
121	0x3c9353b4	0.017984249
122	0x3c97f0af	0.018547384
123	0x3c8ed6c4	0.017436393
124	0x3c8d42db	0.017243793
125	0x3c8f2604	0.017474182
126	0x3c8c5f51	0.017135294
127	0x3c8e4294	0.017365731
128	0x3c9047c6	0.01761235
129	0x3c90a444	0.017656453
130	0x3c961d20	0.018324435
131	0x3c927df9	0.017882334
132	0x3c92ea10	0.017933875
133	0x3c9107b8	0.017703876
134	0x3c899fb0	0.016799778
135	0x3c85f6b7	0.016352994
136	0x3c8567f3	0.016284918
137	0x3c8a27e6	0.016864728
138	0x3c886f08	0.016654506
139	0x3c8828f9	0.0166211
140	0x3c8b9aad	0.017041529
141	0x3c8ca85d	0.017170126
142	0x3c91f3b1	0.017816396
143	0x3c90efa3	0.017692393
144	0x3c91e885	0.01781107
145	0x3c8f8fbe	0.017524596
146	0x3c92c29a	0.017915059
147	0x3c91d6cd	0.01780262
148	0x3c933cf6	0.017973404
149	0x3c91e4f3	0.017809367
150	0x3c90536e	0.017617907
151	0x3c8fd57d	0.017557854
152	0x3c91261a	0.017718364
153	0x3c883942	0.016628865
154	0x3c8e229d	0.01735049
155	0x3c933a14	0.01797203
156	0x3c9212b8	0.017831191
157	0x3c9490a0	0.018135369
158	0x3c974483	0.018465286
159	0x3c99a4e1	0.018755378
160	0x3c9c677b	0.019092312
161	0x3c9dcf7c	0.019263975
162	0x3c9ec950	0.019383103
163	0x3c9fff82	0.019531015
164	0x3ca80009	0.02050783
165	0x3ca51231	0.020150276
166	0x3ca49fc8	0.02009572
167	0x3ca5d500	0.020243168
168	0x3ca8652c	0.020556055
169	0x3cac6922	0.021046225
170	0x3ca8307a	0.020530928
171	0x3ca47122	0.020073477
172	0x3c8f483b	0.017490497
173	0x3c8f0471	0.017458173
174	0x3c84414a	0.016144414
175	0x3c80ba68	0.015713885
176	0x3c8634a3	0.016382521
177	0x3c80804f	0.015686182
178	0x3c8bb481	0.017053844
179	0x3c6f1919	0.014593386
180	0x3c616b2d	0.013758463
181	0x3c417880	0.011808515
182	0x3c47c388	0.012192614
183	0x3c5a74ff	0.013333558
184	0x3c5f8eb7	0.013644866
185	0x3c721e7e	0.014777778
186	0x3c711f1f	0.0147168925
187	0x3c6ae421	0.014336617
188	0x3c63406d	0.013870341
189	0x3c699968	0.014257766
190	0x3c524824	0.0128345825
191	0x3c26b157	0.010174117
192	0x3c56d848	0.013113089
193	0x3c6c5d0a	0.014426479
194	0x3c5d424b	0.013504575
195	0x3c5ccf90	0.013477221
196	0x3c438eea	0.011935929
197	0x3c2ddd4e	0.010611845
198	0x3c2401dc	0.010010209
199	0x3c086c4a	0.008326599
200	0x3c085f47	0.008323497
201	0x3bf515a3	0.007479386
202	0x3be8e3e1	0.0071072434
203	0x3bc3647b	0.005962906
204	0x3bc666bb	0.006054727
205	0x3bc2b411	0.0059418757
206	0x3ba55e10	0.0050466135
207	0x3b94fba2	0.0045465985
208	0x3b71ee4a	0.0036915713
209	0x3b88451d	0.0041586296
210	0x3b65ee9f	0.0035084856
211	0x3b6aea5e	0.003584526
212	0x3b72de34	0.0037058713
213	0x3b4b3b92	0.0031010848
214	0x3b595726	0.0033163517
215	0x3b40e984	0.002943606
216	0x3b4e35b9	0.0031465127
217	0x3b6d94c2	0.0036251997
218	0x3b34d72b	0.002759407
219	0x3b4398c6	0.0029845699
220	0x3b31ca78	0.0027128737
221	0x3b40f829	0.002944479
222	0x3b2c272e	0.002626847
223	0x3b178d23	0.0023124896
224	0x3b3d9c8b	0.0028932418
225	0x3b127f4c	0.0022353707
226	0x3b1f232d	0.002428244
227	0x3aff823c	0.0019493769
228	0x3adc351c	0.0016800496
229	0x3ae44613	0.0017415903
230	0x3ad0646b	0.0015899068
231	0x3af8a031	0.0018968639
232	0x3acd4eb2	0.0015663712
233	0x3ad539a0	0.0016267784
234	0x3af29e6b	0.0018510347
235	0x3abc0086	0.0014343418
236	0x3ad97d22	0.0016593079
237	0x3acc0e90	0.0015568305
238	0x3adbe510	0.001677664
239	0x3ae514ea	0.0017477546
240	0x3aca7268	0.0015445473
241	0x3aeb6d2c	0.0017961613
242	0x3adb71d2	0.0016742295
243	0x3ad832a5	0.0016494585
244	0x3ac4ffb3	0.0015029818
245	0x3ae0335d	0.0017105151
246	0x3b0ef5b5	0.0021813933
247	0x3b0be19b	0.0021344188
248	0x3b3ae11d	0.0028515526
249	0x3b660ac0	0.0035101622
250	0x3b5ee7fe	0.003401279
251	0x3b466071	0.0030269886
252	0x3b842607	0.0040328535
253	0x3b881eee	0.0041540777
254	0x3b20bc86	0.0024526431
255	0x3b2abdd0	0.0026053078

batch_normalization_1/batchnorm/sub f4 [768]
0	0xbee79be3	-0.4523612
1	0xbe3f3bde	-0.18675181
2	0xbe59ae24	-0.21257836
3	0xbe7456f8	-0.23861301
4	0xbe5fe006	-0.21862802
5	0xbe2b863f	-0.1675043
6	0xbea1d9c7	-0.31611463
7	0xbe3e978e	-0.18612501
8	0xbea8067a	-0.3281744
9	0xbec33f2c	-0.38134134
10	0xbecd02da	-0.40041238
11	0xbe91b511	-0.28458455
12	0xbeb8c3dd	-0.36086932
13	0xbe54b674	-0.20772725
14	0xbf03028c	-0.5117576
15	0xbee601ea	-0.44923335
16	0xbe9fc331	-0.31203607
17	0xbee82d16	-0.45346898
18	0xbea770c9	-0.32703236
19	0xbed52837	-0.41632244
20	0xbea5bf37	-0.32372448
21	0xbee92534	-0.45536196
22	0xbeeab0d4	-0.45838034
23	0xbe9048a8	-0.28180432
24	0xbef6b962	-0.4818831
25	0xbf062ba8	-0.52410364
26	0xbf1ae630	-0.6050749
27	0xbeca8028	-0.395509
28	0xbeb24df4	-0.348251
29	0xbefe7ac8	-0.4970305
30	0xbef5bc88	-0.479954
31	0xbf0ef75e	-0.558462
32	0xbee8e15c	-0.45484436
33	0xbf0a5daa	-0.5404917
34	0xbee3e0a1	-0.44507316
35	0xbf1749a7	-0.5909676
36	0xbf2311c1	-0.63698965
37	0xbf255099	-0.6457611
38	0xbf28d334	-0.6594727
39	0xbf03c207	-0.5146794
40	0xbf3c74ef	-0.73615927
41	0xbf160625	-0.58603126
42	0xbf2cef48	-0.67552614
43	0xbf526860	-0.82190514
44	0xbf6e5d75	-0.93111354
45	0xbf76da9c	-0.9642732
46	0xbf67b74a	-0.9051405
47	0xbf2f508c	-0.6848228
48	0xbf730432	-0.94928277
49	0xbf5c79ee	-0.8612355
50	0xbf68a27c	-0.9087293
51	0xbf6ebd0b	-0.93257207
52	0xbf5130f5	-0.8171533
53	0xbf8a4f78	-1.0805502
54	0xbf84296f	-1.0325145
55	0xbf48f200	-0.7849426
56	0xbf5db793	-0.8660824
57	0xbf7c7f4a	-0.9863173
58	0xbf86bfa4	-1.0527234
59	0xbf82f5d7	-1.0231274
60	0xbf837f1e	-1.0273168
61	0xbf7027c1	-0.9381066
62	0xbf87bc39	-1.0604316
63	0xbf8a353e	-1.0797498
64	0xbf4f71df	-0.8103313
65	0xbf61921d	-0.88113576
66	0xbf7ae931	-0.9801207
67	0xbf8bde4f	-1.0927218
68	0xbf52dc80	-0.82367706
69	0xbf858c2e	-1.0433404
70	0xbf8b13be	-1.08654
71	0xbf89a5ec	-1.075376
72	0xbfa3e82f	-1.2805232
73	0xbf725ba4	-0.9467108
74	0xbfb949c3	-1.4475635
75	0xbf811d24	-1.0087018
76	0xbf6bd574	-0.9212258
77	0xbf7f5a8f	-0.99747556
78	0xbf915e3c	-1.1356883
79	0xbf79caf1	-0.9757529
80	0xbf90a267	-1.1299561
81	0xbf7a498e	-0.97768486
82	0xbf67dfa1	-0.90575606
83	0xbf7c7854	-0.98621106
84	0xbf3b097d	-0.7306135
85	0xbf7f0997	-0.9962401
86	0xbf6c1395	-0.9221738
87	0xbf452a11	-0.77017313
88	0xbf7e43a6	-0.99321973
89	0xbf6ff8f5	-0.93739253
90	0xbf80d73b	-1.0065683
91	0xbf7c3dd6	-0.98531854
92	0xbf4f1740	-0.8089485
93	0xbf81a0f6	-1.0127246
94	0xbf81ecac	-1.0150352
95	0xbf593cea	-0.8485857
96	0xbf7cfe83	-0.98825854
97	0xbf5a84fe	-0.8535918
98	0xbf458a8a	-0.7716452
99	0xbf72ddf4	-0.94869924
100	0xbf71758d	-0.94319993
101	0xbf4a3c43	-0.789982
102	0xbf666885	-0.90003234
103	0xbf676f49	-0.9040418
104	0xbf40b3c3	-0.75274295
105	0xbf805daf	-1.002859
106	0xbf695c40	-0.9115639
107	0xbf5c0a3b	-0.8595311
108	0xbf47f685	-0.78110534
109	0xbf525cd3	-0.8217289
110	0xbf456d90	-0.77120304
111	0xbf553b0a	-0.8329321
112	0xbf7a4cb1	-0.9777327
113	0xbf53d2d2	-0.8274356
114	0xbf808571	-1.0040723
115	0xbf80ef0e	-1.0072954
116	0xbf5e3fce	-0.8681611
117	0xbf811c31	-1.0086728
118	0xbf4c7d83	-0.79879016
119	0xbf8364b2	-1.0265105
120	0xbf819ff9	-1.0126945
121	0xbf808833	-1.0041565
122	0xbf87a64e	-1.0597627
123	0xbf78863f	-0.97079843
124	0xbf53f5f4	-0.8279717
125	0xbf58f9e7	-0.8475632
126	0xbf3ca0f1	-0.7368308
127	0xbf897129	-1.0737659
128	0xbf6ae8ad	-0.91761285
129	0xbf7a06ff	-0.97666925
130	0xbf6821ef	-0.9067678
131	0xbf5987b1	-0.84972674
132	0xbf59ee18	-0.8512893
133	0xbf834af4	-1.0257249
134	0xbf671649	-0.9026838
135	0xbf61d18a	-0.88210356
136	0xbf70fafa	-0.9413296
137	0xbf4c7244	-0.79861856
138	0xbf700962	-0.9376432
139	0xbf738eaf	-0.9513959
140	0xbf4bce4b	-0.79611653
141	0xbf51cdd8	-0.8195472
142	0xbf4e95ea	-0.806975
143	0xbf5b0b8b	-0.8556449
144	0xbf4bfe28	-0.79684687
145	0xbf6b0084	-0.9179766
146	0xbf5ec7fd	-0.8702391
147	0xbf6a3219	-0.9148269
148	0xbf3f67f8	-0.7476802
149	0xbf80625f	-1.003002
150	0xbf79d626	-0.9759239
151	0xbf723afa	-0.9462124
152	0xbf4a02cf	-0.78910536
153	0xbf4992b5	-0.7873948
154	0xbf52bec5	-0.8232234
155	0xbf665425	-0.89972144
156	0xbf56444c	-0.8369796
157	0xbf850b36	-1.0394046
158	0xbf5da3e4	-0.865782
159	0xbf4a4ab1	-0.7902022
160	0xbf7ca260	-0.98685265
161	0xbf7b5566	-0.9817718
162	0xbf5522b8	-0.832561
163	0xbf783282	-0.9695207
164	0xbf7f20c2	-0.9965936
165	0xbf740990	-0.9532709
166	0xbf4f4fd1	-0.80981165
167	0xbf7ceaa6	-0.98795545
168	0xbf56a26c	-0.83841586
169	0xbf841953	-1.0320228
170	0xbf4d55a0	-0.8020878
171	0xbf6fc4d1	-0.93659693
172	0xbf5fe36a	-0.8745638
173	0xbf339fe0	-0.70165825
174	0xbf1d0447	-0.6133465
175	0xbf25fbd7	-0.648374
176	0xbf2d9efb	-0.6782071
177	0xbf315349	-0.6926771
178	0xbf568c73	-0.8380806
179	0xbf5e8ec4	-0.86936593
180	0xbf46d0db	-0.7766244
181	0xbf1a14e0	-0.601881
182	0xbf08bd3c	-0.5341375
183	0xbf3181e2	-0.6933881
184	0xbf498d52	-0.7873126
185	0xbf44b300	-0.7683563
186	0xbf41e057	-0.7573294
187	0xbf31734b	-0.6931655
188	0xbf05c461	-0.52252775
189	0xbf1a49eb	-0.6026904
190	0xbf037f96	-0.51366556
191	0xbedb1f02	-0.42797095
192	0xbf07d36f	-0.53057
193	0xbf19d11a	-0.6008469
194	0xbf0bb05b	-0.5456597
195	0xbf12e462	-0.57379735
196	0xbf2ee1c8	-0.68313265
197	0xbef31cd2	-0.47482926
198	0xbf17b4f7	-0.59260505
199	0xbece7cb1	-0.40329507
200	0xbeffd20f	-0.4996495
201	0xbf16fd52	-0.58980286
202	0xbeb5b8cb	-0.35492548
203	0xbea1fe19	-0.31639174
204	0xbee88137	-0.45411083
205	0xbf1599e5	-0.5843795
206	0xbe97185b	-0.2951077
207	0xbea23f48	-0.31688905
208	0xbea1fa73	-0.3163639
209	0xbe9b9d68	-0.3039353
210	0xbe6478e0	-0.22311735
211	0xbed13f84	-0.4086877
212	0xbedd91e4	-0.43275368
213	0xbee47a21	-0.44624427
214	0xbe80c736	-0.25151986
215	0xbe9393e3	-0.28823766
216	0xbea0181c	-0.31268394
217	0xbe854682	-0.26030356
218	0xbee27a57	-0.44233963
219	0xbe9fe3ba	-0.3122843
220	0xbedcfe69	-0.4316285
221	0xbee3d0f3	-0.44495353
222	0xbe8db834	-0.27679598
223	0xbed12903	-0.40851602
224	0xbec0a24e	-0.3762383
225	0xbedb5eba	-0.42845708
226	0xbeeb3223	-0.4593669
227	0xbedc85f5	-0.4307095
228	0xbecfb123	-0.40564832
229	0xbea3c719	-0.31987837
230	0xbed3d922	-0.41376597
231	0xbee0a3bc	-0.4387492
232	0xbe9e5aba	-0.30928594
233	0xbecad25e	-0.39613622
234	0xbef5c82b	-0.4800428
235	0xbecf33ba	-0.40469152
236	0xbf06f65d	-0.5271967
237	0xbe6f5998	-0.23374021
238	0xbe8bc41a	-0.2729805
239	0xbec30456	-0.38089246
240	0xbeaa561e	-0.33268827
241	0xbebbaeb0	-0.36656713
242	0xbebb690d	-0.36603585
243	0xbe372adf	-0.17887448
244	0xbe9889be	-0.2979259
245	0xbe081630	-0.13289714
246	0xbe48849c	-0.19581836
247	0xbe408d34	-0.18803865
248	0xbe8ed7df	-0.27899072
249	0xbea35650	-0.3190179
250	0xbe878aae	-0.26472992
251	0xbe81fe2c	-0.2538923
252	0xbda5c611	-0.08094419
253	0xbdba19ba	-0.09086938
254	0xbc0842b0	-0.008316681
255	0xbe70fcc4	-0.23533922

batch_normalization_2/batchnorm/mul f4 [768]
0	0x3936ed71	0.00017445326
1	0x3bad2fc3	0.0052852347
2	0xba49af4c	-0.0007693663
3	0xbaced6b0	-0.0015780535
4	0x3b2f6ed7	0.0026768947
5	0xbb3fba7a	-0.0029255436
6	0x3b1199dc	0.0022216951
7	0xb70bbf6b	-8.329614e-06
8	0x3b0906e2	0.0020908643
9	0x3ec8cde6	0.39219588
10	0xbb2e3834	-0.0026583793
11	0xba604ae2	-0.000855608
12	0x39d21550	0.000400702
13	0x3a821851	0.000992546
14	0x39e84b13	0.00044306423
15	0x3804b876	3.1643045e-05
16	0x390e45cf	0.00013568181
17	0xb9419a12	-0.0001846331
18	0xb7973603	-1.8025754e-05
19	0xba11fc56	-0.0005568912
20	0x3916cb74	0.00014380907
21	0xba2eed46	-0.000667293
22	0x39813fe0	0.00024652388
23	0xb9b58e8d	-0.0003462922
24	0x39f93f1a	0.00047539995
25	0x3a2fda54	0.00067082536
26	0x3bb75d02	0.005595804
27	0xb8eb1956	-0.000112103924
28	0x3a123c60	0.00055784546
29	0x3c0b5a09	0.008505353
30	0x3990ec52	0.00027641893
31	0x390e2bda	0.00013558511
32	0x39c7e5b9	0.00038127395
33	0xb93b3b0a	-0.00017855703
34	0xb921c0c2	-0.00015425964
35	0x3c35b9ae	0.011091633
36	0x3b50189f	0.0031752957
37	0x38c4aaee	9.3778464e-05
38	0xb72b096e	-1.019459e-05
39	0x3809b7ea	3.283463e-05
40	0xb902405f	-0.00012421746
41	0xb81ef2bb	-3.7896196e-05
42	0x3bedb0cd	0.0072537423
43	0xb7e4c6c5	-2.7272277e-05
44	0x3a05d924	0.0005105904
45	0xbb618332	-0.0034410474
46	0xba4da515	-0.00078447285
47	0xba0f32ec	-0.0005462605
48	0xbac34b68	-0.0014899792
49	0x3b5b29f1	0.0033441747
50	0x39d5b299	0.00040759592
51	0x3ca36018	0.019943282
52	0xba9aab83	-0.0011800382
53	0xb8a05221	-7.644692e-05
54	0xb9783e10	-0.00023674243
55	0x3b61fa13	0.0034481331
56	0xba23ad10	-0.0006243745
57	0x3b2e4df6	0.0026596761
58	0xbbd3e0da	-0.0064660134
59	0xb9c69b1d	-0.0003788107
60	0xb968025a	-0.0002212612
61	0xba987033	-0.0011630118
62	0x3b8e22d8	0.00433765
63	0xb8b66605	-8.697439e-05
64	0x3c1e622e	0.009666963
65	0x3a2e075f	0.00066386716
66	0xbc2d7af6	-0.010588398
67	0xbb95ce0e	-0.004571683
68	0xb904b8e3	-0.00012657377
69	0x3a3d3138	0.0007217112
70	0xb8d70ba0	-0.00010254164
71	0x3b64bfb4	0.0034904303
72	0xb9d163c5	-0.0003993792
73	0xb8b7b8ba	-8.760528e-05
74	0x3bdb788a	0.006697719
75	0xba0f2329	-0.00054602564
76	0x400df801	2.218262
77	0x39697568	0.00022264349
78	0xbab42296	-0.0013743218
79	0xbb3da73f	-0.0028938798
80	0x3be986d6	0.0071266694
81	0xbc2962ec	-0.010338526
82	0x406466ef	3.5687826
83	0xbc251c13	-0.010077494
84	0xbc8b5dfc	-0.017012589
85	0x3b20dc11	0.0024545232
86	0x4036c967	2.8560426
87	0x3c99c5e2	0.018771116
88	0xbb467499	-0.00302819
89	0xbbd521b2	-0.006504261
90	0xbc6febd4	-0.014643628
91	0xbc899e6b	-0.016799172
92	0x3c23fc5a	0.010008896
93	0xb9c1722f	-0.00036896902
94	0x407340bc	3.800826
95	0xbc5c986e	-0.013464076
96	0xbcdbdb17	-0.026837869
97	0xba327a33	-0.000680837
98	0xbb651155	-0.0034952958
99	0x3a934cea	0.0011238132
100	0x3c3693da	0.011143649
101	0x3c8c53e3	0.017129844
102	0x405ecad0	3.4811287
103	0xbc21871b	-0.009858872
104	0xbc449025	-0.011997257
105	0xbcbbec87	-0.022939933
106	0x3a422013	0.0007405292
107	0x404ee455	3.2326863
108	0xbcacff91	-0.021117957
109	0x40938813	4.6103606
110	0x3d149a00	0.03627968
111	0x3d7294ff	0.059224125
112	0x3c65db02	0.014029266
113	0xba80d009	-0.0009827624
114	0x408f0234	4.469019
115	0xbc932ef5	-0.017966727
116	0x3a3b93c4	0.00071555027
117	0x402e99aa	2.728129
118	0x3c8e2cb1	0.017355295
119	0x3e80ee30	0.25181723
120	0x3bd49a44	0.0064881165
121	0x3c88bed6	0.01669256
122	0xbb11feac	-0.002227704
123	0xbbf90b28	-0.007600207
124	0x3be51cd4	0.006991962
125	0x3f9c6ff4	1.2221665
126	0xbd4524fa	-0.048130967
127	0x3a8ca474	0.0010730163
128	0x3db5a34d	0.08869038
129	0x3d0ca39a	0.03433571
130	0xbcbb491b	-0.022862008
131	0xbbeeafb8	-0.007284131
132	0xbcce401f	-0.02517706
133	0x40aae403	5.3403335
134	0xbb51f004	-0.003203393
135	0xbc2cd939	-0.010549837
136	0x3a040b23	0.000503706
137	0x4036d96b	2.8570201
138	0x3fb94229	1.4473315
139	0x3b200379	0.0024416132
140	0x3fdb3011	1.7124044
141	0x405c14cc	3.4387693
142	0x3ba0dc72	0.0049090916
143	0xba147bea	-0.00056642166
144	0xba42475d	-0.00074111467
145	0x39fa8b66	0.00047787576
146	0xba765392	-0.0009396608
147	0x3b34dc86	0.0027597263
148	0xbb617c38	-0.0034406316
149	0xbb41cc1d	-0.0029571124
150	0x3a929dbc	0.0011185925
151	0x3ba42dff	0.005010366
152	0xbae256d8	-0.0017268313
153	0xba8f6465	-0.0010939954
154	0xb95e6b21	-0.00021211478
155	0xb8310415	-4.220389e-05
156	0xb9e769f2	-0.0004413869
157	0xb8f9c41f	-0.00011909776
158	0x3ae73f9c	0.0017642858
159	0x37b9028f	2.205491e-05
160	0x3e9e3b86	0.30904788
161	0xb8bfcfa5	-9.1462665e-05
162	0x38d8e562	0.000103424085
163	0x3a0a0913	0.00052656344
164	0x3d99fd17	0.07518976
165	0x3bf79f2b	0.007556816
166	0x3f579f18	0.8422713
167	0xba01f1d4	-0.00049569947
168	0xbb1efb73	-0.0024258762
169	0xbbfd199b	-0.0077239997
170	0xb9b94648	-0.00035338313
171	0x3ba562c4	0.005047174
172	0x399cbe5a	0.00029896462
173	0x3a0984f3	0.0005245946
174	0xbae1ea4f	-0.0017235967
175	0xbaf49a07	-0.0018661626
176	0xba19ec40	-0.0005871691
177	0x3819f47c	3.6705736e-05
178	0xb890167d	-6.870644e-05
179	0x3a613034	0.00085902517
180	0x3b6382ad	0.003471534
181	0xba9eccc0	-0.0012115464
182	0x3b27b134	0.00255878
183	0xbbfbb801	-0.007681847
184	0x39debb32	0.0004248261
185	0x3b347767	0.002753699
186	0x3b84d535	0.0040537366
187	0xba2c5445	-0.00065738364
188	0x3a25addb	0.0006320157
189	0x3bf14326	0.007362741
190	0x3a0b7148	0.00053193094
191	0x39716724	0.00023021974
192	0x3b242611	0.0025047103
193	0xbb425836	-0.0029654629
194	0x40da4671	6.821099
195	0x3b90267b	0.0043991185
196	0x3b0ded95	0.0021656503
197	0xbbfea05c	-0.007770581
198	0x39a76fff	0.00031936166
199	0xbc07b31a	-0.008282447
200	0x3acbe396	0.0015555497
201	0xbbfe19d8	-0.0077545457
202	0xbc28142d	-0.0102587165
203	0xbbcb1d4f	-0.006198562
204	0x3bb4b1b3	0.0055143475
205	0xb98ba9a9	-0.00026638553
206	0xbbad0b52	-0.0052808905
207	0xbb8a8778	-0.004227575
208	0x3bd858ce	0.006602383
209	0x3b050cfe	0.0020301933
210	0x40780137	3.8750741
211	0x3c1b24fa	0.009469265
212	0xb9b02dbd	-0.00033603414
213	0xbd0d0d81	-0.034436706
214	0xbab1b514	-0.0013557994
215	0xbc9fb1e7	-0.01949401
216	0xba9dfb94	-0.0012053126
217	0x40bbe3b4	5.871546
218	0x40a50aea	5.1575823
219	0xbb3e50f8	-0.002903996
220	0x40cd99c6	6.425021
221	0xb8e15a6b	-0.00010745678
222	0xbbdaf73c	-0.0066823047
223	0x4065b188	3.5889606
224	0xbb608959	-0.0034261553
225	0x402f9442	2.743424
226	0x391048fa	0.00013760096
227	0x408a2e84	4.318178
228	0x3be0b692	0.0068577016
229	0x40a311f0	5.0959396
230	0x40b13b46	5.5384855
231	0x3a4265c2	0.0007415676
232	0xbbb5347a	-0.0055299373
233	0xb8de9c46	-0.00010614893
234	0x40994a00	4.790283
235	0x3b96c38d	0.004600948
236	0x4082fe73	4.0935607
237	0xbcae8674	-0.021304347
238	0xbb952664	-0.0045516957
239	0x398b0ea7	0.00026523063
240	0xb8af608c	-8.3626335e-05
241	0x3c9b0eb9	0.018927919
242	0x3c801263	0.015633767
243	0x3c359a58	0.011084162
244	0x3a2aa57e	0.00065096456
245	0x3c0a4d4a	0.008441279
246	0xbb8dc912	-0.004326948
247	0xba4867eb	-0.00076448795
248	0x3aae71d7	0.0013309073
249	0x3cb01819	0.021495866
250	0x3aa255a1	0.0012385139
251	0xbc5e2c21	-0.013560326
252	0xbb6373c8	-0.0034706462
253	0x3f87d028	1.0610399
254	0x4024ed18	2.576971
255	0x41fcfb71	31.622774

batch_normalization_2/batchnorm/sub f4 [768]
0	0xbe4525f2	-0.19252756
1	0x3d0fc95a	0.035104133
2	0xbdfc31d6	-0.12314193
3	0x3e24e17e	0.16101643
4	0xbe156109	-0.14587797
5	0x3e131606	0.1436387
6	0xbe2c0e56	-0.16802344
7	0x3e1ced98	0.1532501
8	0xbecea508	-0.40360284
9	0xc0913e44	-4.538851
10	0x3e2d05b4	0.16896707
11	0x3e2300c2	0.15918258
12	0xbe0758ef	-0.13217519
13	0xbe132a35	-0.1437157
14	0xbe09578a	-0.134123
15	0xbd7387a7	-0.05945554
16	0x3dbd7e75	0.092526354
17	0xbddb3b77	-0.107047014
18	0xbda22078	-0.07916349
19	0x3d99c238	0.075077474
20	0xbb9f0794	-0.0048531983
21	0x3e07320d	0.13202687
22	0x3d29dc4e	0.041469865
23	0x3e4954d3	0.19661264
24	0xbe0b6be0	-0.1361537
25	0xbd8b57c2	-0.06803848
26	0xbfefe397	-1.874133
27	0xbc3561cc	-0.01107068
28	0xbdeb48b0	-0.114884734
29	0xc026c3e8	-2.6057072
30	0xbdc56f1a	-0.096403316
31	0x3d4bcad2	0.04975397
32	0x3ddb04a4	0.106942445
33	0xbdfce778	-0.12348837
34	0x3c123678	0.008924119
35	0xbfe88e40	-1.8168411
36	0xbf250738	-0.6446414
37	0x3db2dd28	0.087335885
38	0xbdad25d5	-0.084544815
39	0x3dc0e96e	0.09419523
40	0x3cd67fcc	0.026183985
41	0x3dc5b2ba	0.0965323
42	0xc05248a0	-3.2856827
43	0xbdd483d8	-0.1037671
44	0x3ce639d1	0.02810374
45	0x3e390418	0.18067968
46	0x3cefaf2e	0.029258337
47	0x3d7f1424	0.062275067
48	0x3b8abb40	0.0042337477
49	0xbeffae3a	-0.49937612
50	0x3dd1b280	0.10239124
51	0xc064825b	-3.5704563
52	0xbd903f7a	-0.07043357
53	0xbd525e80	-0.051359653
54	0xbdb3c744	-0.08778241
55	0xbc83cbfa	-0.016088475
56	0x3df78848	0.120865405
57	0xbd0ad13c	-0.033890948
58	0x3c6f2f88	0.014598735
59	0xbb5afce0	-0.0033414885
60	0x3d8410d2	0.06448521
61	0xbdb6bd19	-0.08922786
62	0xbbdddc6c	-0.006770661
63	0x3a194392	0.00058465556
64	0xbda01abd	-0.078176
65	0x3d624039	0.05523703
66	0x3dfa32ea	0.12216742
67	0x3dc4853f	0.09595727
68	0xbd081d30	-0.03323096
69	0xbdaf4d95	-0.085597195
70	0xbde3b4d9	-0.11118478
71	0xbd47e3d6	-0.048801266
72	0xbc9bccd7	-0.019018574
73	0xbd9260af	-0.07147347
74	0xbd2a4eba	-0.041578986
75	0x3d941144	0.07229856
76	0xc113c1f1	-9.234849
77	0xbc870d5e	-0.016485866
78	0xbd8c5e24	-0.068538934
79	0x3da0aab6	0.078450605
80	0xbdfbeafc	-0.12300679
81	0x3df8bf15	0.12145821
82	0xc18e7d4c	-17.81118
83	0x3db013e4	0.08597544
84	0x3dda3a91	0.10655702
85	0xbe011ac6	-0.1260787
86	0xc080e63d	-4.0281053
87	0xbdff4678	-0.12464613
88	0x3def90c9	0.116975375
89	0x3dd201b2	0.102542296
90	0x3e2b73f6	0.16743454
91	0x3e13de7a	0.14440337
92	0xbdc31fbe	-0.09527539
93	0x3de0e67a	0.1098146
94	0xc15b9401	-13.723634
95	0x3de45e43	0.111507915
96	0x3df03757	0.11729305
97	0x3db5fccb	0.08886107
98	0x3dc9e091	0.09857286
99	0xbdfb5ab8	-0.122731626
100	0xbdd5ce86	-0.10439782
101	0xbddb9daf	-0.10723435
102	0xc0ff9066	-7.986377
103	0x3ddf565f	0.10905146
104	0x3e4043c6	0.18775854
105	0x3dae1d47	0.08501678
106	0xbe24ddfa	-0.16100302
107	0xc131f3f6	-11.122061
108	0x3e22fede	0.15917537
109	0xc0e9e79f	-7.309524
110	0xbdf08a92	-0.1174518
111	0xbcd03f24	-0.025420733
112	0xbe20ef8b	-0.15716378
113	0x3e1e3e19	0.15453376
114	0xc0daa371	-6.8324513
115	0x3d7f1054	0.06227143
116	0xbe0e4055	-0.13891728
117	0xc09b8771	-4.8602834
118	0xbdfdfe44	-0.12402013
119	0xbff37340	-1.9019547
120	0xbe071d65	-0.13194807
121	0xbd3ca60e	-0.0460568
122	0x3e1772c3	0.14789872
123	0x3e2d793c	0.16940778
124	0xbdf7cf94	-0.12100139
125	0xc02c6fec	-2.6943312
126	0x3ced9510	0.029001743
127	0xbde07b1b	-0.109609805
128	0xbe202b48	-0.1564151
129	0xbe4644d7	-0.19362198
130	0x3e1ee46a	0.1551682
131	0x3e1e5cc7	0.15465079
132	0x3e5d3062	0.21600488
133	0xc19834e9	-19.025835
134	0x3e13071c	0.14358181
135	0x3dbd54b9	0.09244675
136	0xbdb4d380	-0.08829403
137	0xc11a1388	-9.629768
138	0xc1c3c0a0	-24.469055
139	0xbe047d53	-0.12938432
140	0xc155f5c6	-13.372503
141	0xc20605a5	-33.505512
142	0xbe2ddd27	-0.16978894
143	0x3dc32929	0.09529335
144	0xbd51a298	-0.051180452
145	0xbcb686f5	-0.02228115
146	0x3d884452	0.06653656
147	0xbe14f248	-0.14545548
148	0x3e27a29c	0.16370624
149	0x3dac2d47	0.084070735
150	0xbe0bf8c5	-0.13669117
151	0x3b25f260	0.0025321469
152	0x3dc60b80	0.09670162
153	0xbd4e0938	-0.05030176
154	0x3d0b80b5	0.03405829
155	0x3d950bd9	0.072776504
156	0x3de0c5db	0.10975238
157	0xbcc44990	-0.023960859
158	0xbccc8172	-0.024964068
159	0x3bc32d8e	0.0059563583
160	0x3f42ff40	0.7617073
161	0xbd86e34f	-0.065863244
162	0xbd55c881	-0.05219317
163	0x3d15abc6	0.03654077
164	0xc00f0c56	-2.235128
165	0xbe09840c	-0.13429278
166	0xc0d5c5c3	-6.680391
167	0xbda06971	-0.07832611
168	0xbd5f9896	-0.054588877
169	0x3d112911	0.035439555
170	0x3e4212aa	0.18952432
171	0xbd893200	-0.0669899
172	0xbc84ce35	-0.016211608
173	0xbc636c05	-0.013880734
174	0x3da3edc7	0.08004337
175	0xbd098db0	-0.03358239
176	0x3b74acaa	0.003733436
177	0x3e00ffd2	0.12597588
178	0x3e025c92	0.12730625
179	0xbd9a2eda	-0.075284675
180	0xbd518fda	-0.05116258
181	0xbd6819ce	-0.056665234
182	0x3c9828b4	0.018574096
183	0xbd0c96b3	-0.034323405
184	0xbc392a56	-0.011301598
185	0x3d0845e0	0.033269763
186	0xbdf891d2	-0.12137188
187	0x3de80b12	0.113302365
188	0xbdae8910	-0.08522236
189	0x3c710d6e	0.014712675
190	0xbd8f670c	-0.070020765
191	0xbae4d532	-0.0017458557
192	0x3daf115d	0.08548234
193	0xbd590fba	-0.052993514
194	0xc0c4b385	-6.146914
195	0xbd64f4d8	-0.055897564
196	0x3d9c50bc	0.07632586
197	0xbc8a83e8	-0.0169086
198	0xbde0188c	-0.10942182
199	0x3e0c3a7f	0.1369419
200	0xbdd71339	-0.10501713
201	0x3da5dcbd	0.08098743
202	0xbd64b8fe	-0.055840485
203	0x3d540b8f	0.051768836
204	0x3d65ddab	0.056119602
205	0x3daf5610	0.08561337
206	0x3dc247b4	0.094863325
207	0x3ddfaa78	0.10921186
208	0xbdd2a382	-0.10285093
209	0xbda1a499	-0.07892723
210	0xc1002e50	-8.011307
211	0xbd9edf66	-0.077574536
212	0x3de8ec4a	0.113731936
213	0x3dd91d48	0.10601288
214	0xbd8c31e5	-0.06845454
215	0x3e527c4f	0.20555232
216	0xbd904a06	-0.07045369
217	0xc162e104	-14.179935
218	0xc1055c03	-8.334964
219	0xbd8b540f	-0.06803142
220	0xc1bacc5e	-23.349789
221	0x3e1a68c4	0.15079027
222	0x3d149ebf	0.036284205
223	0xc0f85d56	-7.7613935
224	0xbd0060ba	-0.031342246
225	0xc1d6a12e	-26.828701
226	0xbe251483	-0.16121106
227	0xc128b77b	-10.544795
228	0xbd59ceef	-0.053175863
229	0xc19103ad	-18.126795
230	0xc1dea8d2	-27.832432
231	0x3e00bf6b	0.1257302
232	0x3d078a45	0.03309085
233	0x3dd37650	0.10325301
234	0xc11ebb95	-9.920796
235	0x3dd88b1b	0.10573407
236	0xc199dc2a	-19.232502
237	0x3e10103d	0.14068694
238	0xbd928b55	-0.07155482
239	0x3e164143	0.14673333
240	0x3e0d9ae8	0.13828623
241	0xbe0ab766	-0.13546523
242	0xbd068d35	-0.03284951
243	0xbe26456c	-0.1623742
244	0xbdc5a28d	-0.09650145
245	0xbd1c8fc6	-0.03822305
246	0x3d9c1f40	0.07623148
247	0xbe0133ed	-0.12617464
248	0xbd8e7e27	-0.069576554
249	0xbe6bd72a	-0.23031297
250	0xbe39beb4	-0.18139154
251	0x3e20c509	0.15700163
252	0x3e259572	0.1617029
253	0xc0f3ed82	-7.6227427
254	0xbe69f5c0	-0.22847652
255	0x3da8cd37	0.082422666

dense_1/MatMul_bias f4 [32]
0	0x3feebfcc	1.8652282
1	0x3fe4d82b	1.7878469
2	0x3fd1a4c5	1.6378409
3	0x3fef1c1b	1.8680452
4	0x3fd8df0b	1.6943067
5	0x3ff7e55d	1.9366871
6	0x3fe6f6ab	1.8044027
7	0x3fc3fa0e	1.5310686
8	0x3fee9e71	1.8642102
9	0x3fce3e3f	1.6112746
10	0x3fcdab5f	1.6067923
11	0x3fd123c2	1.6339037
12	0x3fdf44b6	1.7442844
13	0x3fd8d04b	1.6938566
14	0x3fcda881	1.6067048
15	0x3fe5f8eb	1.7966589
16	0x3fe42e1a	1.7826569
17	0x3fdc8426	1.7227829
18	0x3fc78a3e	1.5589063
19	0x3fde6836	1.7375553
20	0x3fd5b64a	1.6696255
21	0x3fded876	1.7409809
22	0x3fd3b107	1.65384
23	0x3fd64f41	1.6742936
24	0x3fe479f2	1.7849715
25	0x3fe8c2b7	1.8184422
26	0x3fdf148f	1.7428149
27	0x3fec7c48	1.8475428
28	0x3fe0254a	1.751138
29	0x3fc521cd	1.540094
30	0x3fe0aef3	1.755339
31	0x3fddcd0c	1.73282

dense_1/kernel/transpose f4 [32, 768]
0	0xb67ddee4	-3.7829677e-06
1	0x36905012	4.300856e-06
2	0xb58780b0	-1.0095737e-06
3	0xb8a65458	-7.931207e-05
4	0xafc1cda8	-3.5252623e-10
5	0xb8472655	-4.7480997e-05
6	0xb855f6ec	-5.101312e-05
7	0x346793a6	2.1567266e-07
8	0x3860f3f7	5.363297e-05
9	0x35e5b21d	1.7113667e-06
10	0x365c8e7a	3.2865487e-06
11	0x335435da	4.9409074e-08
12	0xb140e3c0	-2.8069138e-09
13	0xb77d87c8	-1.5111589e-05
14	0xb662b1f4	-3.3780207e-06
15	0x376f4ebf	1.4263845e-05
16	0x312fe9b7	2.5598703e-09
17	0xb6cc6493	-6.091382e-06
18	0x37e08b1c	2.6767659e-05
19	0x37e84246	2.7687416e-05
20	0x36150365	2.2204706e-06
21	0xb4bd9ff6	-3.532038e-07
22	0x37e0b2f4	2.6786212e-05
23	0x368e9398	4.249112e-06
24	0x364cec78	3.0536012e-06
25	0x37fabf5b	2.989143e-05
26	0x37326cc2	1.0634949e-05
27	0x38543555	5.0594408e-05
28	0x36863594	3.9997485e-06
29	0xb87b2740	-5.9879618e-05
30	0x37b9434b	2.2085054e-05
31	0x369cb425	4.670134e-06
32	0xb4717ab9	-2.248952e-07
33	0x2d29cc63	9.651921e-12
34	0x34bb762a	3.491744e-07
35	0x361b9e6a	2.318901e-06
36	0xb385c336	-6.228804e-08
37	0x3630d5a2	2.6350394e-06
38	0x34e50e68	4.2665056e-07
39	0x38837716	6.268748e-05
40	0xb582cbda	-9.745083e-07
41	0xb7098cda	-8.198631e-06
42	0xb2453968	-1.1479962e-08
43	0x3599c66c	1.1457137e-06
44	0x346fdc20	2.233869e-07
45	0x36879d6c	4.04164e-06
46	0xb666d442	-3.439622e-06
47	0xb61ca65f	-2.3342652e-06
48	0x349a6b3a	2.8762753e-07
49	0x3654f10e	3.1730774e-06
50	0x35a17e9e	1.2032285e-06
51	0x3450c19e	1.9441947e-07
52	0xb6a4defc	-4.9135397e-06
53	0xb8caa4bc	-9.662795e-05
54	0x3617a308	2.259565e-06
55	0xb48dd17f	-2.6415725e-07
56	0x372cfb97	1.0310577e-05
57	0xb6617f50	-3.3601718e-06
58	0xb60e0805	-2.1164317e-06
59	0xb3845b78	-6.163367e-08
60	0x37121c07	8.708804e-06
61	0xb81df9d4	-3.7664387e-05
62	0x38cc348a	9.737264e-05
63	0xb59c9304	-1.1665693e-06
64	0x31172526	2.1994508e-09
65	0xb5e69290	-1.7178991e-06
66	0xb507d39c	-5.059935e-07
67	0xb2540ee5	-1.2343411e-08
68	0xb72c6b9e	-1.02770555e-05
69	0xb5e0e884	-1.6756971e-06
70	0x36ac73bc	5.1394727e-06
71	0xb66f37de	-3.5646294e-06
72	0x37d3489c	2.5186971e-05
73	0x3620246c	2.3863058e-06
74	0xb6549889	-3.167925e-06
75	0xb8174a88	-3.6070618e-05
76	0x34b2459a	3.3205725e-07
77	0xb4b7d140	-3.4238656e-07
78	0x38ba0de5	8.871759e-05
79	0x38a94b58	8.072582e-05
80	0x3755d03e	1.27442745e-05
81	0x366f6608	3.5673165e-06
82	0xb6fbaf40	-7.5007847e-06
83	0xb855728c	-5.0889837e-05
84	0x31b48c85	5.2546647e-09
85	0xb6bd3f88	-5.640035e-06
86	0xb3c4b310	-9.1595325e-08
87	0x35e45ef9	1.7014964e-06
88	0x38d90b93	0.00010349522
89	0x3511965c	5.423551e-07
90	0xb13c2bbe	-2.7382465e-09
91	0xb5f43098	-1.8193559e-06
92	0xb6b387ca	-5.3504236e-06
93	0x386bf47e	5.6256067e-05
94	0x2ff408a6	4.4389487e-10
95	0xb4013c08	-1.20359e-07
96	0x386973af	5.5659268e-05
97	0xb2884e67	-1.5868137e-08
98	0xb7597f70	-1.2963879e-05
99	0xb8161f82	-3.579213e-05
100	0xb63fbd07	-2.8571246e-06
101	0x379595e2	1.7831979e-05
102	0x3702a6a7	7.787406e-06
103	0xb69707d0	-4.50106e-06
104	0x35c47222	1.4636355e-06
105	0xb39d51fc	-7.325795e-08
106	0x3651f1d4	3.128419e-06
107	0x38be6826	9.079305e-05
108	0xb2a6cd98	-1.9418437e-08
109	0xb212a624	-8.5360945e-09
110	0x37c5e0f0	2.3588975e-05
111	0xb60b049c	-2.0715297e-06
112	0xaf8959f0	-2.498406e-10
113	0x3893e47c	7.052065e-05
114	0xb8921b74	-6.966936e-05
115	0xb8698f08	-5.5684737e-05
116	0x38972bce	7.2084e-05
117	0x3586195f	9.991162e-07
118	0x367eef50	3.7988248e-06
119	0xb600b8dc	-1.9181089e-06
120	0x36fafc25	7.479934e-06
121	0x367f3992	3.8031471e-06
122	0xb3f799af	-1.1529789e-07
123	0xb58b249b	-1.0366961e-06
124	0xb699f3d8	-4.5881425e-06
125	0xb0885138	-9.918386e-10
126	0x36abd3b0	5.120841e-06
127	0x3788f606	1.6327027e-05
128	0x30a96376	1.2324637e-09
129	0x2fa6d307	3.0345168e-10
130	0x38ede2ec	0.00011343308
131	0xb89909ad	-7.297411e-05
132	0x378434af	1.5760159e-05
133	0xb3f0e4a4	-1.12174604e-07
134	0xb89073e2	-6.88804e-05
135	0xb1741b9c	-3.5522367e-09
136	0x35cc67d4	1.5229402e-06
137	0xb41ca65a	-1.458915e-07
138	0x309b9ddf	1.1322604e-09
139	0xb4c05778	-3.582643e-07
140	0xb182466f	-3.7915053e-09
141	0xb4a95897	-3.154316e-07
142	0xb38b3b28	-6.483452e-08
143	0xafd9a4e8	-3.9589243e-10
144	0xb4761756	-2.2919025e-07
145	0xb48a93f8	-2.5812164e-07
146	0xb7a1d550	-1.9292027e-05
147	0x38e11afe	0.00010733864
148	0x2fa9b673	3.087056e-10
149	0xb4b1d024	-3.312026e-07
150	0x37e75338	2.7576098e-05
151	0x36016537	1.9281413e-06
152	0xb5f84984	-1.8498836e-06
153	0xb3e09d4a	-1.04594235e-07
154	0xb26b8cd0	-1.3710817e-08
155	0x309722e0	1.0996608e-09
156	0xb5601e41	-8.349053e-07
157	0xb68d042a	-4.202612e-06
158	0xb44a7cfd	-1.8858186e-07
159	0xb5615e15	-8.395594e-07
160	0xb13a95c6	-2.7151699e-09
161	0xb82e121c	-4.15017e-05
162	0xb7b429d8	-2.1477157e-05
163	0xb345bd38	-4.603973e-08
164	0xb526a48a	-6.2079255e-07
165	0xb45e4e22	-2.0703786e-07
166	0xb6b93bd2	-5.5203936e-06
167	0xb790f598	-1.7280501e-05
168	0xb4f69295	-4.5927723e-07
169	0x2f7b0210	2.282905e-10
170	0xb4d562e7	-3.9746303e-07
171	0xb5722ccd	-9.021722e-07
172	0x3793fe5e	1.7642215e-05
173	0xb3a28d12	-7.5693734e-08
174	0xaf892ca9	-2.4951888e-10
175	0xb4de3f68	-4.1396856e-07
176	0x3872fd06	5.7932943e-05
177	0x369621b3	4.4742715e-06
178	0xb6a8cd06	-5.030658e-06
179	0x3800290a	3.05558e-05
180	0xb43028fe	-1.640619e-07
181	0x37b682ac	2.175694e-05
182	0xb71581b6	-8.911293e-06
183	0x33b92e6c	8.623178e-08
184	0xb4fc0a05	-4.6945948e-07
185	0xb49dd1e4	-2.9396244e-07
186	0xaf98097e	-2.7655384e-10
187	0x33b5cc14	8.465591e-08
188	0x3346b6c6	4.62667e-08
189	0x3394d8a6	6.931195e-08
190	0xb665b96d	-3.4231591e-06
191	0xb44658cd	-1.8472493e-07
192	0xb6a07af4	-4.782685e-06
193	0xb242d52c	-1.1340756e-08
194	0xb3aa66bd	-7.93493e-08
195	0xb4a06300	-2.9874354e-07
196	0xb4a1304c	-3.0023728e-07
197	0x38ff6f8c	0.00012180125
198	0xb62ddb8a	-2.5906797e-06
199	0xb7845364	-1.5774458e-05
200	0x34b31320	3.3355263e-07
201	0xb5ce8649	-1.5387278e-06
202	0x36cf000f	6.1690876e-06
203	0x35cd2d50	1.5286878e-06
204	0xaf998c8c	-2.7930402e-10
205	0xb43f1628	-1.7796322e-07
206	0xb3b1233a	-8.2486125e-08
207	0xb182b678	-3.8042423e-09
208	0xb50618db	-4.995506e-07
209	0xb4851bbc	-2.479336e-07
210	0x37766c3a	1.4687941e-05
211	0xb852aa25	-5.022636e-05
212	0xb52dba94	-6.471903e-07
213	0xb5c54f44	-1.4700713e-06
214	0x36fe6fe8	7.5828175e-06
215	0x37c6973e	2.3673867e-05
216	0xb029399c	-6.156371e-10
217	0x315a61d3	3.1778782e-09
218	0xb199ba9e	-4.474102e-09
219	0x381a1908	3.6739773e-05
220	0xb7b3e860	-2.144667e-05
221	0x34c48d7e	3.6610794e-07
222	0x3831caec	4.2389074e-05
223	0x36a0bdc3	4.7904628e-06
224	0x34448abe	1.8304397e-07
225	0x361542e0	2.2241657e-06
226	0x30d3d27c	1.5412094e-09
227	0x3644d09e	2.9327707e-06
228	0x369227d9	4.355778e-06
229	0x3432a81e	1.6638703e-07
230	0xb91afa36	-0.00014779795
231	0xb5d1b84c	-1.5625351e-06
232	0xb4514e90	-1.9493223e-07
233	0xb220d99a	-9.362703e-09
234	0x35ef36f4	1.7822881e-06
235	0xb6ddb2fb	-6.6071493e-06
236	0x2ec8b99e	9.127919e-11
237	0x33e334b8	1.0580101e-07
238	0xb3410e26	-4.4949182e-08
239	0xb24c64ae	-1.1897255e-08
240	0xb5616b60	-8.3975283e-07
241	0xb2a4bf94	-1.9179232e-08
242	0x36297d44	2.5255877e-06
243	0xb68e9cbf	-4.2501774e-06
244	0xb6acce9e	-5.150053e-06
245	0x36470080	2.9653602e-06
246	0xaf7242f8	-2.2033564e-10
247	0xb52649ea	-6.194738e-07
248	0x36cf4445	6.1770284e-06
249	0x325a3d90	1.2703268e-08
250	0xb3f4f1ce	-1.14061194e-07
251	0x2f9092c2	2.6297725e-10
252	0xb7adb38c	-2.0706815e-05
253	0x369a5738	4.5997112e-06
254	0x38b5ed99	8.6750086e-05
255	0xb7641330	-1.3594326e-05

dense_2/MatMul_bias f4 [16]
0	0xc0f64be4	-7.696764
1	0xc0f64be5	-7.6967645
2	0xc0f64be4	-7.696764
3	0xc0f64bef	-7.696769
4	0xc0f64bde	-7.696761
5	0xc0f64bd5	-7.696757
6	0xc0f64bda	-7.696759
7	0xc0f64be5	-7.6967645
8	0xc0f64bd7	-7.696758
9	0xc0f64be5	-7.6967645
10	0xc0f64be5	-7.6967645
11	0xc0f64bd1	-7.696755
12	0xc0f64be4	-7.696764
13	0xc0f64bee	-7.6967688
14	0xc0f64bd7	-7.696758
15	0xc0f64bd7	-7.696758

dense_2/kernel/transpose f4 [16, 32]
0	0xb6d4d298	-6.3426087e-06
1	0xb6bee008	-5.688522e-06
2	0xb68070d0	-3.8278304e-06
3	0xb6d55ccd	-6.358698e-06
4	0xb69ba030	-4.6380082e-06
5	0xb6e4399a	-6.801635e-06
6	0xb6c3f7e0	-5.8403093e-06
7	0xb5fc590a	-1.8801377e-06
8	0xb6d493ee	-6.3353136e-06
9	0xb664004f	-3.3974827e-06
10	0xb65eaeee	-3.31824e-06
11	0xb67cab2c	-3.7650561e-06
12	0xb6afc721	-5.238588e-06
13	0xb69b4b87	-4.6281525e-06
14	0xb65e9d2a	-3.317206e-06
15	0xb6c199fe	-5.7697753e-06
16	0xb6bd41a0	-5.6402787e-06
17	0xb6a75c31	-4.9877203e-06
18	0xb6247ffc	-2.45124e-06
19	0xb6ad35e9	-5.1620777e-06
20	0xb6902a5f	-4.296467e-06
21	0xb6ae7eb3	-5.200354e-06
22	0xb688845f	-4.068526e-06
23	0xb6929042	-4.367933e-06
24	0xb6be0512	-5.6630315e-06
25	0xb6c82e54	-5.965858e-06
26	0xb6af3adc	-5.2222586e-06
27	0xb6d0446c	-6.2068484e-06
28	0xb6b240f4	-5.312375e-06
29	0xb60a951e	-2.06504e-06
30	0xb6b3b492	-5.355637e-06
31	0xb6ab8c34	-5.112519e-06
32	0xb6d4daba	-6.3435555e-06
33	0xb6bee784	-5.689393e-06
34	0xb6807944	-3.8288144e-06
35	0xb6d56581	-6.3597113e-06
36	0xb69ba8eb	-4.6390246e-06
37	0xb6e4401d	-6.8023933e-06
38	0xb6c3ff68	-5.841186e-06
39	0xb5fc838e	-1.881375e-06
40	0xb6d499e8	-6.3360094e-06
41	0xb6641473	-3.398655e-06
42	0xb65ec0e2	-3.319285e-06
43	0xb67cc16b	-3.766351e-06
44	0xb6afcf9e	-5.2395762e-06
45	0xb69b5565	-4.629301e-06
46	0xb65eaed6	-3.3182346e-06
47	0xb6c1a198	-5.77066e-06
48	0xb6bd49d0	-5.641232e-06
49	0xb6a76504	-4.9887476e-06
50	0xb6249009	-2.4521744e-06
51	0xb6ad3e92	-5.163086e-06
52	0xb6903386	-4.2975325e-06
53	0xb6ae867c	-5.20126e-06
54	0xb6888ee9	-4.069753e-06
55	0xb6929a56	-4.369106e-06
56	0xb6be0d96	-5.664023e-06
57	0xb6c83613	-5.9667595e-06
58	0xb6af43ea	-5.2233127e-06
59	0xb6d04ac6	-6.207588e-06
60	0xb6b249f0	-5.313421e-06
61	0xb60aaf6b	-2.066571e-06
62	0xb6b3bd85	-5.3566787e-06
63	0xb6ab946e	-5.1134766e-06
64	0xb6d4e813	-6.3451093e-06
65	0xb6befc77	-5.691832e-06
66	0xb6809dae	-3.8330536e-06
67	0xb6d572d4	-6.3612624e-06
68	0xb69bc472	-4.642229e-06
69	0xb6e44adb	-6.803644e-06
70	0xb6c41360	-5.8435107e-06
71	0xb5fd4b4d	-1.8871884e-06
72	0xb6d4ac08	-6.3381194e-06
73	0xb6645f60	-3.4030163e-06
74	0xb65f127e	-3.3240353e-06
75	0xb67d0636	-3.7703553e-06
76	0xb6afe6aa	-5.2422592e-06
77	0xb69b7437	-4.632889e-06
78	0xb65efe5a	-3.322863e-06
79	0xb6c1b4cb	-5.7728953e-06
80	0xb6bd5e46	-5.643614e-06
81	0xb6a77e20	-4.9916707e-06
82	0xb624f0d8	-2.4578094e-06
83	0xb6ad5755	-5.1659686e-06
84	0xb6904f13	-4.30074e-06
85	0xb6ae9cee	-5.203873e-06
86	0xb688b1c9	-4.0738128e-06
87	0xb692bb23	-4.3729246e-06
88	0xb6be2194	-5.6663503e-06
89	0xb6c8487a	-5.968902e-06
90	0xb6af5b72	-5.226052e-06
91	0xb6d05aca	-6.2094523e-06
92	0xb6b26084	-5.3160493e-06
93	0xb60b0d4b	-2.0720352e-06
94	0xb6b3d61e	-5.3595422e-06
95	0xb6ababf0	-5.1162133e-06
96	0xb6d4e744	-6.345015e-06
97	0xb6bef83e	-5.6913404e-06
98	0xb6809835	-3.8324165e-06
99	0xb6d5708a	-6.360996e-06
100	0xb69bc18c	-4.641892e-06
101	0xb6e44976	-6.8034815e-06
102	0xb6c4124c	-5.843385e-06
103	0xb5fd2847	-1.8861691e-06
104	0xb6d4a86e	-6.3377e-06
105	0xb6645689	-3.4025018e-06
106	0xb65f0594	-3.3232836e-06
107	0xb67cfdbb	-3.7698617e-06
108	0xb6afe3ed	-5.2419405e-06
109	0xb69b6cb9	-4.632017e-06
110	0xb65eef84	-3.3219994e-06
111	0xb6c1b1fa	-5.7725674e-06
112	0xb6bd5a90	-5.643182e-06
113	0xb6a77af9	-4.9913037e-06
114	0xb624dc05	-2.4565973e-06
115	0xb6ad536a	-5.1655124e-06
116	0xb6904b38	-4.300291e-06
117	0xb6ae9891	-5.203365e-06
118	0xb688abf7	-4.073135e-06
119	0xb692b457	-4.3721334e-06
120	0xb6be1ee7	-5.6660388e-06
121	0xb6c84513	-5.968506e-06
122	0xb6af57e0	-5.2256364e-06
123	0xb6d0589c	-6.2091985e-06
124	0xb6b25d38	-5.3156655e-06
125	0xb60b0439	-2.0715072e-06
126	0xb6b3d1f7	-5.359059e-06
127	0xb6aba826	-5.115772e-06
128	0xb6d4e79e	-6.345056e-06
129	0xb6bef7f4	-5.691307e-06
130	0xb68095dc	-3.832143e-06
131	0xb6d5726d	-6.3612156e-06
132	0xb69bbdc0	-4.64145e-06
133	0xb6e44a3c	-6.8035715e-06
134	0xb6c410e9	-5.843224e-06
135	0xb5fd179d	-1.8856841e-06
136	0xb6d4a988	-6.3378284e-06
137	0xb6644b19	-3.401836e-06
138	0xb65efb3d	-3.3226818e-06
139	0xb67cf467	-3.7693187e-06
140	0xb6afe2ac	-5.2417945e-06
141	0xb69b6bed	-4.631924e-06
142	0xb65ee7d2	-3.3215515e-06
143	0xb6c1b248	-5.772603e-06
144	0xb6bd5b93	-5.6432996e-06
145	0xb6a77ad4	-4.991287e-06
146	0xb624ce00	-2.4557812e-06
147	0xb6ad5250	-5.165384e-06
148	0xb6904883	-4.299976e-06
149	0xb6ae9a00	-5.203532e-06
150	0xb688aab7	-4.0729897e-06
151	0xb692b1bf	-4.3718314e-06
152	0xb6be1e3a	-5.66596e-06
153	0xb6c84632	-5.9686363e-06
154	0xb6af566b	-5.225467e-06
155	0xb6d05971	-6.2092954e-06
156	0xb6b25b96	-5.3154754e-06
157	0xb60af403	-2.0705636e-06
158	0xb6b3d1f2	-5.3590566e-06
159	0xb6aba7aa	-5.115716e-06
160	0xb6d4e5be	-6.344838e-06
161	0xb6bef87d	-5.691369e-06
162	0xb6809669	-3.8322073e-06
163	0xb6d5707c	-6.3609896e-06
164	0xb69bbee5	-4.641583e-06
165	0xb6e448f3	-6.803422e-06
166	0xb6c4117e	-5.8432915e-06
167	0xb5fd299d	-1.886208e-06
168	0xb6d4a8e6	-6.3377547e-06
169	0xb6644efd	-3.4020625e-06
170	0xb65effe5	-3.3229528e-06
171	0xb67cfae4	-3.7696964e-06
172	0xb6afe35c	-5.2418745e-06
173	0xb69b6e09	-4.6321697e-06
174	0xb65ef138	-3.3220986e-06
175	0xb6c1b0ee	-5.7724455e-06
176	0xb6bd5ada	-5.6432154e-06
177	0xb6a77a94	-4.991258e-06
178	0xb624de9d	-2.4567482e-06
179	0xb6ad5286	-5.1654088e-06
180	0xb6904a1c	-4.300162e-06
181	0xb6ae9794	-5.20325e-06
182	0xb688acb7	-4.0732225e-06
183	0xb692b4c3	-4.3721825e-06
184	0xb6be1d07	-5.6658205e-06
185	0xb6c84505	-5.9684994e-06
186	0xb6af5859	-5.2256914e-06
187	0xb6d0583c	-6.209155e-06
188	0xb6b25a86	-5.3153517e-06
189	0xb60afd20	-2.071094e-06
190	0xb6b3d112	-5.3589547e-06
191	0xb6aba8f4	-5.115866e-06
192	0xb6d4dfc1	-6.3441407e-06
193	0xb6bef320	-5.6907447e-06
194	0xb6808efe	-3.8313437e-06
195	0xb6d56be0	-6.360453e-06
196	0xb69bb892	-4.640847e-06
197	0xb6e444ba	-6.8029303e-06
198	0xb6c40b36	-5.8425603e-06
199	0xb5fcf705	-1.8847355e-06
200	0xb6d4a2d2	-6.337047e-06
201	0xb6643da6	-3.4010532e-06
202	0xb65eebbe	-3.3217798e-06
203	0xb67ce3ba	-3.768348e-06
204	0xb6afdc0c	-5.2410232e-06
205	0xb69b62f4	-4.6308796e-06
206	0xb65edbee	-3.3208594e-06
207	0xb6c1ab48	-5.771788e-06
208	0xb6bd5460	-5.6424615e-06
209	0xb6a772d8	-4.9903574e-06
210	0xb624c229	-2.455092e-06
211	0xb6ad4a4d	-5.1644515e-06
212	0xb690427b	-4.2992738e-06
213	0xb6ae92e3	-5.202704e-06
214	0xb688a236	-4.0719997e-06
215	0xb692ac95	-4.3712303e-06
216	0xb6be181d	-5.6652484e-06
217	0xb6c840cb	-5.9680074e-06
218	0xb6af51aa	-5.2249134e-06
219	0xb6d05356	-6.2085846e-06
220	0xb6b254b5	-5.3146746e-06
221	0xb60ae2e5	-2.0695672e-06
222	0xb6b3c946	-5.358047e-06
223	0xb6ab9ede	-5.1146917e-06
224	0xb6d4db3f	-6.343616e-06
225	0xb6beeaad	-5.689761e-06
226	0xb6807ccc	-3.8292255e-06
227	0xb6d566ac	-6.3598472e-06
228	0xb69ba97a	-4.6390896e-06
229	0xb6e44166	-6.802543e-06
230	0xb6c4003c	-5.8412825e-06
231	0xb5fc9395	-1.8818415e-06
232	0xb6d49b67	-6.3361836e-06
233	0xb66419f5	-3.3989757e-06
234	0xb65ec6f8	-3.3196393e-06
235	0xb67cc45a	-3.7665218e-06
236	0xb6afd13c	-5.2397645e-06
237	0xb69b567a	-4.629427e-06
238	0xb65eb4ce	-3.318582e-06
239	0xb6c1a418	-5.7709512e-06
240	0xb6bd4abe	-5.64134e-06
241	0xb6a76541	-4.9887753e-06
242	0xb6249579	-2.452491e-06
243	0xb6ad40a7	-5.1633283e-06
244	0xb6903628	-4.297839e-06
245	0xb6ae880f	-5.2014434e-06
246	0xb688902a	-4.0698988e-06
247	0xb6929b90	-4.369249e-06
248	0xb6be0e79	-5.664126e-06
249	0xb6c83824	-5.967e-06
250	0xb6af4651	-5.2235923e-06
251	0xb6d04d26	-6.2078643e-06
252	0xb6b24ab0	-5.313508e-06
253	0xb60ab534	-2.0669077e-06
254	0xb6b3bed8	-5.356833e-06
255	0xb6ab95b8	-5.1136267e-06

dense_3/MatMul_bias f4 [32]
0	0x3f3eb6d1	0.74497706
1	0x3f1eec43	0.62079257
2	0x3e8a3644	0.26994526
3	0xbf06e1b8	-0.5268817
4	0xbe64e04c	-0.22351187
5	0xbf2be1ea	-0.6714159
6	0xbf53a1d1	-0.8266879
7	0x3e6c1ef1	0.23058678
8	0x3dcf7eab	0.10131582
9	0xbf0c40c1	-0.54786307
10	0xbee3153e	-0.44352144
11	0x3f0f4b6e	0.5597447
12	0xbf0d9153	-0.5529987
13	0x3f46abc0	0.7760582
14	0xbf4f285a	-0.80920947
15	0xbf4c5e81	-0.798317
16	0xbedc473d	-0.430231
17	0x3efc483a	0.49273854
18	0xbf1316dc	-0.57456756
19	0x3f3aaca1	0.7291966
20	0xbf1d6368	-0.61479807
21	0x3f1834e4	0.59455705
22	0x3ef1d9a7	0.47236368
23	0xbf0274f2	-0.50959694
24	0x3d76e049	0.06027249
25	0xbe4b610b	-0.19861238
26	0xbf0c73ae	-0.54864013
27	0x3ee6f7d0	0.4511094
28	0x3f48616d	0.7827366
29	0x3f6ff2df	0.93729967
30	0xbf69d535	-0.91340953
31	0x3e8ab957	0.27094528
