libs/models/mlp_proposal_s.tflite (tflite, 431104 bytes, 16 tensors)

batch_normalization_1/batchnorm/mul f4 [768]
0.007286187 -0.0015961122 0.005911585 0.00058031856 0.001328197 0.0022065407 0.001696445 0.0010125788
0.00094819407 -0.0011664168 0.0021172522 0.002335772 -0.003363151 0.0023290727 -0.0025984203 0.003371455
0.0038002739 0.0044078534 0.0007962657 0.00076788606 -0.0013595173 -0.0013949902 -9.073518e-05 -0.0011840112
0.0005701101 -0.00030354917 -0.0008659247 0.00023809956 -0.0004910301 0.0015744535 -0.0014681884 -0.00145121
-0.0015699829 -0.0015809699 0.0009671691 -0.00046530904 0.00045428044 0.00036033173 0.00031727547 -0.0004983851
-0.00013917012 -6.0781902e-05 -0.00027001198 5.5147662e-05 1.7802757e-05 -5.7467078e-05 0.00052604754 0.00015254063
0.0003039613 0.00017383641 4.414228e-05 0.00032353713 7.874111e-05 0.0009349404 -0.00035472508 1.2146762e-05
-0.0012155268 -0.0013042437 0.001090718 -0.00070054934 -0.00138518 0.00063906494 0.0007211589 -0.0010515491
-0.00016295884 0.0004358769 0.00096800545 0.0013880846 0.00066930306 0.0006662824 0.00082358054 -0.00039034794
0.00020285763 -0.00037532908 7.672473e-05 -1.23718955e-05 7.8392564e-05 -6.415816e-05 0.00012264457 -0.00028950354
0.00026167242 -0.00028824847 7.627868e-05 -7.164599e-05 0.0003843418 7.627596e-05 0.0001442211 -2.0614669e-05
0.00035989503 0.00021483134 0.00013329266 0.0004930201 -0.00014180315 8.3416e-06 -8.229132e-05 3.8640672e-05
-2.3588558e-05 -2.000694e-05 -0.00016550829 6.437898e-05 0.00012940246 -4.116054e-05 -9.906329e-05 2.4887078e-05
-5.2117746e-05 -8.181491e-05 0.00022161928 -0.0006237325 -0.00032190877 0.00031330474 -0.0001834351 5.6668978e-05
3.6985455e-06 -0.00030989255 0.00026929707 -0.0002892659 0.00038205134 0.00019874364 -0.000119136464 -5.69641e-05
-0.00015535983 1.0080923e-05 0.00023965299 0.00019127312 -0.00023134518 -0.0001971143 3.9991002e-05 2.5850539e-05
0.00019034558 0.00016462419 -0.00028725492 0.0001018897 -0.00015560423 -0.00026504468 -0.00036618154 0.00037043824
0.00014971176 0.00019344164 -0.00025994392 -8.9368776e-05 -0.00039417506 0.00027540192 -0.00030771244 0.00042475972
0.00015501941 0.00026965418 0.0007401322 -0.0005219754 -9.686827e-05 -0.00029152283 -0.00035709367 -0.00029140434
0.00010690868 -1.3134305e-05 7.642777e-05 1.7374714e-05 -0.000101257014 0.0001776651 -0.0003130287 1.7193111e-05
0.000319399 -0.0006930543 0.0006802623 -6.801947e-05 -0.00014393646 -0.00018073541 -0.00017208658 -1.7003957e-05
0.00028080193 2.3511484e-05 -0.00013339194 0.00027450823 -0.00017327628 -0.00031317538 -0.0003023162 -0.00027641663
1.6892245e-05 -1.9352983e-05 1.7364951e-05 -3.435656e-05 7.3777795e-05 4.3771222e-05 -2.2477807e-05 6.500936e-05
1.3462732e-05 -5.653466e-07 -6.659381e-05 -0.00022890813 0.00025624342 -0.0002210145 0.00022956023 0.00023549411
0.0002175946 0.00018115269 0.00018729006 0.00013429533 1.3458336e-05 0.00022893728 0.0003846735 0.0006238504
-0.00013786044 -8.38436e-05 7.724061e-05 0.00033047277 0.0002974799 0.00023010914 9.744711e-05 -0.00040561473
-0.00030526996 0.00027913583 -0.00022351074 -0.00023409435 -0.00021212298 4.933838e-05 -0.0001544268 0.00014889581
5.948582e-05 -0.00050827174 -0.00027237294 -0.00015197459 9.6706084e-05 -0.00014881477 1.8714654e-05 4.5868437e-05
-0.00016619184 -0.0004687286 -3.2299555e-05 -0.00013022385 0.00013864125 -0.00012453347 -0.00046187406 6.34759e-05
-0.0001140253 8.1136175e-05 -0.00014533801 -9.055331e-05 -2.6850243e-05 -2.9740709e-06 -0.00014555884 1.3714769e-05
8.453744e-05 2.283062e-05 1.6756723e-05 0.0001360155 3.15797e-05 1.8887152e-06 -4.4338405e-05 0.00056684593
4.6088004e-05 -2.5637682e-06 0.00011651437 6.369618e-05 0.00017459437 0.0002015762 3.000322e-05 1.4124089e-05
00000000: f7c0 ee3b a334 d1ba f8b5 c13b 8520 183a
00000010: e516 ae3a 9c9b 103b 405b de3a 82b8 843a
00000020: 3a90 783a 74e2 98ba 99c1 0a3b c013 193b
00000030: 5068 5cbb 5ba3 183b 424a 2abb a1f3 5c3b
00000040: 040e 793b c16f 903b 7dbc 503a f64b 493a
00000050: d531 b2ba 1bd8 b6ba 1449 beb8 d330 9bba
00000060: 7173 153a ae25 9fb9 39ff 62ba 5daa 7939
00000070: 79b8 00ba e55d ce3a 3a70 c0ba 8736 beba
00000080: e2c7 cdba 8c38 cfba 9f89 7d3a b9f4 f3b9
00000090: 7d2c ee39 e8ea bc39 fe57 a639 0fa6 02ba
000000a0: 32ee 11b9 12f0 7eb8 6590 8db9 5a4e 6738
000000b0: 2157 9537 ce08 71b8 74e6 093a 50f3 1f39
000000c0: ff5c 9f39 db47 3639 6a25 3938 6ba0 a939
000000d0: d021 a538 ca16 753a 65fa b9b9 f2c9 4b37
000000e0: 5052 9fba 28f3 aaba 6cf6 8e3a 12a5 37ba
000000f0: ee8e b5ba ec86 273a 280c 3d3a 22d4 89ba
00000100: eedf 2ab9 6886 e439 bfc1 7d3a 64f0 b53a
00000110: 2b74 2f3a 74a9 2e3a 8ee5 573a 9da7 ccb9
00000120: 2eb6 5439 d1c7 c4b9 47e7 a038 e390 4fb7
00000130: b066 a438 a68c 86b8 279a 0039 82c8 97b9
00000140: 1431 8939 0e20 97b9 cef7 9f38 a640 96b8
00000150: 7c81 c939 58f6 9f38 0f3a 1739 aaed acb7
00000160: 4bb0 bc39 5944 6139 7ac4 0b39 053e 013a
00000170: feb0 14b9 e6f2 0b37 d193 acb8 1b12 2238
00000180: 0be0 c5b7 94d4 a7b7 4b8c 2db9 3403 8738
00000190: 35b0 0739 cba3 2cb8 33c0 cfb8 98c4 d037
000001a0: 0199 5ab8 0c94 abb8 7962 6839 fb81 23ba
000001b0: ddc5 a8b9 0d43 a439 7c58 40b9 daaf 6d38
000001c0: 8734 7836 1379 a2b9 7130 8d39 9da8 97b9
000001d0: 104e c839 d765 5039 e7d8 f9b8 bdec 6eb8
000001e0: 16e8 22b9 3c21 2937 5c4b 7b39 7d90 4839
000001f0: 4095 72b9 78b0 4eb9 03bc 2738 9cd9 d837
00000200: 8197 4739 f89e 2c39 b49a 96b9 9ead d538
00000210: b129 23b9 b2f5 8ab9 0efc bfb9 6137 c239
00000220: f2fb 1c39 98d6 4a39 1549 88b9 7f6b bbb8
00000230: 48a9 ceb9 d263 9039 7754 a1b9 49b2 de39
00000240: b58c 2239 5f60 8d39 6e05 423a 2dd5 08ba
00000250: c225 cbb8 88d7 98b9 4d38 bbb9 a1c7 98b9
00000260: 2934 e038 695b 5cb7 d947 a038 eabf 9137
00000270: f259 d4b8 9d4b 3a39 001e a4b9 ed39 9037
00000280: 0275 a739 16ae 35ba a153 323a ada5 8eb8
00000290: a6ed 16b9 cb83 3db9 2472 34b9 b8a3 8eb7
000002a0: 9938 9339 873a c537 20df 0bb9 dfeb 8f39
000002b0: 7fb1 35b9 b031 a4b9 3280 9eb9 03ec 90b9
000002c0: d2b3 8d37 3758 a2b7 f3aa 9137 131a 10b8
000002d0: 27b9 9a38 fe96 3738 b98e bcb7 a255 8838
000002e0: fedd 6137 53c2 17b5 48a8 8bb8 0f07 70b9
000002f0: 6958 8639 21c0 67b9 1bb6 7039 f8ee 7639
00000300: 1b2a 6439 cef3 3d39 4b63 4439 a1d1 0c39
00000310: 1dcb 6137 e20e 7039 01ae c939 e489 233a
00000320: a18e 10b9 31d5 afb8 3dfc a138 4e43 ad39
00000330: 14f7 9b39 7449 7139 855c cc38 b0a8 d4b9
00000340: a40c a0b9 fa58 9239 355e 6ab9 3977 75b9
00000350: 546d 5eb9 aff0 4e38 a1ed 21b9 ea20 1c39
00000360: 6a80 7938 8a3d 05ba 47cd 8eb9 5e5b 1fb9
00000370: afce ca38 290b 1cb9 6afd 9c37 dc62 4038
00000380: c843 2eb9 b0bf f5b9 6279 07b8 b38c 08b9
00000390: 3a60 1139 3395 02b9 b027 f2b9 5d1e 8538
000003a0: de20 efb8 a727 aa38 e065 18b9 70e7 bdb8
000003b0: 753c e1b7 2696 47b6 27a1 18b9 7c18 6637
000003c0: b149 b138 6284 bf37 ca90 8c37 629f 0e39
000003d0: 7274 0438 c37f fd35 00f8 39b8 6398 143a
000003e0: 9e4e 4138 340d 2cb6 2d59 f438 a094 8538
000003f0: 5213 3739 335e 5339 6daf fb37 80f6 6c37

batch_normalization_1/batchnorm/sub f4 [768]
0.028261878 -0.026637064 0.057054162 0.02258362 0.041926116 0.03286108 0.034912266 0.019400047
0.00670659 -0.006668646 0.008898845 0.0038574152 -0.012451805 0.0034135524 0.006871121 -0.015660375
-0.021796316 -0.028627597 0.009450191 0.0039990563 0.0013445765 0.010942294 -0.025214316 0.011462711
0.018598845 -0.020900091 -0.0063559134 0.015484922 -0.012206824 -0.035507713 0.037219595 0.028038882
0.028364332 0.04092211 -0.018484758 -0.011743294 0.005535338 0.0072390465 0.0152207175 0.007952879
-0.018743217 0.009293212 0.0141359735 0.018665701 -0.008534325 0.00429151 -0.020217385 0.0032896134
-0.006825961 0.007093472 -0.0133272745 -0.003640498 0.010358999 -0.0468672 0.029648732 0.011802436
0.101243466 0.102485575 -0.09195058 0.060513273 0.097635254 -0.04587448 -0.059287645 0.08149684
0.017772809 -0.004794129 -0.03742722 -0.07647644 -0.031155806 -0.050454192 -0.053767897 0.035411015
-0.02483514 0.05047472 0.004321252 0.018632654 -0.016384266 0.02375307 -0.02114479 0.03459038
-0.039098803 0.046729777 -0.041214097 -0.030196156 0.014786964 -0.047143623 -0.05521213 -0.033691637
-0.08048108 -0.0592647 -0.049443398 -0.0892227 0.016471494 -0.026452469 0.014673239 -0.017417137
-0.0026722574 0.009910397 0.035713404 -0.03363428 -0.030308072 0.025747763 0.011038214 -0.018797461
0.023242868 0.022805627 -0.071612306 0.0948583 0.063487746 -0.057881363 0.045522623 -0.026694424
-0.02061249 0.04599703 -0.028963502 0.030252412 -0.02385825 -0.009833631 0.008767502 0.0042799395
0.0071248156 -0.010999177 -0.03615343 -0.03421656 0.046691667 0.03662587 -0.009848228 -0.0036740894
-0.016550178 -0.03233114 0.047741592 -0.021769952 0.037479777 0.05214337 0.05020258 -0.057638407
-0.00024529826 -0.015405998 0.032067597 0.0051786136 0.03880375 -0.03269949 0.03337862 -0.03505192
-0.0022715488 0.0009108186 -0.03452394 0.021480996 -0.012817806 0.018916372 0.012053043 0.0033705533
0.009762384 0.0050708517 -0.026548794 -0.009585836 0.017008701 -0.036447227 0.037008785 -0.00030955474
-0.039398298 0.0825475 -0.06948931 -0.0026096664 -0.0077552553 0.019097408 0.02752833 -0.030838681
-0.064140156 -0.026115285 0.053322945 -0.08806932 0.071950875 0.073855296 0.054995567 0.067808926
-0.005816155 -0.002420981 -0.00022279099 0.0016624122 -0.0033097102 0.0047740787 0.018043222 0.038169436
0.0054457164 0.01107042 0.02825183 0.05544821 -0.04754124 0.042806275 -0.0021810299 -0.006454725
-0.010498793 -0.04163064 -0.018782157 -0.0056791045 0.0081549985 -0.061961904 -0.07524638 -0.09306481
0.016349532 -0.0045403284 0.018115634 0.0038501006 -0.0012389589 -0.018259952 -0.0068212235 0.018661022
0.029241055 -0.06135991 0.03457263 0.008590056 0.024860106 -0.006058089 0.0048857043 -0.0033102054
4.340941e-05 0.028304141 0.008110671 -0.0062374603 -0.009685928 0.0034107445 0.022830848 -0.008088581
0.03410524 0.04114916 0.022494778 0.046744533 -0.04125116 0.03675108 0.09559097 -0.010449938
0.013787242 -0.010750645 0.014464029 0.010180116 -0.010036025 -0.008981173 0.005450487 0.0054000756
0.012231026 0.0072015887 0.014214138 0.017999126 0.012130981 0.003526012 -0.022168752 0.046645164
0.019308025 0.015901161 0.003805276 -0.012204419 0.00015298743 0.006191427 0.013803262 0.006546358
00000000: 7485 e73c f935 dabc a0b1 693d 4901 b93c
00000010: b8ba 2b3d 5799 063d 2a00 0f3d d9ec 9e3c
00000020: f4c2 db3b a884 dabb 76cc 113c b0cc 7c3b
00000030: a802 4cbc e8b5 5f3b 2427 e13b 304a 80bc
00000040: 308e b2bc 6c84 eabc f9d4 1a3c 840a 833b
00000050: 803c b03a 4f47 333c 418e cebc 18ce 3b3c
00000060: 9b5c 983c ab36 abbc 4445 d0bb 78b4 7d3c
00000070: 21ff 47bc 8970 11bd 9373 183d ccb1 e53c
00000080: 515c e83c f19d 273d 596d 97bc f266 40bc
00000090: c861 b53b 8635 ed3b 5160 793c cb4c 023c
000000a0: 608b 99bc 8e42 183c 929a 673c d0e8 983c
000000b0: 8ed3 0bbc cc9f 8c3b ee9e a5bc 8e96 573b
000000c0: 50ac dfbb 5b70 e83b a45a 5abc 6c95 6ebb
000000d0: cab8 293c d2f7 3fbd e6e1 f23c 015f 413c
000000e0: bc58 cf3d f5e3 d13d 9650 bcbd c4dc 773d
000000f0: fef4 c73d e1e6 3bbd 9ad7 72bd d1e7 a63d
00000100: 4898 913c 1218 9dbb 494d 19bd ae9f 9cbd
00000110: 763a ffbc 0ea9 4ebd ba3b 5cbd 240b 113d
00000120: 1073 cbbc 94be 4e3d 4a99 8d3b 82a3 983c
00000130: 4c38 86bc cc95 c23c d737 adbc a4ae 0d3d
00000140: 1126 20bd b967 3f3d 1dd0 28bd ee5d f7bc
00000150: 0645 723c ac19 41bd 1d26 62bd 3e00 0abd
00000160: 44d3 a4bd 8bbf 72bd 2985 4abd 64ba b6bd
00000170: 3aef 863c d9b2 d8bc 0668 703c 62ae 8ebc
00000180: 0a21 2fbb 385f 223c 3848 123d 19c4 09bd
00000190: a248 f8bc f9ec d23c a0d9 343c 22fd 99bc
000001a0: d467 be3c ded2 ba3c 79a9 92bd 1245 c23d
000001b0: dd05 823d 0215 6dbd ee75 3a3d 44ae dabc
000001c0: 86db a8bc 6267 3c3d de44 edbc e8d3 f73c
000001d0: 6072 c3bc 3d1d 21bc 92a5 0f3c bc3e 8c3b
000001e0: 4977 e93b e435 34bc 9e15 14bd aa26 0cbd
000001f0: c33f 3f3d 0205 163d 765a 21bc fec8 70bb
00000200: 3d94 87bc a86d 04bd b08c 433d e656 b2bc
00000210: 6584 193d 4994 553d 38a1 4d3d 4016 6cbd
00000220: 609b 80b9 7069 7cbc 5059 033d 5cb1 a93b
00000230: aef0 1e3d e7ef 05bd 05b8 083d 9a92 0fbd
00000240: 44de 14bb 00c4 6e3a fa68 0dbd eaf8 af3c
00000250: c601 52bc 82f6 9a3c 207a 453c 80e4 5c3b
00000260: 68f2 1f3c 6329 a63b db7c d9bc e90d 1dbc
00000270: d555 8b3c b049 15bd 8696 173d bc4b a2b9
00000280: 1c60 21bd aa0e a93d 6950 8ebd f006 2bbb
00000290: cc1f febb 2b72 9c3c 1883 e13c 67a1 fcbc
000002a0: ea5b 83bd b9ef d5bc 2969 5a3d b05d b4bd
000002b0: fb5a 933d 7241 973d 0843 613d 68df 8a3d
000002c0: 7295 bebb 52a9 1ebb 009d 69b9 4ce5 d93a
000002d0: b9e7 58bb e06f 9c3b 61cf 933c 8e57 1c3d
000002e0: fb71 b23b b560 353c 6270 e73c aa1d 633d
000002f0: 9aba 42bd a255 2f3d 9cef 0ebb 2882 d3bb
00000300: 2103 2cbc e484 2abd 0add 99bc c817 babb
00000310: 8b9c 053c c4cb 7dbd c61a 9abd c398 bebd
00000320: 74ef 853c 09c7 94bb 3d67 943c f851 7c3b
00000330: 9064 a2ba e595 95bc 9284 dfbb 00df 983c
00000340: f08a ef3c 8754 7bbd 089c 0d3d 4ebd 0c3c
00000350: 6ca7 cb3c ef82 c6bb 4218 a03b 08f0 58bb
00000360: 8012 3638 16de e73c 9fe2 043c 9c63 ccbb
00000370: bab1 1ebc cc86 5f3b c207 bb3c f885 04bc
00000380: f0b1 0b3d 068c 283d f846 b83c 3277 3f3d
00000390: faf6 28bd 4d88 163d 33c5 c33d 3736 2bbc
000003a0: e2e3 613c 7923 30bc 89fa 6c3c 80ca 263c
000003b0: 246e 24bc c525 13bc 009a b23b 1ef3 b03b
000003c0: a464 483c 4efb eb3b 6ae2 683c e772 933c
000003d0: 06c1 463c aa14 673b 3e9b b5bc 000f 3f3d
000003e0: dd2b 9e3c 2743 823c f061 793b 0bf5 47bc
000003f0: 406b 2039 74e1 ca3b 1427 623c d582 d63b

batch_normalization_2/batchnorm/mul f4 [768]
0.00037639335 0.12394405 1.6086927e-08 -0.00020058741 -6.38184e-05 0.12638639 0.011393732 -2.8072535e-07
1.02712875e-05 0.054255 0.01148089 5.563512e-11 0.0028625508 1.3532244e-07 -1.3842422e-06 -6.808574e-09
-3.751204e-08 0.0010087182 0.0005508117 0.0010118103 0.0009546762 0.00060931814 -4.722691e-08 -0.0010854901
-4.225221e-06 0.029869007 1.7403863e-05 0.0077321553 -3.6475562e-06 2.2577055e-06 -0.0010529547 -4.051214e-06
0.0028520867 0.0031774251 3.7205e-06 1.5368838e-05 -8.568675e-05 1.707401e-06 -7.527437e-06 8.94678e-06
-5.9485297e-05 -3.701041e-05 -3.3226073e-07 0.0029618035 -2.021435e-06 -3.1151155e-06 2.4079953e-05 -5.7432976e-06
-2.1023239e-07 1.4708168e-06 -5.876985e-07 3.7512297e-07 0.05137228 2.546118e-07 -9.246015e-05 4.5988716e-05
-0.00014946121 -0.000387579 0.04138766 -2.8229147e-07 -1.14469046e-07 -6.726575e-06 2.5066984e-05 3.177657e-05
-0.0009120778 0.083645485 0.17702587 0.0055220956 -5.3377724e-05 0.20957907 2.9066657e-06 0.1382669
-6.3115198e-09 -1.6441265e-05 0.005366226 0.27263585 -2.245634e-05 1.6703085e-05 0.0006078253 -4.7086272e-05
0.0023444495 -0.0003852899 0.05940044 0.0031328967 0.14937244 -3.510424e-07 0.0086919 -0.0025411984
-9.041235e-06 0.12730017 -0.0011641319 0.008984108 0.1605276 1.3097466e-05 0.0913209 0.000987052
0.00023519089 -0.002790226 3.994909e-05 6.5530156e-07 -0.00031796872 0.0006960083 0.15804769 -0.00050423853
0.2375563 -0.0067983237 -3.619153e-06 0.09620553 -5.134193e-05 0.14307506 0.00540722 0.01312943
0.26813716 9.579801e-05 0.2248731 -0.0028494047 3.0217037e-05 -0.0029021357 -0.0032504534 0.28680474
-0.00070237496 0.004399195 -0.00027725843 0.22804569 0.36256608 0.0035846422 -0.005963417 6.3996968e-06
-0.0025376817 0.60406 0.3238672 -0.0012721987 0.0010632017 0.0016101225 -3.0184423e-05 0.42997953
-1.4220836e-05 -0.0007261958 0.03242406 0.00010854312 0.00038868844 0.34292665 4.587111e-05 1.4867053e-06
1.8398576e-05 -2.6833627e-06 1.0919966e-06 5.145396e-06 -8.857903e-06 -0.0016951334 -4.7469165e-08 0.002971371
-5.0509065e-08 1.0720603e-05 -6.643433e-06 -8.397344e-06 4.684676e-06 -7.3012825e-07 2.0231157e-06 -8.160381e-06
0.0069933515 3.679549e-09 2.2489982e-07 -2.8894743e-05 2.8778395e-05 -0.00086577353 -0.00025296022 -0.00016089437
0.0009326862 0.3919669 3.9490136e-05 0.3032882 5.502155e-05 7.045559e-06 -0.0003007468 -1.2139161e-06
0.025117602 2.0026717e-05 -4.1049843e-06 0.29556155 0.17032424 0.04721929 0.0042667417 0.47401783
-0.00019873588 0.62974 0.6153715 7.1312945e-07 4.4482135e-06 0.00520296 0.0034399119 0.047916394
0.49684674 0.15079233 0.013904633 0.00083767856 -0.00012380227 0.57707757 -5.2251344e-05 2.9769255e-05
-1.8651957e-05 0.0046925363 -0.002044993 0.42530665 -0.000948263 -1.7080173e-07 -0.0015752739 -2.3298415e-05
0.41396436 0.004056532 -0.00092325 0.0010740038 3.4612207e-05 -0.000762709 -0.0030358052 0.4953468
3.3654298e-05 0.0015292949 -0.0014398639 0.0027235625 -0.0028365694 -1.34314e-07 -0.0030260433 0.0031948239
-0.0004992262 0.0005863968 -7.24952e-06 -0.0027039624 -6.243866e-05 0.52307254 0.30109298 0.03564354
0.00044716574 -4.6542347e-05 0.0001847892 0.2671265 0.1761491 -0.0010976697 0.001874804 -0.00012205927
1.0281088e-05 0.30960757 0.002673214 0.00053712795 0.00013194836 0.0063750446 -0.00012686357 -7.675798e-05
-0.0004702049 1.993896e-05 1.5176897e-06 0.00015002229 0.12057695 -9.4353505e-05 0.12114187 31.622774
00000000: a956 c539 61d6 fd3d 872f 8a32 c654 52b9
00000010: 3ed6 85b8 6f6b 013e c7ac 3a3c 99b6 96b4
00000020: d852 2c37 7e3a 5e3d 581a 3c3c 94af 742e
00000030: a299 3b3b 264d 1134 33ca b9b5 daf0 e9b1
00000040: ed1c 21b3 f736 843a 5964 103a b89e 843a
00000050: 3c43 7a3a a6ba 1f3a 89d6 4ab3 0147 8eba
00000060: 5fc6 8db6 d9af f43c 83fe 9137 055e fd3b
00000070: 8ac8 74b6 1683 1736 4c03 8aba aaef 87b6
00000080: 13ea 3a3b 593c 503b b4ad 7936 54ec 8037
00000090: b9b2 b3b8 da29 e535 3194 fcb6 211a 1637
000000a0: da7f 79b8 a03b 1bb8 9161 b2b4 d11a 423b
000000b0: fda7 07b6 470d 51b6 4eff c937 8db6 c0b6
000000c0: 3dbc 61b4 e168 c535 55c2 1db5 8264 c934
000000d0: bd6b 523d 94b1 8834 2ae7 c1b8 02e4 4038
000000e0: b0b8 1cb9 f933 cbb9 1b86 293d d88d 97b4
000000f0: 06d2 f5b3 d7b4 e1b6 f046 d237 d547 0538
00000100: 8118 6fba 534e ab3d 4546 353e b2f2 b43b
00000110: e5e1 5fb8 e59b 563e 2310 4336 d795 0d3e
00000120: b7dc d8b1 59eb 89b7 2bd7 af3b ed96 8b3e
00000130: 9f60 bcb7 9a1d 8c37 7756 1f3a 807e 45b8
00000140: 56a5 193b bc00 cab9 e04d 733d 4951 4d3b
00000150: 17f5 183e e676 bcb4 7968 0e3c 3c8a 26bb
00000160: cfaf 17b7 fa5a 023e c995 98ba 1532 133c
00000170: 5961 243e 30bd 5b37 7406 bb3d f85f 813a
00000180: 939d 7639 39dc 36bb 028f 2738 fbe7 2f35
00000190: 0ab5 a6b9 5474 363a 41d7 213e e02e 04ba
000001a0: f541 733e 79c4 debb 93e0 72b6 6807 c53d
000001b0: fa57 57b8 4582 123e 0d2f b13b d21c 573c
000001c0: 4649 893e 2ae7 c838 2245 663e 14bd 3abb
000001d0: 987a fd37 c231 3ebb 8f05 55bb 12d8 923e
000001e0: 961f 38ba 1f27 903b ff5c 91b9 cf84 693e
000001f0: 43a2 b93e 51ec 6a3b c468 c3bb fabc d636
00000200: 3c4f 26bb ada3 1a3f ecd1 a53e e8bf a6ba
00000210: 215b 8b3a bf0a d33a 8e34 fdb7 4726 dc3e
00000220: 0796 6eb7 2d5e 3eba 17cf 043d a5a1 e338
00000230: e1c8 cb39 1594 af3e bb65 4038 ce8a c735
00000240: a456 9a37 d213 34b6 b890 9235 9da6 ac36
00000250: 679c 14b7 3d2f deba e6e0 4bb3 55bb 423b
00000260: 4eef 58b3 a4dc 3337 a8ea deb6 51e2 0cb7
00000270: 0f31 9d36 08fe 43b5 ddc4 0736 92e8 08b7
00000280: 7c28 e53b 50db 7c31 fe7b 7134 fd62 f2b7
00000290: 2269 f137 14f5 62ba bf9f 84b9 c1b5 28b9
000002a0: 837f 743a e3af c83e 36a2 2538 9748 9b3e
000002b0: f1c6 6638 e468 ec36 8dad 9db9 d7ed a2b5
000002c0: 6ec3 cd3c 0cff a737 8cbd 89b6 d853 973e
000002d0: 7a69 2e3e 0469 413d 06d0 8b3b 77b2 f23e
000002e0: c263 50b9 a436 213f fd88 1d3f e26d 3f35
000002f0: dd41 9536 987d aa3b 2570 613b fb43 443d
00000300: b262 fe3e 4e69 1a3e 42d0 633c a897 5b3a
00000310: ebd0 01b9 5bbb 133f 7428 5bb8 fdb8 f937
00000320: c676 9cb7 d9c3 993b 4a05 06bb cbc1 d93e
00000330: da94 78ba 9f65 37b4 6c79 ceba f770 c3b7
00000340: 23f3 d33e a8ec 843b 4206 72ba 96c5 8c3a
00000350: 932c 1138 89f0 47ba 5cf4 46bb 199e fd3e
00000360: 0728 0d38 9f72 c83a d1b9 bcba cc7d 323b
00000370: bde5 39bb f437 10b4 9550 46bb 4060 513b
00000380: 81de 02ba 6cb8 193a e740 f3b6 f634 31bb
00000390: 80f1 82b8 15e8 053f dc28 9a3e f6fe 113d
000003a0: 9271 ea39 7736 43b8 f9c3 4139 cec4 883e
000003b0: 6e60 343e afdf 8fba fcbb f53a 12fa ffb8
000003c0: f07c 2c37 e284 9e3e 1731 2f3b 0cce 0c3a
000003d0: 9e5b 0a39 c0e5 d03b ae06 05b9 20f9 a0b8
000003e0: d585 f6b9 9742 a737 6cb3 cb35 4d4f 1d39
000003f0: 0cf1 f63d a7df c5b8 3b19 f83d 71fb fc41

batch_normalization_2/batchnorm/sub f4 [768]
-0.03621526 -0.5240978 1.0186102e-07 0.007162587 0.0004972953 -1.513797 -0.20219438 0.00021124697
0.0019170138 -1.1067826 -1.4293483 -9.461e-08 -1.3764887 -0.00036385658 0.00036867385 1.1368302e-06
4.7460075e-05 -0.7551413 -0.7752824 -1.2787457 -1.4866151 -1.0461754 1.6551869e-05 0.6808255
8.8592875e-05 -2.8294773 0.0004113284 -0.46806693 0.0018449521 0.0006235497 0.039123088 -0.00044254423
0.119092524 0.21067506 0.0011336373 0.00395441 -0.0035249256 -0.00030829944 -0.001337305 -0.0003058851
-0.0036375802 -0.00038402982 -0.00011251871 0.058909133 0.00027392636 -0.00033847353 0.0026185003 -0.0011590036
0.00043203615 0.00010700812 0.0004227293 1.9972285e-05 0.59283966 -0.00039536876 -0.002702991 0.0036771414
-0.0065714414 -0.009763533 0.5973131 -0.00020498972 4.4219276e-05 -4.4723613e-05 0.0006420454 6.1828265e-05
-0.0016480566 0.85307795 0.031176835 0.005628405 -0.0015729886 0.04275185 0.0008194246 0.26204044
-1.652868e-08 -0.00013439829 0.002600545 0.05322945 -0.0006256155 0.0016800725 0.0016907497 -0.00086693116
0.005554461 -0.003260895 0.4102762 0.002488249 0.01659301 7.691588e-05 0.004013909 -0.0064720823
-0.00480102 0.39249504 -0.0014994105 8.844491e-05 0.4796791 0.0029158792 0.3187122 0.0007342143
0.0012220931 -0.0043630768 0.00049218873 0.00016781196 -0.0048329104 -0.00032274306 0.12210202 -0.0058603585
-0.010224223 -0.00014558807 -0.00044577842 0.9256239 -0.00067274214 0.1597099 -0.0031479616 -0.00033668522
-0.14773393 0.004965024 0.019381702 0.00029872125 0.0051217536 -0.0012736768 -0.00084239803 0.067026615
-0.0015556687 0.0014130743 -0.0022777119 -0.20673954 0.026702762 0.0007997239 0.0038835248 0.00038011215
-0.001112483 0.19054413 0.073311925 -0.0010140697 2.8933166e-05 0.0012211236 -0.000110186316 -0.2324419
-0.0034914385 -0.0039710244 -0.021933645 0.0022252365 0.002308168 -0.93555474 0.00533517 0.0002479946
0.00024684452 -0.0002204883 -1.2006305e-05 -5.2032497e-05 -0.0005535876 0.0153726265 -9.733952e-06 0.12218773
-1.0566007e-05 -0.0022829995 -0.0031635892 0.008362088 0.0011309279 0.00078379095 -0.0020137366 0.0009845073
0.31491137 3.8795813e-05 0.00014743803 0.0004389045 0.0008251475 -0.0023350427 -0.0024386025 0.0009862133
-0.003636519 -0.039769888 0.00676079 -0.12995636 0.0017536809 3.459245e-06 -0.0044083744 -2.0481568e-05
0.940661 0.001823019 -0.0032739975 -0.17235065 -0.052627802 0.18992499 -0.0015606005 -0.05048591
-0.0017584427 -0.09484553 -0.5542624 9.474984e-05 0.00018931484 -0.009585901 -0.009117875 0.44068253
-0.6292846 -0.004364133 0.0016604383 0.0048826057 -0.00038302707 -0.3139553 -0.008692335 4.1664345e-05
-0.0008759365 0.0034636948 0.0015196577 -0.25873804 -0.009662018 -9.1707545e-05 -0.0038155848 -0.00032186677
-0.34364247 0.0043627527 -0.0012023936 0.0004752787 0.0011852036 -6.996846e-05 -0.00031578448 -0.25475872
0.00024500984 0.0014298004 -0.0006135609 0.008074381 -0.0031399634 -2.5510715e-05 -0.0059236847 0.0006758291
-0.0012033889 0.0033150692 -0.0005079324 -0.0018334556 -0.00023523977 -0.30012512 -0.2416358 -0.12584147
0.00069338665 -0.006698836 3.0447292e-05 -0.39500976 -0.073598325 -0.0015653542 0.00067040185 -0.0042793523
0.000197491 -0.03287828 0.001464271 0.0012047056 0.012755839 0.003361294 -0.00023285171 -0.0013810116
-0.0018767468 0.0036645913 2.7296657e-05 0.004010747 -0.39799404 0.00031271437 -0.039852887 -1.2746912e-15
00000000: 7456 14bd 462b 06bf b0be da33 22b4 ea3b
00000010: ec5c 023a 1ac4 c1bf 0b0c 4fbe 2d82 5d39
00000020: 4f44 fb3a 0dab 8dbf e3f4 b6bf 662c cbb3
00000030: c830 b0bf 01c4 beb9 914a c139 3095 9835
00000040: de0f 4738 f150 41bf e878 46bf f0ad a3bf
00000050: 6749 bebf 13e9 85bf ded8 8a37 944a 2e3f
00000060: f0ca b938 2816 35c0 90a7 d739 78a6 efbe
00000070: 52d2 f13a b675 233a 883f 203d 4805 e8b9
00000080: c8e6 f33d 34bb 573e 8e96 943a ff93 813b
00000090: 7002 67bb 40a3 a1b9 8248 afba 345f a0b9
000000a0: 7864 6ebb 9c57 c9b9 06f8 ebb8 b44a 713d
000000b0: c69d 8f39 2675 b1b9 259b 2b3b b5e9 97ba
000000c0: e982 e239 8c69 e038 c4a1 dd39 288a a737
000000d0: 57c4 173f 7f49 cfb9 aa24 31bb 32fc 703b
000000e0: 3f55 d7bb 3af7 1fbc 83e9 183f 82f2 56b9
000000f0: 1678 3938 9d95 3bb8 f04e 283a cca9 8138
00000100: 9a03 d8ba 5163 5a3f 9066 ff3c 7c6e b83b
00000110: bd2c ceba 901c 2f3d a7ce 563a 2a2a 863e
00000120: f4fa 8db2 44ed 0cb9 e86d 2a3b 2007 5a3d
00000130: 5800 24ba e135 dc3a 259c dd3a c442 63ba
00000140: 3202 b63b bdb4 55bb b90f d23e e411 233b
00000150: 10ee 873c e64d a138 1c87 833b c313 d4bb
00000160: e051 9dbb 1cf5 c83e de87 c4ba 807b b938
00000170: 8098 f53e 5618 3f3b 3f2e a33e 4a78 403a
00000180: a42e a03a 24f8 8ebb 3a06 013a aef6 2f39
00000190: 645d 9ebb d735 a9b9 a010 fa3d 4008 c0bb
000001a0: 8083 27bc 00a9 18b9 5eb7 e9b9 b0f5 6c3f
000001b0: f65a 30ba fe8a 233e 084e 4ebb 2085 b0b9
000001c0: 9047 17be a4b1 a23b 60c6 9e3c b09d 9c39
000001d0: 62d4 a73b 80f1 a6ba 60d4 5cba 4045 893d
000001e0: 94e7 cbba e836 b93a aa45 15bb 88b3 53be
000001f0: c0bf da3c 90a4 513a bc82 7e3b ca49 c739
00000200: bcd0 91ba 001e 433e 9024 963d 88ea 84ba
00000210: 80b5 f237 1c0e a03a d413 e7b8 4005 6ebe
00000220: 9ed0 64bb 5e1f 82bb 30ae b3bc 46d5 113b
00000230: a244 173b 8480 6fbf a6d2 ae3b 4605 8239
00000240: e96a 8139 e132 67b9 b06e 49b7 783d 5ab8
00000250: a31e 11ba 78dd 7b3c 014f 23b7 903d fa3d
00000260: a844 31b7 609e 15bb 3854 4fbb 2401 093c
00000270: a53b 943a 5277 4d3a e5f8 03bb 950a 813a
00000280: 103c a13e b0b8 2238 9899 1a39 c41c e639
00000290: b64e 583a 8407 19bb f6d0 1fbb d443 813a
000002a0: aa52 6ebb c0e5 22bd 9e89 dd3b 4813 05be
000002b0: c4db e53a 6025 6836 2074 90bb d5cf abb7
000002c0: 29cf 703f 5ef2 ee3a 9090 56bb b07c 30be
000002d0: 4090 57bd b27b 423e 108d ccba 50ca 4ebd
000002e0: 8c7b e6ba 603e c2bd 24e4 0dbf 6fb4 c638
000002f0: d182 4639 2f0e 1dbc 2463 15bc 24a1 e13e
00000300: cc18 21bf 0001 8fbb 10a3 d93a 44fe 9f3b
00000310: 06d1 c8b9 c0be a0be 4c6a 0ebc c0c0 2e38
00000320: 1a9f 65ba 28ff 623b 402f c73a 5079 84be
00000330: 714d 1ebc 1d53 c0b8 e40e 7abb 3ac0 a8b9
00000340: e8f1 afbe 6cf5 8e3b a299 9dba d42e f939
00000350: d558 9b3a 08bc 92b8 e08f a5b9 bc6f 82be
00000360: aa74 8039 2468 bb3a 60d7 20ba 694a 043c
00000370: d8c7 4dbb d8ff d5b7 781b c2bb 202a 313a
00000380: 08bb 9dba a241 593b c426 05ba 9050 f0ba
00000390: b2aa 76b9 00aa 99be 606f 77be 96dc 00be
000003a0: 64c4 353a e981 dbbb 1069 ff37 b83e cabe
000003b0: b8ba 96bd 922c cdba e8bd 2f3a cf39 8cbb
000003c0: 9615 4f39 60ab 06bd c8ec bf3a 36e7 9d3a
000003d0: defd 503c 2849 5c3b a829 74b9 0f03 b5ba
000003e0: 2cfd f5ba a429 703b 20fb e437 966c 833b
000003f0: e0c5 cbbe d0f3 a339 c83c 23bd ceb3 b7a6

dense_1/MatMul_bias f4 [64]
-0.008379565 0.00083529245 -0.01179617 -0.00025116958 -0.013091708 -0.0032501868 0.008915664 0.0098101515
9.29763e-05 -0.012067556 0.00017197774 6.745804e-05 -0.0011689024 0.007239579 -0.00025359806 0.0023116595
-1.2164918e-05 0.0025005366 -0.0004463066 0.0008683336 0.008278915 0.012305269 -0.0010624664 0.011669483
-0.0041986536 -0.00023850011 0.0028846755 -0.012948217 0.01589786 0.000614388 0.01324368 0.003929588
-0.01450244 -0.012103768 -5.0535218e-05 -0.0041158427 0.00033904437 -0.00014438781 0.00028560736 -0.000107250075
0.011961274 -2.419333e-05 -0.008611103 0.011563612 -0.0008058398 -0.015072611 -0.00046091265 -0.011772981
-0.010950635 -0.00023349094 -5.9407274e-05 -0.0072489246 0.010445123 -0.0007532499 0.00035497244 0.008400958
-0.0030042238 -0.0111977 -0.012048596 0.010794558 4.2179578e-05 0.014717517 -0.0024783425 -0.012438894
00000000: 714a 09bc 87f7 5a3a b944 41bc 69af 83b9
00000010: 9a7e 56bc 1601 55bb 0113 123c c2ba 203c
00000020: 45fc c238 00b7 45bc ec54 3439 4278 8d38
00000030: db35 99ba fe39 ed3b 5bf5 84b9 367f 173b
00000040: ed17 4cb7 0be0 233b 42fe e9b9 e2a0 633a
00000050: 49a4 073c 0a9c 493c 7542 8bba 5c31 3f3c
00000060: dc94 89bb e315 7ab9 d30c 3d3b c224 54bc
00000070: 3b3c 823c e10e 213a 05fc 583c c6c3 803b
00000080: a49b 6dbc e24e 46bc c7f5 53b8 31de 86bb
00000090: c4c1 b139 cf66 17b9 92bd 9539 72eb e0b8
000000a0: 38f9 433c c8f2 cab7 9515 0dbc 4e75 3d3c
000000b0: fe3e 53ba 1df3 76bc a6a6 f1b9 76e3 40bc
000000c0: 4b6a 33bc 3fd5 74b9 132c 79b8 6388 edbb
000000d0: 0522 2b3c bf75 45ba 981b ba39 2ca4 093c
000000e0: 83e2 44bb 8f76 37bc 7967 45bc a8db 303c
000000f0: fae9 3038 be21 713c b06b 22bb 81cc 4bbc

dense_1/kernel/transpose f4 [64, 768]
6.511488e-05 -3.7018483e-05 2.4432287e-05 0.00011279556 1.5541918e-05 1.18975495e-05 2.2616305e-06 2.2835837e-05
1.7484547e-07 2.1187916e-06 2.584458e-05 2.5932062e-05 -7.209007e-05 6.162616e-05 -6.544654e-05 -8.657134e-06
-3.934103e-06 1.8606612e-05 6.7214714e-05 3.9906412e-05 -8.0667975e-05 -8.289376e-05 -0.00015554522 -0.000103691054
0.00011583789 -8.670491e-05 -0.0001419246 0.00012529008 -0.0001418432 -4.8876856e-05 3.0518106e-05 -1.852245e-05
-3.937298e-05 1.9997366e-05 0.0001348764 -0.00010185393 9.803459e-05 0.00013043311 8.707885e-05 -0.00011729003
-6.2837775e-05 3.7493766e-05 -9.745051e-05 6.337427e-05 -4.870227e-05 -6.4591604e-06 0.0001563567 7.3557196e-05
6.356401e-05 8.056659e-05 -1.9737814e-05 0.00014009404 1.3218141e-05 0.00026047815 -2.4262306e-05 9.253997e-05
-0.00020205064 -0.00020114455 0.00022217247 -0.00011691892 -0.00023089959 0.00018396914 0.00024032277 -0.00022493182
-0.00013319244 0.00028126827 0.00039822757 0.0003554441 0.0003001908 0.00027829525 0.00029373742 -0.00013475823
9.435182e-05 -4.9552713e-05 3.5606034e-05 1.9023486e-05 2.4064517e-05 6.549803e-06 3.329968e-05 -0.00012797552
0.000115186056 -0.00014586994 -8.2547886e-05 -0.00014949813 0.00020308375 -0.00013475494 -0.00013878838 -0.00014423995
-0.00024924745 -0.00019138947 -0.00015424466 -0.0003043499 0.0001123305 -4.7206977e-05 0.00010037162 -0.000114130715
-6.908471e-06 8.23429e-05 0.00020712486 -0.00016885198 -0.00032645167 0.00010216044 0.00023411353 -0.00011055909
6.964396e-05 7.7768505e-05 -4.8677735e-05 -6.497797e-05 -4.3455802e-06 -7.09134e-05 0.00015490255 -0.0001590868
-4.4280492e-05 -0.00013799022 0.00015665659 1.0761825e-05 0.00026763143 0.0002982411 -0.00026499032 -5.1831354e-05
-3.774891e-05 -3.5551355e-05 -0.00032707752 -0.00031745032 0.00029507247 -0.00026947723 9.5581156e-05 0.00013822236
0.00032410296 0.00039348236 -0.0004825266 0.0002703594 -0.00039901832 -0.00064038043 -0.00078860193 0.0007124755
0.0004240907 0.00045808373 -0.0005032358 -0.00032558173 -0.0001396909 0.00018355384 -0.00070384133 0.00044942554
0.0002573327 0.0002089176 0.00044589772 -0.00052900286 -0.00020317965 -0.000723171 -0.00048635565 -0.00018873192
0.00014120794 8.487287e-05 -0.000115856725 -0.000113277594 8.489429e-05 -0.00028217112 0.00023836007 -6.422115e-06
-0.00013276408 1.3908228e-05 5.1131792e-05 -3.0592742e-05 -7.501889e-05 0.000102870414 0.0001463041 -3.44848e-05
-0.00016326024 -8.5407686e-05 0.00043934956 -0.00044387334 0.00048629128 0.00016586407 0.00017520293 -1.1149072e-05
-5.21158e-05 4.087273e-06 -1.3706972e-05 -1.318843e-05 -1.4455254e-06 -1.446746e-06 9.468774e-05 1.579632e-05
8.192348e-05 7.8287834e-05 3.1023763e-05 6.3139334e-05 0.00020741209 -0.000122022335 0.00013871484 0.0001622526
7.222427e-05 -0.00010030806 1.716632e-05 5.3403346e-06 1.8757282e-05 -0.0002631307 -0.0002462144 -0.00033747387
4.0950104e-05 -7.0725087e-06 9.197673e-06 7.285995e-05 6.9987596e-05 -9.238634e-06 0.0001317107 -8.016508e-06
8.165749e-05 -0.0001986587 0.00012540794 2.0769028e-05 1.9334397e-05 -5.355664e-05 -3.7893362e-05 0.00037564145
0.0004354136 0.00019472584 6.417071e-05 3.921013e-05 -5.3931184e-05 -3.72706e-05 0.00014733315 -9.352683e-05
0.0001388431 0.0004976173 6.079974e-05 0.0001449135 -0.00016731297 7.9750556e-05 0.000278607 -0.0001122433
8.1437116e-05 -6.434461e-05 0.00011596141 0.0001686631 3.218151e-05 -5.8031466e-05 2.5638412e-05 5.8842244e-05
6.981226e-05 7.206282e-05 0.00011526703 5.8084166e-05 0.00012451908 3.0436639e-05 -0.00017566273 1.1209813e-06
4.492731e-05 9.8199365e-05 -5.0894916e-05 -3.1709584e-05 -1.8258002e-05 1.6818356e-05 9.243755e-05 5.2353513e-05
00000000: 498e 8838 4b44 1bb8 f0f3 cc37 a88c ec38
00000010: 0460 8237 969b 4737 84c6 1736 968f bf37
00000020: 28bd 3b34 9030 0e36 d0cc d837 ae88 d937
00000030: 102f 97b8 4b3d 8138 5840 89b8 1b3e 11b7
00000040: b001 84b6 6515 9c37 a0f5 8c38 2f61 2738
00000050: 4a2c a9b8 40d7 adb8 da19 23b9 b674 d9b8
00000060: feed f238 58d5 b5b8 98d1 14b9 4d60 0339
00000070: bebb 14b9 2001 4db8 9100 0038 a960 9bb7
00000080: 6a24 25b8 04c0 a737 9c6d 0d39 6a9a d5b8
00000090: eb97 cd38 dfc4 0839 1a9e b638 9bf9 f5b8
000000a0: c6c7 83b8 a042 1d38 585e ccb8 cde7 8438
000000b0: aa45 4cb8 c4bb d8b6 aff3 2339 b842 9a38
000000c0: ab4d 8538 dcf5 a838 a292 a5b7 35e6 1239
000000d0: 7cc3 5d37 c990 8839 e886 cbb7 0512 c238
000000e0: 8edd 53b9 54ea 52b9 f8f6 6839 5e32 f5b8
000000f0: a31d 72b9 d7e7 4039 27ff 7b39 addb 6bb9
00000100: 93a9 0bb9 3077 9339 33c9 d039 e65a ba39
00000110: ed62 9d39 28e8 9139 c500 9a39 e34d 0db9
00000120: bfde c538 d2d6 4fb8 b057 1538 a094 9f37
00000130: 28de c937 61c6 db36 42ab 0b38 2b31 06b9
00000140: 0b90 f138 aaf4 18b9 8f1d adb8 99c2 1cb9
00000150: e1f2 5439 014d 0db9 b987 11b9 1e3f 17b9
00000160: 6dad 82b9 b8af 48b9 bcbc 21b9 2791 9fb9
00000170: fa92 eb38 1b00 46b8 9a7e d238 7659 efb8
00000180: 50cf e7b6 82af ac38 a82f 5939 dc0d 31b9
00000190: 9a27 abb9 f83e d638 5f7c 7539 f6db e7b8
000001a0: d10d 9238 a617 a338 522b 4cb8 c844 88b8
000001b0: 40d0 91b6 57b7 94b8 566d 2239 8ad0 26b9
000001c0: d1b9 39b8 78b1 10b9 2f44 2439 b08d 3437
000001d0: e250 8c39 3e5d 9c39 66ee 8ab9 7e65 59b8
000001e0: 9554 1eb8 fa1c 15b8 9a7b abb9 766f a6b9
000001f0: f5b3 9a39 9f48 8db9 be72 c838 c8ef 1039
00000200: 5dec a939 4f4c ce39 a0fb fcb9 06bf 8d39
00000210: 5533 d1b9 34df 27ba 2eba 4eba 6cc5 3a3a
00000220: 7d58 de39 f52a f039 95eb 03ba d7b2 aab9
00000230: fe79 12b9 5c78 4039 fe81 38ba e0a0 eb39
00000240: 9cea 8639 e410 5b39 61c7 e939 c8ac 0aba
00000250: 9f0c 55b9 2f93 3dba 8dfd feb9 57e6 45b9
00000260: 3811 1439 c6fd b138 1bf8 f2b8 728f edb8
00000270: 4609 b238 5ef0 93b9 4bf0 7939 8c7d d7b6
00000280: 9636 0bb9 6257 6937 5876 5638 b550 00b8
00000290: 7653 9db8 22bc d738 3569 1939 c6a3 10b8
000002a0: d630 2bb9 e71c b3b8 8058 e639 acb7 e8b9
000002b0: e9f4 fe39 cceb 2d39 aeb6 3739 e60c 3bb7
000002c0: ea96 5ab8 6825 8936 fff6 65b7 e043 5db7
000002d0: e003 c2b5 d02d c2b5 1893 c638 5782 8437
000002e0: 55ce ab38 762e a438 831f 0238 ac69 8438
000002f0: c27c 5939 3ee6 ffb8 fb73 1139 5a22 2a39
00000300: 1c77 9738 7b5c d2b8 6400 9037 2031 b336
00000310: f558 9d37 cef4 89b9 5616 81b9 faee b0b9
00000320: d7c1 2b38 6350 edb6 b44f 1a37 63cc 9838
00000330: 4ec6 9238 a2ff 1ab7 d21b 0a39 a47e 06b7
00000340: 883f ab38 0a4f 50b9 f07f 0339 2639 ae37
00000350: 4d30 a237 01a2 60b8 b0ef 1eb8 bef1 c439
00000360: 3948 e439 522f 4c39 6393 8638 8e75 2438
00000370: 2b34 62b8 0153 1cb8 717d 1a39 d623 c4b8
00000380: 6996 1139 8872 023a 3903 7f38 ecf3 1739
00000390: bc70 2fb9 c13f a738 0012 9239 2a64 ebb8
000003a0: 38c9 aa38 c0f0 86b8 4f30 f338 28db 3039
000003b0: a2fa 0638 d066 73b8 1212 d737 61cd 7638
000003c0: 2c68 9238 6f20 9738 84bb f138 669f 7338
000003d0: 5691 0239 2f52 ff37 1b32 38b9 a074 9635
000003e0: 5570 3c38 62f0 cd38 0078 55b8 e8ff 04b8
000003f0: c328 99b7 2515 8d37 08db c138 2896 5b38

dense_2/MatMul_bias f4 [32]
-0.0011667534 2.6682205e-11 0.00017896581 -4.3818486e-07 -5.610736e-11 -0.0008831156 3.842517e-06 1.8566578e-07
0.0015865484 -7.942208e-05 0.0008115702 0.0017703068 2.0290445e-06 2.268493e-08 -0.0043381974 2.563165e-08
1.68553e-07 -0.00042721131 -0.0029604847 -2.605734e-07 0.0036938563 -0.0006508173 1.1541286e-10 0.00018981584
7.429463e-12 -1.2550277e-07 2.5437757e-06 0.022895524 3.96411e-08 -0.0011435605 0.0021612172 0.0010087178
00000000: bfed 98ba fcb2 ea2d c5a8 3b39 ab3f ebb4
00000010: 45c3 76ae e280 67ba f8ee 8036 6c5b 4734
00000020: bbf3 cf3a 688f a6b8 8ebf 543a a409 e83a
00000030: b82a 0836 b0dc c232 7027 8ebb 982c dc32
00000040: 7ffb 3434 55fb dfb9 b104 42bb efe4 8bb4
00000050: a014 723b 9c9b 2aba aacb fd2e 4d09 4739
00000060: 54b3 022d f0c1 06b4 bcb5 2a36 658f bb3c
00000070: da41 2a33 86e3 95ba 35a3 0d3b f436 843a

dense_2/kernel/transpose f4 [32, 64]
0.0011265368 -0.00010091173 0.0015467834 3.3318564e-05 0.0014104672 0.0004385423 -0.001228428 -0.0013760596
-1.1765119e-05 0.0016498918 -2.2046419e-05 -7.5240287e-06 0.00014782387 -0.0010073202 3.104626e-05 -0.0002962043
1.4070627e-06 -0.0003081376 5.5361717e-05 -0.00010657488 -0.0006644695 -0.0016786142 0.00015754021 -0.0015867833
0.00063418073 3.956531e-05 -0.00038583146 0.0016730367 -0.0018975945 -7.406017e-05 -0.0017522519 -0.0005179294
0.0020105205 0.0016218993 5.715863e-06 0.0007005945 -4.2526903e-05 1.693656e-05 -3.7481484e-05 1.2103929e-05
-0.0016463652 2.7865522e-06 0.0011728838 -0.0014213067 0.00010702138 0.0017281785 6.499651e-05 0.0015693321
0.0014569355 3.3129872e-05 6.8045833e-06 0.0010316569 -0.0013608914 9.2625014e-05 -4.828965e-05 -0.0006103362
0.0004066024 0.001572052 0.0013708279 -0.0014066097 -5.503364e-06 -0.0019004626 0.00031548095 0.0016984668
-5.809015e-11 1.0412634e-12 -3.1259856e-11 -1.5700606e-12 -2.3765618e-11 -1.6147339e-11 4.36893e-11 2.90133e-11
1.13533084e-13 -3.150874e-11 2.0303733e-13 9.7372414e-14 -1.5217315e-12 4.8356798e-11 -3.1826625e-13 1.8644036e-11
-1.6988882e-14 2.736541e-12 -5.6552864e-13 1.0979995e-12 6.556544e-11 8.4773036e-11 -2.077783e-12 3.1838115e-11
-3.3606097e-11 -1.4333916e-12 3.4059942e-12 -8.308022e-11 3.1787215e-11 1.3477187e-12 2.6426424e-11 2.3349501e-11
6.1562797e-11 -5.303395e-11 -8.308653e-14 -2.5123311e-11 4.567211e-13 -2.7532165e-13 3.4644504e-13 -1.9649819e-13
4.0972843e-11 -3.316616e-14 -7.1048584e-12 1.8717075e-11 -1.1292799e-12 -2.7590347e-11 -5.696459e-13 -2.4975393e-11
-7.957553e-11 -4.0616428e-13 -8.2128064e-14 -3.1604323e-11 2.2183089e-11 -1.0386083e-12 6.132065e-13 6.851374e-11
-1.5137157e-11 -5.0580554e-11 -2.2363122e-11 2.2174072e-11 5.7396125e-14 1.1270811e-10 -7.049117e-12 4.2802515e-11
-0.00086172903 3.6129368e-05 -0.0013135846 7.70187e-06 -0.0009317368 -6.501199e-06 0.0008484626 0.0011046082
3.873538e-06 -0.0012184663 -3.295372e-08 6.3427487e-06 3.860645e-05 0.00050973776 -1.1362114e-05 0.000103409046
-1.4295641e-06 8.7231805e-05 -1.3576495e-05 2.9026829e-05 0.00018203836 0.0013861139 -5.594641e-05 0.0013099501
-0.00037759577 -9.086171e-06 4.606774e-05 -0.0007348999 0.001247747 2.8248563e-05 0.001070455 0.0001263256
-0.001214885 -0.0009834043 -1.98755e-06 -0.00024707563 1.404926e-05 -1.316059e-05 -2.679899e-06 -1.0313782e-05
0.0010243452 -2.4818441e-06 -0.00101117 0.001333025 -1.2861947e-05 -0.0012165402 -1.2740966e-06 -0.001041833
-0.0013220713 -8.311016e-06 -5.6660515e-06 -0.0005993755 0.0010688627 -1.5464404e-05 3.5342146e-06 0.00017543082
6.821714e-05 -0.0012072842 -0.0005199122 0.001083012 -1.8267503e-06 0.0010695619 -0.000112808266 -0.0012261355
-4.2361725e-07 1.068573e-07 -2.9114049e-06 -4.5986944e-08 -1.1239082e-06 -9.127687e-07 1.4370308e-06 2.242303e-06
2.3248598e-08 -2.5176464e-06 4.3770225e-08 9.7623145e-09 -2.6374408e-07 1.1590915e-06 -3.935645e-08 2.762105e-07
-1.8947137e-09 8.0590496e-08 -9.958058e-08 1.817435e-07 6.516287e-07 1.8291564e-06 -1.6823513e-07 2.302176e-06
-1.7394942e-07 -6.4412994e-08 6.609152e-07 -1.3324787e-06 1.3164977e-06 9.404408e-08 2.7917608e-06 4.868222e-07
-1.3064316e-07 -2.0563232e-06 -7.237637e-09 -6.2679663e-07 6.41317e-08 -2.3101983e-08 7.520723e-08 -1.4132799e-08
1.9453119e-06 -3.890447e-09 -2.4475216e-07 1.8810931e-06 -2.096412e-07 -1.6114238e-06 -1.3010752e-07 -2.6257471e-06
-6.841481e-07 -6.3747514e-08 -9.306707e-09 -1.1039269e-06 2.3503806e-06 -4.588791e-08 9.229335e-08 2.6172459e-06
-5.894701e-07 -1.7107758e-06 -2.5002896e-06 2.4361668e-06 1.0643979e-08 1.4218344e-06 -4.878549e-07 -4.796295e-07
00000000: 4da8 933a 93a0 d3b8 70bd ca3a 89bf 0b38
00000010: 6ddf b83a 27ec e539 3403 a1ba e65c b4ba
00000020: cd62 45b7 2f41 d83a 53f0 b8b7 ea76 fcb6
00000030: 2b01 1b39 0f08 84ba ab37 0238 de4b 9bb9
00000040: 4eda bc35 878d a1b9 3134 6838 f480 dfb8
00000050: cb2f 2eba f204 dcba 6131 2539 9dfb cfba
00000060: 263f 263a eef2 2538 6c49 cab9 cc49 db3a
00000070: b5b8 f8ba c050 9bb8 d1ab e5ba a7c5 07ba
00000080: f0c2 033b e995 d43a e4ca bf36 1aa8 373a
00000090: ea5e 32b8 fc12 8e37 7035 1db8 fb11 4b37
000000a0: d9ca d7ba 9a00 3b36 73bb 993a 244b baba
000000b0: aa70 e038 0c84 e23a bc4e 8838 0cb2 cd3a
000000c0: a5f6 be3a eef4 0a38 ed52 e436 a938 873a
000000d0: f05f b2ba ad3f c238 9e8a 4ab8 f8fe 1fba
000000e0: 402d d539 500d ce3a 5aad b33a fd5d b8ba
000000f0: 89a9 b8b6 f118 f9ba 2367 a539 179f de3a
00000100: b27b 7fae 788b 922b 787b 09ae 65f7 dcab
00000110: 6a0b d1ad 9308 8ead c725 402e 2534 ff2d
00000120: 5ea7 ff29 b093 0aae 8799 642a 6043 db29
00000130: 282a d6ab eaac 542e 002b b3aa a3fe a32d
00000140: b205 99a8 2491 402c a22e 1fab 9a87 9a2b
00000150: 102e 902e fa6a ba2e 0336 12ac 8806 0c2e
00000160: 1acd 13ae 60bb c9ab f0ac 6f2c 02b2 b6ae
00000170: 39cd 0b2e afac bd2b 0473 e82d 6762 cd2d
00000180: c660 872e eb3e 69ae 2018 bba9 abfc dcad
00000190: 398e 002b 08fe 9aaa fe07 c32a bf3c 5daa
000001a0: 5233 342e fb5d 15a9 e0fa f9ac 1ba3 a42d
000001b0: 99ee 9eab f0af f2ad 5057 20ab 96af dbad
000001c0: 0afd aeae 71a6 e4aa 9bef b8a9 4eff 0aae
000001d0: e01f c32d cf2b 92ab 2f9a 2c2b cfa9 962e
000001e0: d925 85ad a474 5eae 46b5 c4ad 920b c32d
000001f0: 9d3e 8129 06d9 f72e cd04 f8ac 593f 3c2e
00000200: a8e5 61ba 9d89 1738 962c acba 4837 0137
00000210: cc3f 74ba e024 dab6 5c6b 5e3a 80c8 903a
00000220: 70f9 8136 f2b4 9fba 0089 0db3 ccd3 d436
00000230: 5ced 2138 ec9f 053a e89f 3eb7 4fdd d838
00000240: 73df bfb5 38f0 b638 9ac6 63b7 a47e f337
00000250: 8de1 3e39 44ae b53a 00a8 6ab8 a2b2 ab3a
00000260: 0cf8 c5b9 cf70 18b7 dc38 4138 4ca6 40ba
00000270: 718b a33a 54f7 ec37 824e 8c3a 4576 0439
00000280: c73c 9fba 93e5 80ba d961 05b6 ee89 81b9
00000290: 1db5 6b37 4ecc 5cb7 50d8 33b6 5b09 2db7
000002a0: 5243 863a c28d 26b6 3c89 84ba e6b8 ae3a
000002b0: a4c9 57b7 5174 9fba a001 abb5 1d8e 88ba
000002c0: 5a49 adba 8b6f 0bb7 031f beb6 691f 1dba
000002d0: 1519 8c3a 8eb9 81b7 582d 6d36 daf3 3739
000002e0: cc0f 8f38 bc3d 9eba b84a 08ba daf3 8d3a
000002f0: aa2e f5b5 8b30 8c3a 7a93 ecb8 48b6 a0ba
00000300: 836d e3b4 6c79 e533 8e61 43b6 2e83 45b3
00000310: 31d9 96b5 fd04 75b5 01e0 c035 797a 1636
00000320: 35b4 c732 d6f4 28b6 dffd 3b33 1db7 2732
00000330: b698 8db4 1592 9b35 e008 29b3 154a 9434
00000340: 2834 02b1 1811 ad33 01d9 d5b3 4625 4334
00000350: 95eb 2e35 5681 f535 1fa4 34b4 157f 1a36
00000360: dac6 3ab4 6b53 8ab3 bf69 3135 9fd7 b2b5
00000370: 84b2 b035 48f5 c933 165a 3b36 2bae 0235
00000380: eb46 0cb4 5dff 09b6 eeae f8b1 2341 28b5
00000390: c6b8 8933 cc71 c6b2 9d81 a133 b5cc 72b2
000003a0: 348c 0236 bcac 85b1 7b66 83b4 de79 fc35
000003b0: bc19 61b4 1a48 d8b5 afb3 0bb4 fe35 30b6
000003c0: 4da6 37b5 91e5 88b3 55e3 1fb2 a42a 94b5
000003d0: 3bbb 1d36 4a16 45b3 ce32 c633 f1a3 2f36
000003e0: 143c 1eb5 cf9d e5b5 a6ca 27b6 077d 2336
000003f0: b7dc 3632 dcd5 be35 22f5 02b5 e3bf 00b5

dense_3/MatMul_bias f4 [64]
0.006294015 -0.0041557555 -0.005412337 0.017689344 0.013885106 -0.0022579702 0.0323047 -0.005575616
-0.039203085 0.3203566 -0.027455065 0.0032371224 -0.0106723225 -0.04462981 1.045247 -0.015049854
0.013158727 -0.01242941 -0.03300021 0.007862809 -0.011429151 -0.0077172676 -0.0143492585 0.008535621
-0.019409694 0.008063315 1.544742 0.03269701 -0.028122697 0.0057714726 -0.032886125 -0.015366716
-0.003409309 0.0080951685 0.011720692 0.006947416 0.008719856 -0.04402241 0.0055043646 -0.01866706
0.027146058 0.010112112 0.005103737 0.024015605 0.024192967 -0.015891919 0.030407228 -0.032001093
-0.0052585225 1.0507143 -0.0076449965 -0.0035746475 0.0024481148 -0.015436996 -1.3257585 0.021737576
-0.0074067344 0.021629194 0.031393934 -0.022274457 0.01565165 0.016481765 0.055073474 0.022562228
00000000: 063e ce3b 012d 88bb f959 b1bb 3ee9 903c
00000010: 5b7e 633c 74fa 13bb ef51 043d a8b3 b6bb
00000020: 6a93 20bd c805 a43e 72e9 e0bc e725 543b
00000030: f7da 2ebc bfcd 36bd a7ca 853f aa93 76bc
00000040: b497 573c b9a4 4bbc 3a2b 07bd 03d3 003c
00000050: 5541 3bbc 22e1 fcbb 2719 6bbc fdd8 0b3c
00000060: 1401 9fbc ff1b 043c 1bba c53f 4ded 053d
00000070: 9261 e6bc 9f1e bd3b 9ab3 06bd aec4 7bbc
00000080: b76e 5fbb 99a1 043c 2508 403c 26a7 e33b
00000090: badd 0e3c d850 34bd f55d b43b aaeb 98bc
000000a0: 6961 de3c 46ad 253c 403d a73b 60bc c43c
000000b0: 5430 c63c c52f 82bc 9418 f93c 9413 03bd
000000c0: af4f acbb ce7d 863f e182 fabb a244 6abb
000000d0: 8d70 203b 74eb 7cbc 74b2 a9bf 0013 b23c
000000e0: 31b4 f2bb b52f b13c ed96 003d ec78 b6bc
000000f0: e437 803c c404 873c b994 613d 6cd4 b83c
