libs/models/mlp_proposal_s2.tflite (tflite, 218660 bytes, 16 tensors)

batch_normalization_1/batchnorm/mul f4 [768]
0	0x3d81f56f	0.06345641
1	0x3cae3565	0.021265695
2	0x3c841d51	0.01612726
3	0x3c3d4e2c	0.011554282
4	0x3c7b54ff	0.015340089
5	0x3ccae5c5	0.024767766
6	0x3d0fe00d	0.03512578
7	0x3d3bb350	0.045825303
8	0x3d6a7a74	0.057245687
9	0x3d3e1d9f	0.046414968
10	0x3d460f00	0.04835415
11	0x3d39c81f	0.045356866
12	0x3d09c589	0.03363565
13	0x3d10bc87	0.035336044
14	0x3d159bf8	0.036525697
15	0x3d197e2a	0.037473835
16	0x3cb1db97	0.021711154
17	0x3cc8b341	0.024499537
18	0x3d1fb482	0.038990505
19	0x3cefce45	0.029273162
20	0x3d379a13	0.04482467
21	0x3d145557	0.0362142
22	0x3cc27c30	0.023740858
23	0x3c978d0e	0.018499877
24	0x3c74560f	0.014913096
25	0x3c8a91cc	0.016915224
26	0x3c9538bf	0.018215535
27	0x3c76dc57	0.015067182
28	0x3cb3b0b5	0.021934846
29	0x3cce4afe	0.025182243
30	0x3cba0a2c	0.022709928
31	0x3c8b005f	0.01696795
32	0x3c8c9144	0.017159112
33	0x3c93b4fc	0.018030636
34	0x3c5ba6e0	0.013406485
35	0x3c1f8485	0.009736185
36	0x3cb3afd0	0.02193442
37	0x3cda9592	0.026682649
38	0x3ce7b95a	0.028286625
39	0x3cc827a3	0.024432963
40	0x3cabef12	0.020988021
41	0x3cabbec4	0.020964988
42	0x3c9bfbd1	0.019040974
43	0x3cc027aa	0.023456413
44	0x3ca5cc1b	0.020238927
45	0x3c84a139	0.016190158
46	0x3c839b2e	0.016065206
47	0x3c84fa02	0.016232494
48	0x3c92ca17	0.01791863
49	0x3c8c1e99	0.017104434
50	0x3c916f6b	0.017753324
51	0x3c8274cc	0.015924834
52	0x3c6513bb	0.013981755
53	0x3c8f4e0d	0.017493272
54	0x3c93282d	0.017963493
55	0x3c9e6cc5	0.019338975
56	0x3cb7d4c7	0.022440327
57	0x3ca0ba74	0.019620158
58	0x3c7b7f5c	0.015350189
59	0x3c4093c0	0.011753976
60	0x3c6a9912	0.014318721
61	0x3c61c055	0.013778766
62	0x3c8110f0	0.015755147
63	0x3c8a2abe	0.016866084
64	0x3c852b26	0.016255926
65	0x3c8d4a59	0.017247366
66	0x3c96027f	0.018311737
67	0x3cadbbca	0.021207709
68	0x3ca1f2da	0.019769121
69	0x3ca4cb4a	0.020116467
70	0x3c79ec84	0.015254144
71	0x3c93ea9b	0.018056205
72	0x3cb447bf	0.022006867
73	0x3cb25557	0.021769209
74	0x3cbd5405	0.023111353
75	0x3c9ce705	0.019153127
76	0x3ca1f5bd	0.019770497
77	0x3c97c45f	0.018526254
78	0x3c9a2d5e	0.01882046
79	0x3c9070a7	0.017631842
80	0x3c96af9b	0.018394282
81	0x3ca6c5f2	0.02035806
82	0x3cc6686d	0.024219716
83	0x3cc6a88d	0.024250293
84	0x3ccc16c3	0.024913197
85	0x3ccc264a	0.024920601
86	0x3cef192a	0.029186804
87	0x3ce82396	0.028337281
88	0x3cd2a0a9	0.025711374
89	0x3ccd1e86	0.025038969
90	0x3ca70cfd	0.020391935
91	0x3cd874a3	0.026422804
92	0x3cc8b62e	0.024500933
93	0x3cc5c674	0.024142481
94	0x3c53a305	0.012917285
95	0x3cb2b3ab	0.021814188
96	0x3cd7cc3c	0.026342504
97	0x3cc469e9	0.023976283
98	0x3c467ad6	0.012114247
99	0x3caf2a7b	0.021382561
100	0x3c409475	0.011754145
101	0x3cbe863b	0.023257365
102	0x3c0c45e7	0.008561588
103	0x3b8b8b7d	0.0042585717
104	0x3c4d8bc2	0.012545528
105	0x3c07eded	0.008296472
106	0x3c082a8e	0.008310927
107	0x3c744651	0.014909343
108	0x3afca95f	0.0019276551
109	0x3b78a420	0.0037939623
110	0x3be42add	0.0069631175
111	0x3c412706	0.011789089
112	0x3b82c2f0	0.0039905235
113	0x3b68e654	0.0035537677
114	0x3bc7e48c	0.006100243
115	0x3b4af0d6	0.0030966303
116	0x3bc6efe4	0.0060710777
117	0x3bc22e2a	0.0059259133
118	0x3b37dece	0.0028056386
119	0x3c4742ed	0.012161952
120	0x3bc0d463	0.0058846935
121	0x3b4d8d2a	0.0031364658
122	0x3b623943	0.0034518994
123	0x3b4daf71	0.0031385089
124	0x3b2092eb	0.0024501632
125	0x3b85e9cb	0.004086708
126	0x3b985036	0.0046482338
127	0x3b9a9986	0.0047180085
128	0x3b10e5b3	0.0022109568
129	0x3b9a7cf7	0.004714604
130	0x3b1638e1	0.0022922086
131	0x3b363fea	0.0027809092
132	0x3b4e96a0	0.0031522885
133	0x3b618e6e	0.003441717
134	0x3b8f2ff5	0.0043697306
135	0x3b214908	0.002461018
136	0x3ad8a159	0.0016527578
137	0x3b65e49b	0.0035078886
138	0x3ba50620	0.0050361305
139	0x3af01b55	0.0018318692
140	0x3b816aec	0.0039495137
141	0x3b12b4a1	0.0022385495
142	0x3b59ee62	0.003325366
143	0x3b67ba86	0.003535898
144	0x3bf7a9a3	0.007558064
145	0x3b2f7973	0.002677527
146	0x3ab8d2b2	0.0014100878
147	0x3b27218c	0.0025502173
148	0x3b6b73c0	0.0035927147
149	0x3b0a1870	0.0021071695
150	0x3b829a16	0.0039856536
151	0x3b2da8f1	0.0026498402
152	0x3b89f631	0.0042102565
153	0x3b96f306	0.0046066074
154	0x3b5db67f	0.00338307
155	0x3b833e17	0.0040052044
156	0x3b31cc6f	0.0027129909
157	0x3b890fb6	0.004182781
158	0x3bab1161	0.0052205776
159	0x3b2974ae	0.00258569
160	0x3ba5ee85	0.005063834
161	0x3b2a88a6	0.002602139
162	0x3b42d316	0.0029727868
163	0x3b1bf012	0.0023794216
164	0x3b9435b8	0.0045230053
165	0x3ab39e33	0.0013703763
166	0x3adbbb78	0.0016764244
167	0x3ad2c78a	0.0016081196
168	0x3b050f7c	0.002030342
169	0x3b4e0ed9	0.0031441955
170	0x3b69538b	0.0035602774
171	0x3b03137e	0.0020000632
172	0x3aa1915e	0.0012326648
173	0x3b0d6897	0.0021577233
174	0x3b223b0f	0.002475444
175	0x3b0b0183	0.0021210618
176	0x3ae93e10	0.0017794985
177	0x3b90ebef	0.0044226567
178	0x3b22c36a	0.0024835714
179	0x3affe6d7	0.0019523752
180	0x3b1f7c22	0.0024335464
181	0x3b369db7	0.0027865001
182	0x3b7e28f8	0.0038781743
183	0x3aca60f3	0.001544027
184	0x3b1b1872	0.0023665694
185	0x3ac75399	0.0015207409
186	0x3b5a3e60	0.0033301339
187	0x3b8da340	0.0043224394
188	0x3b6f6154	0.0036526518
189	0x3b359502	0.0027707224
190	0x3b1d5e5e	0.0024012546
191	0x3b525b0f	0.0032097732
192	0x3b895ac2	0.0041917274
193	0x3b6cafce	0.003611553
194	0x3b106ce1	0.0022037553
195	0x3b26e331	0.0025465006
196	0x3ac0ba12	0.0014703891
197	0x3abfdede	0.0014638563
198	0x3aefda33	0.0018299281
199	0x3ae44295	0.0017414863
200	0x3b567c68	0.003272796
201	0x3b2a5c10	0.0025994815
202	0x3b048e61	0.0020226466
203	0x3b43f430	0.0029900186
204	0x3b97d97e	0.0046340814
205	0x3bc6cbc0	0.0060667694
206	0x3b928326	0.0044712005
207	0x3ae37797	0.0017354366
208	0x3b51b85c	0.0032000756
209	0x3b34cc0c	0.0027587442
210	0x3b1755fc	0.0023092022
211	0x3b1eef55	0.002425154
212	0x3b26b30f	0.0025436317
213	0x3b0c1cda	0.0021379502
214	0x3b56fcf6	0.0032804585
215	0x3b2d5f7a	0.0026454614
216	0x3a8ca8c0	0.0010731444
217	0x3b07979c	0.0020689731
218	0x3b1276e6	0.00223487
219	0x3ad50be1	0.001625415
220	0x3ab57695	0.0013844544
221	0x3af4302f	0.0018630082
222	0x3b25acda	0.002528003
223	0x3b16618a	0.0022946321
224	0x3afdd4c7	0.0019365781
225	0x3b1224c1	0.002229974
226	0x3b0a0bb7	0.0021064111
227	0x3b046c7c	0.0020206263
228	0x3ac0efb4	0.0014719875
229	0x3a8660c6	0.0010252229
230	0x3a844ed9	0.0010094299
231	0x3ac8b121	0.0015311578
232	0x3aa86746	0.0012848161
233	0x3ac1169d	0.0014731471
234	0x3aa98d37	0.0012935762
235	0x3ac43db4	0.0014972002
236	0x3ac46d7d	0.0014986243
237	0x3adbede7	0.0016779274
238	0x3a5efa55	0.00085059303
239	0x3a87dc1e	0.0010365283
240	0x3a941af5	0.0011299538
241	0x3a3ddda3	0.0007242804
242	0x3a951de8	0.0011376711
243	0x3aa65a0a	0.0012691629
244	0x3ac4d552	0.0015017188
245	0x3ad0dcb7	0.0015934919
246	0x3ab7bd30	0.0014018174
247	0x3aa11e7f	0.0012292414
248	0x3b5baaf2	0.003351864
249	0x3b4c4bc1	0.0031173083
250	0x3b08055f	0.0020755155
251	0x3b608292	0.0034257513
252	0x3b92efcb	0.004484152
253	0x3b8f1242	0.00436619
254	0x3acac9c8	0.0015471512
255	0x3ada6e56	0.0016664963

batch_normalization_1/batchnorm/sub f4 [768]
0	0xbec670c7	-0.38757917
1	0x3dbd5d93	0.092463635
2	0xbd21f15d	-0.039536823
3	0xbb6ad080	-0.0035829842
4	0xbe711496	-0.23543009
5	0xbd5fc6e8	-0.05463305
6	0xbe4ab91b	-0.19797175
7	0xbe8af996	-0.27143544
8	0xbe912198	-0.28345942
9	0xbea3e47a	-0.3201025
10	0xbeac64de	-0.33670706
11	0xbe73a405	-0.23793037
12	0xbe921b1f	-0.28536317
13	0xbe401cb2	-0.18760946
14	0xbe64cdce	-0.22344133
15	0xbdcc4db8	-0.09975761
16	0xbe00d112	-0.12579754
17	0xbeb1d0e0	-0.3472967
18	0xbefcac21	-0.49350074
19	0xbec1fb1b	-0.3788689
20	0xbf357af4	-0.70890737
21	0xbf131591	-0.5745478
22	0xbeee8494	-0.46585524
23	0xbec9675e	-0.39336675
24	0xbea6d876	-0.32587022
25	0xbeb83211	-0.35975698
26	0xbefaf483	-0.49014673
27	0xbed12b6f	-0.4085345
28	0xbf02bff5	-0.51074153
29	0xbf173e47	-0.590794
30	0xbf256d26	-0.6461967
31	0xbeccf016	-0.4002692
32	0xbf0b7502	-0.54475415
33	0xbf07b7ed	-0.53015023
34	0xbedb5496	-0.4283797
35	0xbeab83b6	-0.33498925
36	0xbf3c29a3	-0.7350103
37	0xbf5c1cdf	-0.85981554
38	0xbf6d7687	-0.92758983
39	0xbf3d89ff	-0.7403869
40	0xbf487a62	-0.7831174
41	0xbf5fa47c	-0.8736036
42	0xbf5153d9	-0.81768566
43	0xbf7d35c6	-0.98910177
44	0xbf52facf	-0.82413954
45	0xbf431185	-0.7619861
46	0xbf60b1b2	-0.8777114
47	0xbf69cc80	-0.9132767
48	0xbf77f65b	-0.96860284
49	0xbf70bea9	-0.94040924
50	0xbf8cd213	-1.100161
51	0xbf5b030d	-0.8555153
52	0xbf4e23d7	-0.8052344
53	0xbf826d20	-1.0189552
54	0xbf7e1197	-0.9924559
55	0xbf792390	-0.9731989
56	0xbf8f83b1	-1.1212064
57	0xbf68d011	-0.90942484
58	0xbf4b95ca	-0.79525435
59	0xbf23bdac	-0.6396129
60	0xbf5cfc49	-0.86322457
61	0xbf4cb83e	-0.7996863
62	0xbf6b36f2	-0.91880715
63	0xbf734fba	-0.9504353
64	0xbf66c5d1	-0.90145594
65	0xbf723113	-0.9460613
66	0xbf671150	-0.9026079
67	0xbf906637	-1.1281193
68	0xbf69c909	-0.9132238
69	0xbf7faa1a	-0.9986893
70	0xbf5d60d4	-0.86475873
71	0xbf64a84d	-0.89319307
72	0xbf793b11	-0.97355753
73	0xbf89dff0	-1.0771465
74	0xbf84f540	-1.0387344
75	0xbf5bbc1c	-0.8583391
76	0xbf701684	-0.93784356
77	0xbf58a372	-0.846244
78	0xbf52ad36	-0.8229555
79	0xbf38ec4f	-0.7223558
80	0xbf56a693	-0.8384792
81	0xbf76c4e2	-0.9639417
82	0xbf8939e8	-1.0720797
83	0xbf854816	-1.0412624
84	0xbf8c5a7e	-1.0965116
85	0xbf7cf5c2	-0.98812497
86	0xbf996439	-1.198371
87	0xbf9fa238	-1.247138
88	0xbf94a42c	-1.1612601
89	0xbf92e265	-1.147534
90	0xbf865960	-1.0496025
91	0xbf9c0aae	-1.2190759
92	0xbf915f70	-1.135725
93	0xbf89f2d6	-1.0777233
94	0xbf436654	-0.76328015
95	0xbf844cd4	-1.0335946
96	0xbf93ed30	-1.1556759
97	0xbf8ca09e	-1.0986516
98	0xbf0ebfa6	-0.5576118
99	0xbf6a3a05	-0.9149478
100	0xbf16abbd	-0.588558
101	0xbf80034d	-1.0001007
102	0xbf231928	-0.6371026
103	0xbec77f4e	-0.38964313
104	0xbf588cb0	-0.8458967
105	0xbee58e3e	-0.44835085
106	0xbf00699d	-0.50161153
107	0xbf2526b1	-0.64512163
108	0xbe9d146e	-0.3067965
109	0xbe91f1d5	-0.28504816
110	0xbef9ba56	-0.48774976
111	0xbf102988	-0.5631337
112	0xbec0947c	-0.37613285
113	0xbeb6315e	-0.3558454
114	0xbe562938	-0.20914161
115	0xbe8af91c	-0.2714318
116	0xbecdd2b2	-0.4019981
117	0xbeb8aad9	-0.36067846
118	0xbe7e6cfe	-0.24846265
119	0xbf074aa0	-0.52848244
120	0xbea5ca1e	-0.32380766
121	0xbea9caa3	-0.33162412
122	0xbe0286fe	-0.12746808
123	0xbd766b88	-0.060161144
124	0xbe53a994	-0.20670158
125	0xbdc05618	-0.09391421
126	0xbd9c758c	-0.07639608
127	0xbe0a78ac	-0.13522595
128	0xbbb3c040	-0.0054855645
129	0xbe3dc853	-0.18533449
130	0x3d82a732	0.06379546
131	0xbdb4794f	-0.088122
132	0xbe891061	-0.2677031
133	0xbe7d4b49	-0.2473575
134	0xbe735b62	-0.23765329
135	0xbdb4adb4	-0.08822194
136	0xbdcbc259	-0.09949178
137	0xbc04b800	-0.00810051
138	0xbde8b03c	-0.11361739
139	0x3da8cf9c	0.08242723
140	0xbe3f8003	-0.18701176
141	0xbe396df6	-0.18108353
142	0xbe48c65b	-0.19606917
143	0xbe6f110d	-0.23346348
144	0xbf0f9002	-0.56079113
145	0xbe9ad56d	-0.30240956
146	0xbea1e0de	-0.31616873
147	0xbeb2efac	-0.3494848
148	0xbebf9088	-0.37414956
149	0xbef55af6	-0.4792096
150	0xbed94e4b	-0.42442545
151	0xbeae5637	-0.34050152
152	0xbec72d89	-0.38901928
153	0xbf0789fb	-0.52944916
154	0xbea4325a	-0.32069665
155	0xbf02590e	-0.50917137
156	0xbec05250	-0.375628
157	0xbf135e46	-0.57565725
158	0xbedcb6a0	-0.43108082
159	0xbe8f06fa	-0.2793501
160	0xbecca2ec	-0.3996805
161	0xbec352e4	-0.38149178
162	0xbebd21cf	-0.36939856
163	0xbebac3a2	-0.3647738
164	0xbe8b9e3f	-0.2726917
165	0xbe475208	-0.19464886
166	0xbe94c272	-0.290546
167	0xbe5ef29a	-0.21772233
168	0xbea10ab0	-0.31453466
169	0xbeca947a	-0.39566404
170	0xbeeda740	-0.46416664
171	0xbe9c81f2	-0.3056789
172	0xbeba03be	-0.3633098
173	0xbeb09cbe	-0.34494585
174	0xbeb5d550	-0.35514307
175	0xbea1f822	-0.31634623
176	0xbe8ba8dc	-0.27277267
177	0xbeac0803	-0.33599862
178	0xbea62076	-0.3244664
179	0xbe6d6b4e	-0.23185465
180	0xbe27f1ee	-0.16400883
181	0xbe5ad68b	-0.21370904
182	0xbe5034b2	-0.20332602
183	0xbe29f60c	-0.16597766
184	0xbe8255a4	-0.25455964
185	0xbdc1daaa	-0.09465535
186	0xbe1b4ab0	-0.1516521
187	0xbe3a2562	-0.18178323
188	0xbe2936cf	-0.16524814
189	0xbe119301	-0.14216234
190	0xbe39d2a2	-0.18146756
191	0xbe38bef2	-0.1804159
192	0xbe42b2a8	-0.19013464
193	0xbe0c8991	-0.13724352
194	0xbe31da00	-0.17368317
195	0xbe67b804	-0.2262879
196	0xbdb864c4	-0.090035945
197	0xbe2cbb54	-0.16868335
198	0xbe276419	-0.16346778
199	0xbdd3c7f2	-0.10340871
200	0xbe276d74	-0.16350347
201	0xbe0a08d6	-0.13479933
202	0xbe256e20	-0.1615529
203	0xbdb95b70	-0.090506434
204	0xbe5800e8	-0.21094096
205	0xbe885746	-0.26629084
206	0xbe1b89f0	-0.15189338
207	0xbda4c396	-0.080451176
208	0xbe67b8a9	-0.22629036
209	0xbddb647c	-0.10712525
210	0xbe22cc9a	-0.15898362
211	0xbe0a86bf	-0.13527964
212	0xbdfae721	-0.122511156
213	0xbd1b04b4	-0.037846282
214	0xbddff9e0	-0.10936332
215	0xbcc71e90	-0.024306566
216	0x3cb3cc94	0.021948136
217	0xbd76e7de	-0.06027972
218	0xbacb4f80	-0.0015511364
219	0xbd66520a	-0.056230582
220	0xbce61534	-0.028086282
221	0x3d303db8	0.04302761
222	0xbdb24d24	-0.0870612
223	0xbe160744	-0.14651209
224	0xbe04b464	-0.12959439
225	0x3cb72fb8	0.022361621
226	0xbd65a080	-0.056061268
227	0xbdb27f86	-0.087157294
228	0xbd9375dc	-0.07200214
229	0xbdaa55ff	-0.08317184
230	0xbda1483d	-0.078751065
231	0xbdb803dc	-0.08985111
232	0xbe25313e	-0.16132066
233	0xbe56bd48	-0.20970643
234	0xbe4b0c6c	-0.19828957
235	0xbe48b692	-0.19600895
236	0xbe6d2a11	-0.23160578
237	0xbe9fd776	-0.3121907
238	0xbe5fc3f0	-0.21852088
239	0xbe800d74	-0.25010264
240	0xbeb1dbf4	-0.34738123
241	0xbe8d5ab0	-0.27608252
242	0xbeafc64b	-0.34330973
243	0xbe8970a7	-0.2684376
244	0xbea2d026	-0.3179943
245	0xbe93b4b6	-0.2884881
246	0xbec46eb6	-0.38365716
247	0xbeb406ce	-0.35161442
248	0xbed126c4	-0.40849888
249	0xbe951ece	-0.29125065
250	0xbe8ea88d	-0.2786297
251	0xbeacb253	-0.337298
252	0xbe802732	-0.25029904
253	0xbeaa3146	-0.33240718
254	0xbe9d1996	-0.30683583
255	0xbe668e4c	-0.2251522

batch_normalization_2/batchnorm/mul f4 [768]
0	0x37ceb072	2.4639277e-05
1	0x3f2240a0	0.6337986
2	0x3aae5a7f	0.0013302116
3	0xb8b24f6c	-8.502495e-05
4	0x3a84d646	0.0010134659
5	0x3f07f22a	0.5310389
6	0x365b2416	3.2654548e-06
7	0xb779354d	-1.4853967e-05
8	0x388cf570	6.7214365e-05
9	0x3e8fbe6a	0.28074962
10	0x3a4710fa	0.0007593777
11	0x37ea7f34	2.7954207e-05
12	0x36ce2639	6.143728e-06
13	0xb89da95f	-7.517891e-05
14	0x38bd61dc	9.03045e-05
15	0x38323d79	4.2495758e-05
16	0x35bf5b4a	1.4257178e-06
17	0xb6697964	-3.4790364e-06
18	0xbb256e95	-0.0025242914
19	0xb7a546a4	-1.9702427e-05
20	0x3830873b	4.2087613e-05
21	0x352a4211	6.3426074e-07
22	0x3867ed5b	5.5295746e-05
23	0x3938cf2e	0.00017624788
24	0xb88c091f	-6.677419e-05
25	0xbd094376	-0.0335116
26	0x373465f8	1.07525775e-05
27	0xb72c0166	-1.02523245e-05
28	0xb928070e	-0.00016024357
29	0x363069ac	2.6287553e-06
30	0xb84c79c9	-4.875081e-05
31	0xb8bacadf	-8.906959e-05
32	0xb7bcc148	-2.250135e-05
33	0xb5d32ac6	-1.5733174e-06
34	0x358c21ec	1.0440685e-06
35	0xb6bd5116	-5.6420786e-06
36	0x38bb9b73	8.9458095e-05
37	0x37469aac	1.1837732e-05
38	0xb8d11b8e	-9.971029e-05
39	0x3922626b	0.00015486187
40	0x3712a77a	8.741272e-06
41	0xb9fe522a	-0.00048507872
42	0x32c79f23	2.3239016e-08
43	0x3dc16311	0.094427235
44	0x37d10bc2	2.4920217e-05
45	0x378f3822	1.7073067e-05
46	0xb8551d4d	-5.0810446e-05
47	0x358025a3	9.547697e-07
48	0xb86fa090	-5.7131576e-05
49	0x36faa7bc	7.4701074e-06
50	0xb7a6d4cf	-1.9887839e-05
51	0xb78d12f0	-1.6817328e-05
52	0x3dbdc7fa	0.09266658
53	0xb75c0829	-1.3114922e-05
54	0xb706b83e	-8.02992e-06
55	0x3e815da5	0.25266758
56	0xb8d19486	-9.993561e-05
57	0xbad39d2c	-0.0016144863
58	0x3aa66d93	0.0012697451
59	0x37c778e1	2.3778937e-05
60	0x34714f1b	2.2473652e-07
61	0xb9089920	-0.00013027014
62	0xba991c6f	-0.0011681448
63	0x39e37a2b	0.00043387836
64	0xba2869fe	-0.00064244855
65	0x3ee04f03	0.4381028
66	0xbc2d4bbb	-0.010577138
67	0x3b24765b	0.002509496
68	0x39142d66	0.00014131292
69	0xbb713eeb	-0.0036811184
70	0xb905a712	-0.00012746107
71	0x398961e1	0.00026203602
72	0x38182ee8	3.628331e-05
73	0x393ba54e	0.0001789529
74	0xbb27e911	-0.0025621096
75	0x399234d6	0.00027886656
76	0x3acf1805	0.0015800005
77	0xba374534	-0.0006991208
78	0x3a1e549e	0.00060398306
79	0x379d551b	1.8755489e-05
80	0xba438950	-0.0007459121
81	0x3a8947a9	0.0010473627
82	0xba0ee9a5	-0.0005451686
83	0xb8f96743	-0.00011892479
84	0xbc243c33	-0.010024118
85	0xbad11278	-0.0015950939
86	0x3bce6be8	0.0062994845
87	0xbad476ef	-0.0016209761
88	0x39ad16ac	0.00033014023
89	0xb9711265	-0.00022990404
90	0x3bab2385	0.00522274
91	0xb9fff7d9	-0.0004882205
92	0xb93526f7	-0.0001727602
93	0xb7fd2fd6	-3.0182226e-05
94	0xb900cd1d	-0.00012283442
95	0xb8870f6a	-6.440173e-05
96	0xbb371a10	-0.0027939118
97	0x392a9ca0	0.00016270811
98	0x39728d81	0.00023131633
99	0xba61fe1e	-0.0008620935
100	0x3fb41eed	1.4071938
101	0x3bf1bb1e	0.0073770424
102	0x3ff11f21	1.8837625
103	0xbb29e00a	-0.0025920891
104	0xb991d0d0	-0.00027812133
105	0xbc3a88bf	-0.011385142
106	0xb869eaef	-5.5770328e-05
107	0x3bbf8455	0.0058446326
108	0x3b2249bb	0.0024763185
109	0x403a970f	2.91547
110	0xb9e66618	-0.00043945084
111	0x3a0ef6c9	0.0005453644
112	0x3a9c19e7	0.0011909575
113	0x35cd8827	1.5313316e-06
114	0xbbe6d9bc	-0.007044999
115	0x3bff6f67	0.0077952626
116	0x37aa095d	2.026994e-05
117	0x40016c75	2.0222447
118	0x3ae596c7	0.0017516249
119	0x3b8b876a	0.004258086
120	0xbaa21eba	-0.0012368776
121	0x3b9672ab	0.004591306
122	0x36238731	2.4367585e-06
123	0x3a64b660	0.0008724686
124	0xbafcb3ad	-0.0019279622
125	0xbc0f3561	-0.008740754
126	0xbb959c84	-0.0045657773
127	0x38a1ba92	7.71183e-05
128	0xbb232d3a	-0.0024898783
129	0x40566165	3.3496945
130	0xba463bae	-0.00075619936
131	0xbb09cff6	-0.0021028495
132	0x3b53846f	0.0032274981
133	0x39b2aecd	0.00034081042
134	0x3a266d26	0.0006348662
135	0xb7700ee7	-1.43085845e-05
136	0xb8a0f348	-7.674709e-05
137	0x382f8a20	4.185189e-05
138	0xb72a43ff	-1.0148621e-05
139	0x39397be9	0.00017689135
140	0x38288f8e	4.0188017e-05
141	0xb99efdc8	-0.0003032519
142	0x39059a86	0.00012741433
143	0x392e6ce3	0.00016634497
144	0x38feb85b	0.00012146003
145	0x37fc82df	3.0101683e-05
146	0xb838bc66	-4.404448e-05
147	0xb8eb52f8	-0.00011221127
148	0x373ab821	1.1129335e-05
149	0xb9b32dc1	-0.0003417563
150	0x387c105c	6.0096718e-05
151	0xb90569ee	-0.0001272333
152	0x373d000b	1.1265288e-05
153	0xb774c049	-1.4588303e-05
154	0x383b4876	4.465176e-05
155	0xb69ca42f	-4.668276e-06
156	0xb83145b1	-4.2264994e-05
157	0x34ee8482	4.4427367e-07
158	0x371dfee5	9.4172765e-06
159	0xb748e6e4	-1.1974687e-05
160	0xb5b2c08d	-1.3318073e-06
161	0x3809e58a	3.287712e-05
162	0x38afe2a7	8.3868676e-05
163	0xb8e507de	-0.00010921036
164	0x39c26c20	0.00037083123
165	0x3affaaf0	0.0019505899
166	0x38cbff63	9.727364e-05
167	0x3abb949f	0.001431126
168	0x3ab308df	0.001365926
169	0xbb9c460d	-0.004769093
170	0xb68622df	-3.9975707e-06
171	0x395e532a	0.00021202551
172	0x3a8a9b63	0.0010574873
173	0xbabc1984	-0.0014350866
174	0xbb905207	-0.0044043097
175	0xbaf08186	-0.0018349148
176	0x3e56c4ed	0.20973559
177	0xb956b262	-0.00020475083
178	0xb96e055b	-0.00022699444
179	0x38f9dbb8	0.00011914171
180	0xb91526dc	-0.00014224224
181	0x3b07d42a	0.0020725825
182	0x3a0d32a2	0.0005386268
183	0xbada64d2	-0.0016662127
184	0x38ef9e22	0.000114258626
185	0x39de49e5	0.00042398195
186	0x402807cb	2.6254756
187	0x392fa232	0.00016749723
188	0xb90a7317	-0.0001320358
189	0x39a29b83	0.00031014913
190	0x3fe39a06	1.7781379
191	0x3bddb4f5	0.0067659565
192	0x384e406d	4.917423e-05
193	0x3bd0083d	0.0063486383
194	0x3b9a84fc	0.00471556
195	0x3a855edb	0.0010175364
196	0x3b962f36	0.0045832647
197	0x4100b749	8.044747
198	0x3895c70d	7.14195e-05
199	0x3fab7703	1.3395694
200	0xbad967a7	-0.0016586677
201	0x3b453399	0.003009057
202	0x3a01767b	0.00049386144
203	0xb9692a00	-0.00022236258
204	0x3b44ebfc	0.0030047884
205	0x38e07cc9	0.000107043954
206	0x4087c012	4.242196
207	0x3b003180	0.0019560754
208	0x3938157a	0.00017555608
209	0x3bd1f7f3	0.0064077317
210	0x39c53cc2	0.00037620036
211	0x398a7516	0.00026408647
212	0xbb40620f	-0.0029355322
213	0xba2d7241	-0.00066164514
214	0xbae38bad	-0.0017360352
215	0x3acbb295	0.0015540892
216	0xb89be579	-7.4337186e-05
217	0xb8b4a4d4	-8.6137705e-05
218	0xba89678b	-0.0010483129
219	0xb873dfcf	-5.8144153e-05
220	0xbc7dff34	-0.01550274
221	0xb90664d0	-0.00012816791
222	0xba783857	-0.00094688445
223	0x4136925d	11.410733
224	0xb9e0c98e	-0.0004287478
225	0xb931d504	-0.0001695939
226	0xb885c70f	-6.379012e-05
227	0xbb2ae291	-0.0026074986
228	0xba46f04e	-0.0007588909
229	0xbb2daf58	-0.0026502218
230	0xb96d54bd	-0.00022633649
231	0xba1e0115	-0.0006027383
232	0xb84b4d8e	-4.84712e-05
233	0x378a9d0d	1.6524014e-05
234	0x3ab6ccd8	0.0013946546
235	0x3fd2e637	1.6476506
236	0x38146a54	3.5384975e-05
237	0xb909f25d	-0.00013155625
238	0x3c212093	0.009834426
239	0xb7b55388	-2.1615779e-05
240	0x396b08a3	0.00022414564
241	0xbc383e29	-0.011245289
242	0x3b923a4a	0.004462515
243	0x3b4c2dc6	0.0031155213
244	0x3818566f	3.632012e-05
245	0x3baea612	0.0053298557
246	0xbaa789e4	-0.0012782183
247	0x39800b1c	0.0002442234
248	0x3af78f31	0.0018887279
249	0xbb806bfb	-0.0039191223
250	0x39207ce9	0.00015305322
251	0xbb1fea5e	-0.0024401168
252	0xbace7a82	-0.0015753063
253	0x3f54e5b4	0.83163
254	0x3bd4179a	0.00647254
255	0x41fcfb71	31.622774

batch_normalization_2/batchnorm/sub f4 [768]
0	0x3b6f549c	0.0036518937
1	0xc0ae9eee	-5.4569006
2	0x3baab044	0.005209001
3	0xbb531cac	-0.0032213135
4	0xbac60720	-0.0015108325
5	0xc108bfdc	-8.546841
6	0x3a06a0f1	0.00051356765
7	0x3b7232b6	0.0036956496
8	0x3c829192	0.015938554
9	0xc11207e8	-9.12693
10	0xbd6cb4c6	-0.057789586
11	0x3b5ba5a7	0.0033515485
12	0xbb51247e	-0.003191262
13	0x3d2197bf	0.039451357
14	0xbd0a619f	-0.033784505
15	0xbc559368	-0.013035633
16	0xbbb9d2ad	-0.0056708665
17	0xba5a714a	-0.00083329214
18	0x4047410d	3.1133454
19	0xbb919a72	-0.00444346
20	0xbcdf2219	-0.027237939
21	0xbb82e5c6	-0.0039946763
22	0xbcad4101	-0.02114916
23	0xbda0a3e6	-0.07843761
24	0x3d0467c1	0.03232551
25	0x4087c0c6	4.242282
26	0x3a910760	0.001106482
27	0xb8ce0c90	-9.8251854e-05
28	0xbc03717c	-0.008022662
29	0xb94cbc70	-0.00019525154
30	0xbc647708	-0.013944395
31	0xbc6f1c3c	-0.014594134
32	0x39afd820	0.00033539627
33	0x39caeebe	0.0003870632
34	0xba4c54dd	-0.0007794628
35	0xba90b74a	-0.0011040953
36	0x3c2d5100	0.010578394
37	0x3bdffd0a	0.0068355845
38	0xbb3469ba	-0.0027528838
39	0x3a16bbd0	0.0005750032
40	0x3b51ab0b	0.0031992819
41	0x3c986f54	0.018607773
42	0x37759330	1.4637408e-05
43	0xbf2a2620	-0.66464424
44	0x3a6341f0	0.0008669188
45	0x3b1257d2	0.0022330177
46	0x3b17e60b	0.0023177888
47	0xb983a351	-0.00025107947
48	0x3b09109d	0.0020914443
49	0x3b34b980	0.0027576387
50	0x3a5e8fac	0.00084900367
51	0xbc75c1ec	-0.014999848
52	0xbf0c077e	-0.5469893
53	0xbb9f9204	-0.0048697013
54	0xbaa4cbbe	-0.0012572927
55	0x3dacb560	0.08433032
56	0xb9c69e30	-0.00037883362
57	0x3bfe9bd9	0.0077700433
58	0xbc1e8324	-0.009674821
59	0x3abaeea5	0.0014261795
60	0xb999e7f5	-0.00029355256
61	0x3a3f9c7a	0.00073093886
62	0x3c1eba2e	0.009687943
63	0xbbbe1fdc	-0.005802138
64	0x3b2c9522	0.0026334007
65	0xc0329e02	-2.790894
66	0x3d010a4a	0.031503953
67	0xbc405708	-0.0117395
68	0xbacefab9	-0.0015791274
69	0x3c93b952	0.018032704
70	0x3bca8562	0.0061804513
71	0xbb15e546	-0.0022872253
72	0xba45d49e	-0.0007546636
73	0xbaad748e	-0.0013233589
74	0x3beb743e	0.007185488
75	0xba47ec98	-0.0007626503
76	0xbbcdb534	-0.0062777046
77	0x3a138f30	0.00056289416
78	0xbafb5bc3	-0.0019177127
79	0xb95a2730	-0.00020804699
80	0x3b99aa75	0.0046895095
81	0xbc319cc2	-0.010840597
82	0x3b5b06cc	0.00334208
83	0x3a2a4908	0.0006495868
84	0x3c243c0f	0.010024085
85	0x3cd0ac85	0.025472889
86	0xbcd31d6a	-0.025770862
87	0x3c44b4ca	0.012005994
88	0xbafeab84	-0.0019429778
89	0x3b130cb0	0.0022437982
90	0xbc18ca32	-0.009325551
91	0xbbc79fad	-0.006092033
92	0x39ed744f	0.0004529082
93	0x3a9f501a	0.001215461
94	0x39dce994	0.000421357
95	0x3a08e36e	0.0005221878
96	0x3c21f928	0.009886064
97	0xba820726	-0.0009920343
98	0xb9ac836b	-0.0003290431
99	0x3c2505c6	0.010072177
100	0xbffbcf8e	-1.9672716
101	0xbc3eded1	-0.011649803
102	0xc05759ca	-3.3648553
103	0x3c5be072	0.013420211
104	0x3b05e96a	0.0020433315
105	0x3c6cac8e	0.014445437
106	0xbc23f77a	-0.0100077335
107	0xbcc582c4	-0.024110205
108	0xbb86c9b2	-0.0041133994
109	0xc07ea6c9	-3.9789298
110	0x3a1456d8	0.00056586927
111	0x3bc9d3c0	0.006159276
112	0xbc3e1d70	-0.011603698
113	0xb8b3e83a	-8.578641e-05
114	0x3c45bda1	0.012069137
115	0xbc5961da	-0.013267959
116	0xbaaeff1e	-0.0013351177
117	0xc0921d90	-4.5661087
118	0xbc0a99c5	-0.008459513
119	0xbd083981	-0.033257965
120	0x3bf3f462	0.007444904
121	0xbc22555e	-0.009908048
122	0xba4d01d1	-0.00078204
123	0xbbe0c035	-0.0068588504
124	0x3aff02b8	0.0019455766
125	0x3ce314b9	0.027719842
126	0x3b16100e	0.0022897753
127	0xbb16fec6	-0.002304004
128	0x3bb9bae7	0.0056680324
129	0xc0c5b2f2	-6.178094
130	0x3c1f45e4	0.009721253
131	0x3c86d35b	0.016458204
132	0xbc3784cc	-0.011201095
133	0x3a974026	0.0011539503
134	0xbc53bc2e	-0.0129232835
135	0x3881c856	6.188515e-05
136	0xbbdac008	-0.006675724
137	0x3a022c96	0.000496575
138	0x39072afd	0.00012890618
139	0xbc2959b4	-0.010336328
140	0xb9a609c7	-0.00031669272
141	0x3b50c091	0.003185306
142	0xbb1b5eab	-0.002370755
143	0x398e44c0	0.00027135573
144	0xba43a99d	-0.0007463934
145	0xbba91764	-0.005160259
146	0x3ae8a780	0.0017750114
147	0x3b8c1a3d	0.004275589
148	0xbaf9573e	-0.0019023193
149	0x3c032e2a	0.008006612
150	0xbbd6234f	-0.006534971
151	0x3c09633a	0.008385474
152	0x3bef32be	0.00729975
153	0x3b0af306	0.0021201982
154	0xbc1b8bca	-0.0094937775
155	0xbb1f9284	-0.0024348805
156	0x3beccdb2	0.007226669
157	0xba832d21	-0.0010007956
158	0xbc725b24	-0.014792237
159	0x3bde6d47	0.006787929
160	0x3a369719	0.00069652643
161	0xbbfba059	-0.007679027
162	0xbc1910d7	-0.009342394
163	0x3bfd33ae	0.007727108
164	0xbc599c4e	-0.013281895
165	0xbca203e3	-0.019777244
166	0xbb7ec210	-0.0038872994
167	0xbcc5973b	-0.024119964
168	0xbc75663a	-0.014977986
169	0x3cd1f3c0	0.025628924
170	0x3a1e1c97	0.0006031482
171	0xbaefedb4	-0.0018305094
172	0xbaa92898	-0.0012905775
173	0x3ac7f628	0.0015255855
174	0x3c464a86	0.012102729
175	0x3cbc1a2e	0.022961702
176	0xc011ccda	-2.2781281
177	0xbbd90398	-0.006622743
178	0x3b8a2cb5	0.0042167553
179	0xba1c2e44	-0.0005957822
180	0x3a19cf59	0.0005867384
181	0xbd09ef94	-0.033675745
182	0xbb4329aa	-0.0029779472
183	0x3be461ae	0.006969652
184	0x39b480d8	0.00034428271
185	0xba2d2c44	-0.00066060224
186	0xc0c38dbb	-6.111051
187	0xba008390	-0.0004902417
188	0x3b3a3df2	0.002841827
189	0xba8e6836	-0.0010864798
190	0xc04c0f24	-3.188424
191	0xbd1a003f	-0.03759789
192	0xba6349ff	-0.0008670389
193	0xbcdbd4ad	-0.02683481
194	0xbc2d2ca0	-0.010569721
195	0xbc009267	-0.007847405
196	0xbcb88060	-0.022522151
197	0xc1c14579	-24.158922
198	0x3c8d6d8e	0.017264154
199	0xc0235f23	-2.5526817
200	0x3d2e08e8	0.042488962
201	0xbc0a3b3d	-0.008436975
202	0xbac5b66d	-0.0015084274
203	0x3abb0376	0.0014267999
204	0xbbf66ee4	-0.0075205434
205	0xbb203eaa	-0.0024451413
206	0xc0ce5f4b	-6.4491324
207	0xbc5080e4	-0.012726042
208	0x3acdb9fb	0.0015695685
209	0xbca9d1cc	-0.020729922
210	0xba94b159	-0.0011344358
211	0xb93165c7	-0.0001691795
212	0x3d1e8b15	0.038706858
213	0x3aeae6ce	0.0017921568
214	0x3b728b7f	0.0037009416
215	0xbc0a8534	-0.00845461
216	0x39a0c85d	0.0003066686
217	0xba619dde	-0.0008606593
218	0x3b38a34a	0.00281735
219	0x39a0cb34	0.00030668976
220	0x3d4aaa89	0.04947904
221	0x3b0a4710	0.0021099485
222	0x3c04ff10	0.008117452
223	0xc1d61182	-26.758549
224	0x3b9de0e8	0.0048180707
225	0x3a60b0f8	0.0008571292
226	0x394e518c	0.0001967607
227	0x3b9d3186	0.0047971634
228	0x3b7dce5c	0.0038727736
229	0x3c18a71d	0.009317187
230	0x3a745d35	0.000932175
231	0x3c5eed0d	0.013606322
232	0xb8dc8484	-0.000105151004
233	0x3baf86a1	0.005356625
234	0xbb8de6bb	-0.0043304837
235	0xc0fc278c	-7.8798275
236	0x39efa50e	0.00045708608
237	0x3a25f81f	0.00063312234
238	0xbd196c34	-0.037456706
239	0x39ca81da	0.0003862519
240	0xbc0e3a12	-0.008680837
241	0x3d164d75	0.036694963
242	0xbc805e76	-0.015670042
243	0xbc8b09e5	-0.016972492
244	0x3a8594c4	0.001019143
245	0xbd3c641a	-0.0459939
246	0x3cab8f05	0.02094222
247	0xbb8c6d6c	-0.004285505
248	0x3b54ebc0	0.003248915
249	0x3c38d456	0.011281094
250	0xba217ef8	-0.00061605824
251	0x3c8059ff	0.015667913
252	0x3cf3865c	0.029727153
253	0xc09226ef	-4.5672526
254	0xbc5303a9	-0.012879291
255	0x34fed73c	4.746779e-07

dense_1/MatMul_bias f4 [32]
0	0xbf280f68	-0.6564851
1	0xbf342310	-0.70366
2	0xbf369d41	-0.713337
3	0xbf3070de	-0.6892222
4	0xbf2a23c1	-0.66460806
5	0xbf26c02f	-0.65137
6	0xbf269b65	-0.65080863
7	0xbf273ae5	-0.6532424
8	0xbf273039	-0.65307957
9	0xbf34066e	-0.7032231
10	0xbf2e5c45	-0.6810954
11	0xbf268ae3	-0.65055674
12	0xbf31ae98	-0.69407034
13	0xbf26e6e0	-0.6519604
14	0xbf271a9f	-0.65274996
15	0xbf30d944	-0.6908152
16	0xbf29521f	-0.6614093
17	0xbf293a4e	-0.6610459
18	0xbf24af17	-0.64329666
19	0xbf34b4e8	-0.7058854
20	0xbf297323	-0.6619131
21	0xbf287bcc	-0.658139
22	0xbf3434c9	-0.70393044
23	0xbf310578	-0.6914897
24	0xbf3147c3	-0.69250125
25	0xbf213a9a	-0.62980044
26	0xbf264a20	-0.64956856
27	0xbf333fcd	-0.7001923
28	0xbf2603fe	-0.6484984
29	0xbf32935f	-0.6975612
30	0xbf21afd2	-0.63158906
31	0xbf284523	-0.65730494

dense_1/kernel/transpose f4 [32, 768]
0	0xb19a06c8	-4.482761e-09
1	0xb6471c29	-2.9669702e-06
2	0x37bc15ce	2.24215e-05
3	0xb11b424d	-2.2593156e-09
4	0xb42ac23b	-1.5903144e-07
5	0xb1839a7a	-3.8301637e-09
6	0xb7bfd4f3	-2.2868137e-05
7	0xb1940e66	-4.309004e-09
8	0x362eba25	2.603637e-06
9	0xb9082091	-0.00012982103
10	0xb3885aa0	-6.349478e-08
11	0xb174fda6	-3.5650856e-09
12	0xb255e2f3	-1.2449834e-08
13	0xb3975054	-7.046097e-08
14	0x32843427	1.5390539e-08
15	0xb77ff320	-1.5255791e-05
16	0xb869c278	-5.5732642e-05
17	0x373346ed	1.0685745e-05
18	0xb47953d0	-2.3220423e-07
19	0xb8ec7dac	-0.00011276765
20	0x357e9c2a	9.484962e-07
21	0xb5be7900	-1.4191319e-06
22	0xb6dc2394	-6.5606528e-06
23	0x36b86137	5.4949446e-06
24	0x31438030	2.84491e-09
25	0xb400539a	-1.1951343e-07
26	0xb8a9cdfa	-8.096914e-05
27	0x301f234a	5.789401e-10
28	0xb565a4de	-8.554906e-07
29	0xb6a538e4	-4.924006e-06
30	0x33e4451f	1.06296504e-07
31	0x36825d70	3.8851795e-06
32	0xb72419fd	-9.781213e-06
33	0xb207b5e5	-7.899392e-09
34	0xb20637e3	-7.812534e-09
35	0xb1972fd8	-4.4001176e-09
36	0x31e43550	6.6417343e-09
37	0xb22875f2	-9.805705e-09
38	0xb4c536e0	-3.6734036e-07
39	0x36a16d62	4.8109077e-06
40	0xb91bbf01	-0.00014853106
41	0xb6868358	-4.0088016e-06
42	0x2de39320	2.5872249e-11
43	0x32a0c578	1.871625e-08
44	0xb0fee6b4	-1.8546502e-09
45	0xb812e507	-3.502241e-05
46	0xb7bb050c	-2.2294487e-05
47	0xb19122ce	-4.2240123e-09
48	0xb720dae8	-9.587711e-06
49	0xb8959f6c	-7.134568e-05
50	0x3818fc4e	3.64746e-05
51	0xb89af6ea	-7.3892836e-05
52	0xb2ee27b4	-2.7724901e-08
53	0x3884e328	6.336562e-05
54	0xb28ca712	-1.637412e-08
55	0x358bda77	1.0419889e-06
56	0xb18c8794	-4.0899497e-09
57	0xb1c0764c	-5.6013842e-09
58	0x34516579	1.9501557e-07
59	0xb42cc886	-1.6091698e-07
60	0x3785a064	1.5929523e-05
61	0x34a8fe46	3.1477447e-07
62	0x33b23b57	8.299565e-08
63	0x3655e6f9	3.1873917e-06
64	0xb86a741c	-5.5898083e-05
65	0x32085127	7.934694e-09
66	0x33baf4e4	8.705845e-08
67	0x32271776	9.726014e-09
68	0xb40d46b2	-1.3157367e-07
69	0x37192ac5	9.129469e-06
70	0x3792ddcc	1.7507838e-05
71	0x3791eed8	1.7396567e-05
72	0xb58ed97b	-1.064312e-06
73	0xb31fd102	-3.7210164e-08
74	0x351ddda7	5.8809604e-07
75	0x3220ef74	9.367671e-09
76	0xb27f9b30	-1.4878239e-08
77	0xb88ab3e0	-6.613857e-05
78	0xb7b1f286	-2.1212978e-05
79	0xb8008012	-3.0636853e-05
80	0x32d64bb6	2.4947308e-08
81	0x30d7a2f4	1.5689623e-09
82	0x386c977a	5.640786e-05
83	0x3743975c	1.1658147e-05
84	0x338f0a30	6.6608095e-08
85	0x336ff9c0	5.587367e-08
86	0xb6ec251e	-7.037669e-06
87	0xb39e9315	-7.3842024e-08
88	0xb81db49f	-3.7599933e-05
89	0xb560855e	-8.364058e-07
90	0x35c4bbd6	1.4657805e-06
91	0xb3098e02	-3.2026954e-08
92	0x31fb3156	7.3106703e-09
93	0x364220d4	2.8927361e-06
94	0xb822eebc	-3.884615e-05
95	0x2ff77440	4.501164e-10
96	0xb2fc967d	-2.9405095e-08
97	0xb1e80ae0	-6.753325e-09
98	0x378fa24c	1.7122504e-05
99	0xb2b16c0c	-2.0654646e-08
100	0x38194f7a	3.655206e-05
101	0xb59d45f7	-1.1717774e-06
102	0x37dd9633	2.6415195e-05
103	0x2f2f7fc0	1.5961543e-10
104	0x34156d70	1.391652e-07
105	0x33aad548	7.9550375e-08
106	0xb444ecd0	-1.8340074e-07
107	0x34abcda8	3.2000867e-07
108	0x36a80ce8	5.0082926e-06
109	0xb36e38aa	-5.546523e-08
110	0x388f8fff	6.845593e-05
111	0x35f79cf6	1.8448616e-06
112	0xb3a1ba06	-7.530984e-08
113	0x362cb2a6	2.5733984e-06
114	0xb7ab6908	-2.0433698e-05
115	0x3560a054	8.367981e-07
116	0xb24ae784	-1.1810588e-08
117	0xb87fd8f8	-6.0998806e-05
118	0x387ae56d	5.9818314e-05
119	0xafdf3d4e	-4.0607023e-10
120	0x3267660c	1.3469172e-08
121	0x3789f204	1.644437e-05
122	0xb8af80e7	-8.36866e-05
123	0xb909b2fe	-0.00013132018
124	0x35127086	5.455298e-07
125	0xb40bb345	-1.3010602e-07
126	0x314f2b05	3.0146918e-09
127	0x320a0f5a	8.036148e-09
128	0x33c6449b	9.232573e-08
129	0x33b0d626	8.234592e-08
130	0x34a63c60	3.0963838e-07
131	0x320e6580	8.288566e-09
132	0xb17ad4c8	-3.650074e-09
133	0xb0c633b8	-1.4421095e-09
134	0xb08373c2	-9.564405e-10
135	0xb80f80f4	-3.4213954e-05
136	0x3642479d	2.8949937e-06
137	0x34687f0a	2.16529e-07
138	0x30e063d8	1.6326522e-09
139	0xb4b30090	-3.3341757e-07
140	0x329cc432	1.825001e-08
141	0xb36a64aa	-5.4573924e-08
142	0xb69e0602	-4.7094663e-06
143	0x383fdbde	4.5742716e-05
144	0xb3fd61bc	-1.1799008e-07
145	0xb2076238	-7.880367e-09
146	0x373b6980	1.1170632e-05
147	0x32cecafc	2.4073863e-08
148	0x33025260	3.0342903e-08
149	0xb33a7c40	-4.3419504e-08
150	0x3917098e	0.00014404042
151	0x3267cff6	1.34932545e-08
152	0xb1757e41	-3.572396e-09
153	0x36d3e924	6.315431e-06
154	0xb3233d48	-3.800713e-08
155	0x33881116	6.3361014e-08
156	0x32a4510e	1.9128972e-08
157	0xb8035259	-3.1309526e-05
158	0x32fec856	2.9660594e-08
159	0x30d92bee	1.5801314e-09
160	0x38d9e1a7	0.00010389397
161	0x38ce787c	9.8452874e-05
162	0x30df0536	1.6226867e-09
163	0xb3760065	-5.7276697e-08
164	0x3251bb3e	1.2207975e-08
165	0x3574e658	9.123228e-07
166	0xb2080c41	-7.919028e-09
167	0x32074d34	7.875588e-09
168	0xb2690c10	-1.3565128e-08
169	0xb230049d	-1.0245597e-08
170	0xb693ea22	-4.408198e-06
171	0xb48a7438	-2.5789063e-07
172	0x36065f00	2.0022853e-06
173	0x31af854c	5.1083244e-09
174	0x354d747b	7.653795e-07
175	0x31318b24	2.5835982e-09
176	0xb40f69ae	-1.3356359e-07
177	0xaea37356	-7.4328696e-11
178	0xb3b21448	-8.29246e-08
179	0x314eaadf	3.0074074e-09
180	0x321c944c	9.114114e-09
181	0x3298d504	1.7791997e-08
182	0xb1e9c3a4	-6.8034343e-09
183	0xb1077eac	-1.971709e-09
184	0x3144b947	2.8627072e-09
185	0x363253d8	2.657287e-06
186	0xb2cd2066	-2.3879874e-08
187	0x32deab71	2.5922164e-08
188	0x30c88c7a	1.4591841e-09
189	0x34d8877b	4.033171e-07
190	0xb2a5e115	-1.9310884e-08
191	0x3327d9d8	3.9080845e-08
192	0xb0b2cb3b	-1.3008966e-09
193	0xb69365f6	-4.392811e-06
194	0x308f528e	1.0428083e-09
195	0xb057ddc0	-7.853167e-10
196	0xb1bcdf5e	-5.496914e-09
197	0xb60f7f18	-2.1382639e-06
198	0x3247396e	1.15963825e-08
199	0xb4bd52d0	-3.5264247e-07
200	0xb07e2182	-9.245228e-10
201	0xb6ece6cb	-7.060216e-06
202	0xb682ffe2	-3.9040906e-06
203	0xb64bf988	-3.0394604e-06
204	0xb766e868	-1.376318e-05
205	0xb2bd65bd	-2.2048761e-08
206	0xb1b545d4	-5.275732e-09
207	0xb6071550	-2.0128973e-06
208	0xb1562602	-3.1162704e-09
209	0x31dd99d6	6.4494357e-09
210	0xb4ddeeb6	-4.1338143e-07
211	0xb19a26c1	-4.4863957e-09
212	0xb0982151	-1.1068925e-09
213	0xb55ffb0c	-8.3439295e-07
214	0xb4d86b20	-4.031108e-07
215	0x35e0d8d3	1.6752405e-06
216	0xb5f2f2a1	-1.8101019e-06
217	0xb6c97176	-6.0034754e-06
218	0x32197e7e	8.934533e-09
219	0x338d0498	6.56666e-08
220	0x305b47fa	7.977402e-10
221	0xb53966d8	-6.906753e-07
222	0xb527a666	-6.245449e-07
223	0xb52871c3	-6.275042e-07
224	0x318ef9a3	4.1611243e-09
225	0xb6f64d5c	-7.340377e-06
226	0x386e5024	5.681826e-05
227	0xb1f8869a	-7.2330524e-09
228	0xb1195da4	-2.2317659e-09
229	0xb26eaa6e	-1.38921745e-08
230	0xb207b841	-7.899929e-09
231	0xb2b03f37	-2.0517843e-08
232	0xb5b0549b	-1.3137645e-06
233	0xaecb6460	-9.2492014e-11
234	0x390849e4	0.00012997497
235	0xb35ca808	-5.1375565e-08
236	0x3664c8a9	3.4091447e-06
237	0xb7aa5346	-2.0304356e-05
238	0x32a10759	1.8746208e-08
239	0x3537250a	6.822671e-07
240	0xb647d078	-2.9774656e-06
241	0xb16a90df	-3.4133831e-09
242	0x339fefc6	7.447629e-08
243	0x32ed4262	2.7620619e-08
244	0xb21953d2	-8.924831e-09
245	0x305a74c6	7.9473883e-10
246	0x342c3974	1.603965e-07
247	0xb4a75c34	-3.117326e-07
248	0xb51cfdd6	-5.848391e-07
249	0x36b3a08c	5.353306e-06
250	0x34301468	1.6398701e-07
251	0x36ee012e	7.09309e-06
252	0x387c4d44	6.015344e-05
253	0xb5ce24ac	-1.5358869e-06
254	0xb5b19147	-1.3229809e-06
255	0x36b80e7c	5.4853135e-06

dense_2/MatMul_bias f4 [16]
0	0xc1147583	-9.278689
1	0xc11475b9	-9.278741
2	0xc1147583	-9.278689
3	0xc114765d	-9.278897
4	0xc11475e6	-9.278784
5	0xc11475b4	-9.278736
6	0xc1147624	-9.278843
7	0xc114765d	-9.278897
8	0xc11475b4	-9.278736
9	0xc11475e4	-9.278782
10	0xc1147619	-9.278832
11	0xc11475b4	-9.278736
12	0xc11475e6	-9.278784
13	0xc11475dc	-9.278774
14	0xc114765d	-9.278897
15	0xc114765d	-9.278897

dense_2/kernel/transpose f4 [16, 32]
0	0xb80e34b4	-3.3904522e-05
1	0xb7e6b4d6	-2.7502345e-05
2	0xb7d2292b	-2.5053121e-05
3	0xb7ff832a	-3.0459447e-05
4	0xb80c01ad	-3.338016e-05
5	0xb80f3b40	-3.4149038e-05
6	0xb80f52ae	-3.417086e-05
7	0xb80eef96	-3.407857e-05
8	0xb80edf79	-3.4063563e-05
9	0xb7e71cca	-2.7550752e-05
10	0xb8052e70	-3.175292e-05
11	0xb80f631a	-3.4186152e-05
12	0xb7f7e8dc	-2.9553128e-05
13	0xb80f15c0	-3.4114113e-05
14	0xb80ef67f	-3.4085006e-05
15	0xb7fd606e	-3.0204854e-05
16	0xb80d01d0	-3.3618708e-05
17	0xb80d0ae7	-3.3627173e-05
18	0xb810a2a1	-3.4483735e-05
19	0xb7e16f06	-2.687379e-05
20	0xb80ce4d9	-3.3591732e-05
21	0xb80dc5c6	-3.380121e-05
22	0xb7e5c1bb	-2.738914e-05
23	0xb7fbfd61	-3.003952e-05
24	0xb7fab9a8	-2.9888775e-05
25	0xb81281bc	-3.4929937e-05
26	0xb80f9387	-3.4231252e-05
27	0xb7ecd191	-2.823098e-05
28	0xb80fcf5c	-3.4286975e-05
29	0xb7f1cbb6	-2.8824299e-05
30	0xb81250ea	-3.488447e-05
31	0xb80e0873	-3.3863307e-05
32	0xb80df97e	-3.3849377e-05
33	0xb7e56d7e	-2.7349914e-05
34	0xb7d0c798	-2.4888475e-05
35	0xb7fe8002	-3.0338768e-05
36	0xb80bbe58	-3.3317454e-05
37	0xb80f03b0	-3.409729e-05
38	0xb80f1b70	-3.411941e-05
39	0xb80eb6e9	-3.4025787e-05
40	0xb80ea719	-3.401106e-05
41	0xb7e5d570	-2.7398317e-05
42	0xb804c7bc	-3.165727e-05
43	0xb80f2c13	-3.4134904e-05
44	0xb7f6c898	-2.9418894e-05
45	0xb80eddd4	-3.406203e-05
46	0xb80ebe08	-3.403242e-05
47	0xb7fc55de	-3.0080726e-05
48	0xb80cc25a	-3.3559605e-05
49	0xb80ccbac	-3.3568285e-05
50	0xb8106ea3	-3.4435314e-05
51	0xb7e02166	-2.6718433e-05
52	0xb80ca4df	-3.353215e-05
53	0xb80d89a2	-3.37452e-05
54	0xb7e47aa4	-2.7236827e-05
55	0xb7faec88	-2.9912466e-05
56	0xb7f9a0e7	-2.975804e-05
57	0xb8125044	-3.4883866e-05
58	0xb80f5cf8	-3.418044e-05
59	0xb7eb940a	-2.808312e-05
60	0xb80f9978	-3.4236786e-05
61	0xb7f099ca	-2.8681843e-05
62	0xb8121f3b	-3.48382e-05
63	0xb80dcd0b	-3.380798e-05
64	0xb80e34b4	-3.3904522e-05
65	0xb7e6b4d6	-2.7502345e-05
66	0xb7d2292b	-2.5053121e-05
67	0xb7ff832a	-3.0459447e-05
68	0xb80c01ad	-3.338016e-05
69	0xb80f3b40	-3.4149038e-05
70	0xb80f52ae	-3.417086e-05
71	0xb80eef96	-3.407857e-05
72	0xb80edf79	-3.4063563e-05
73	0xb7e71cca	-2.7550752e-05
74	0xb8052e70	-3.175292e-05
75	0xb80f631a	-3.4186152e-05
76	0xb7f7e8dc	-2.9553128e-05
77	0xb80f15c0	-3.4114113e-05
78	0xb80ef67f	-3.4085006e-05
79	0xb7fd606e	-3.0204854e-05
80	0xb80d01d0	-3.3618708e-05
81	0xb80d0ae7	-3.3627173e-05
82	0xb810a2a1	-3.4483735e-05
83	0xb7e16f06	-2.687379e-05
84	0xb80ce4d9	-3.3591732e-05
85	0xb80dc5c6	-3.380121e-05
86	0xb7e5c1bb	-2.738914e-05
87	0xb7fbfd61	-3.003952e-05
88	0xb7fab9a8	-2.9888775e-05
89	0xb81281bc	-3.4929937e-05
90	0xb80f9387	-3.4231252e-05
91	0xb7ecd191	-2.823098e-05
92	0xb80fcf5c	-3.4286975e-05
93	0xb7f1cbb6	-2.8824299e-05
94	0xb81250ea	-3.488447e-05
95	0xb80e0873	-3.3863307e-05
96	0xb80ddd50	-3.3823133e-05
97	0xb7e4a5b4	-2.725688e-05
98	0xb7cfef9e	-2.4787903e-05
99	0xb7fddbc8	-3.0262294e-05
100	0xb80b9978	-3.328311e-05
101	0xb80eeb87	-3.407479e-05
102	0xb80f037f	-3.4097113e-05
103	0xb80e9d7c	-3.4002107e-05
104	0xb80e8df2	-3.3987635e-05
105	0xb7e50e2b	-2.7305525e-05
106	0xb80486d0	-3.1596806e-05
107	0xb80f149b	-3.4113047e-05
108	0xb7f6118a	-2.9333652e-05
109	0xb80ec523	-3.4039036e-05
110	0xb80ea49a	-3.4008735e-05
111	0xb7fbabf5	-3.0001605e-05
112	0xb80ca1fa	-3.3529454e-05
113	0xb80cab3e	-3.3538083e-05
114	0xb8105b55	-3.4417335e-05
115	0xb7df5628	-2.6623791e-05
116	0xb80c8354	-3.350091e-05
117	0xb80d6c34	-3.371779e-05
118	0xb7e3b01a	-2.7142512e-05
119	0xb7fa3dc1	-2.9831079e-05
120	0xb7f8f1b5	-2.9676457e-05
121	0xb8124254	-3.4870885e-05
122	0xb80f45d4	-3.415889e-05
123	0xb7ead1a5	-2.7992597e-05
124	0xb80f8362	-3.4216217e-05
125	0xb7efdaaa	-2.8592844e-05
126	0xb81210a6	-3.4824618e-05
127	0xb80db044	-3.378118e-05
128	0xb80e1964	-3.3879085e-05
129	0xb7e60c2e	-2.7423808e-05
130	0xb7d174fe	-2.496922e-05
131	0xb7feff34	-3.0397998e-05
132	0xb80be1b7	-3.3350396e-05
133	0xb80f21f0	-3.4125464e-05
134	0xb80f3995	-3.4147484e-05
135	0xb80ed5ac	-3.4054436e-05
136	0xb80ec5c2	-3.4039615e-05
137	0xb7e67428	-2.7472226e-05
138	0xb804fafe	-3.1705007e-05
139	0xb80f4a28	-3.416292e-05
140	0xb7f75506	-2.9484287e-05
141	0xb80efc2c	-3.409029e-05
142	0xb80edcb4	-3.4060984e-05
143	0xb7fcd828	-3.0141397e-05
144	0xb80ce41c	-3.3591044e-05
145	0xb80ced36	-3.359952e-05
146	0xb8108b90	-3.4462253e-05
147	0xb7e0c3a2	-2.679398e-05
148	0xb80cc6dc	-3.3563803e-05
149	0xb80da9e9	-3.377526e-05
150	0xb7e516ee	-2.7309605e-05
151	0xb7fb7054	-2.9973839e-05
152	0xb7fa2850	-2.9821094e-05
153	0xb8126c80	-3.491016e-05
154	0xb80f7ac7	-3.4208202e-05
155	0xb7ec2dbb	-2.8154687e-05
156	0xb80fb71f	-3.42644e-05
157	0xb7f12e26	-2.8750928e-05
158	0xb8123b85	-3.4864544e-05
159	0xb80ded0a	-3.383778e-05
160	0xb80e25ad	-3.3890527e-05
161	0xb7e65a13	-2.746008e-05
162	0xb7d1c322	-2.5005607e-05
163	0xb7ff410e	-3.0428662e-05
164	0xb80bf0f3	-3.3364584e-05
165	0xb80f2d00	-3.4135766e-05
166	0xb80f448b	-3.4157692e-05
167	0xb80ee124	-3.4065117e-05
168	0xb80ed12e	-3.4050252e-05
169	0xb7e6c03a	-2.7507649e-05
170	0xb80514c5	-3.1729014e-05
171	0xb80f54e2	-3.417291e-05
172	0xb7f79bdc	-2.9517272e-05
173	0xb80f0760	-3.4100725e-05
174	0xb80ee810	-3.4071563e-05
175	0xb7fd1c00	-3.0172989e-05
176	0xb80cf215	-3.3604058e-05
177	0xb80cfb36	-3.361256e-05
178	0xb810951b	-3.447114e-05
179	0xb7e11180	-2.683024e-05
180	0xb80cd509	-3.3577006e-05
181	0xb80db69a	-3.378708e-05
182	0xb7e566d4	-2.734681e-05
183	0xb7fbb5d6	-3.0006206e-05
184	0xb7fa6f60	-2.9854185e-05
185	0xb812749f	-3.4917724e-05
186	0xb80f8583	-3.42182e-05
187	0xb7ec7b3c	-2.8190778e-05
188	0xb80fc18a	-3.4274104e-05
189	0xb7f177f8	-2.8785304e-05
190	0xb81243cd	-3.4872257e-05
191	0xb80df980	-3.3849385e-05
192	0xb80e12e0	-3.3873017e-05
193	0xb7e53c58	-2.7327027e-05
194	0xb7d08a70	-2.4859997e-05
195	0xb7fe6af7	-3.0328969e-05
196	0xb80bd1e0	-3.3335644e-05
197	0xb80f1fb2	-3.4123375e-05
198	0xb80f379c	-3.4145647e-05
199	0xb80ed22e	-3.4051183e-05
200	0xb80ec276	-3.4036544e-05
201	0xb7e5a51e	-2.7375816e-05
202	0xb804c91e	-3.1658557e-05
203	0xb80f48cb	-3.416165e-05
204	0xb7f6a46c	-2.940205e-05
205	0xb80ef969	-3.408772e-05
206	0xb80ed950	-3.4057826e-05
207	0xb7fc3a1f	-3.0067806e-05
208	0xb80cd915	-3.3580774e-05
209	0xb80ce26c	-3.3589473e-05
210	0xb8108dd1	-3.4464352e-05
211	0xb7dfeb1c	-2.6693153e-05
212	0xb80cbae3	-3.3552653e-05
213	0xb80da232	-3.3768076e-05
214	0xb7e4484c	-2.7213384e-05
215	0xb7facf13	-2.9898749e-05
216	0xb7f98337	-2.9744215e-05
217	0xb81272e7	-3.4916124e-05
218	0xb80f79aa	-3.4207165e-05
219	0xb7eb6880	-2.8062845e-05
220	0xb80fb6df	-3.426417e-05
221	0xb7f06f6e	-2.8662118e-05
222	0xb8124188	-3.4870143e-05
223	0xb80de61e	-3.3831333e-05
224	0xb80ddd50	-3.3823133e-05
225	0xb7e4a5b4	-2.725688e-05
226	0xb7cfef9e	-2.4787903e-05
227	0xb7fddbc8	-3.0262294e-05
228	0xb80b9978	-3.328311e-05
229	0xb80eeb87	-3.407479e-05
230	0xb80f037f	-3.4097113e-05
231	0xb80e9d7c	-3.4002107e-05
232	0xb80e8df2	-3.3987635e-05
233	0xb7e50e2b	-2.7305525e-05
234	0xb80486d0	-3.1596806e-05
235	0xb80f149b	-3.4113047e-05
236	0xb7f6118a	-2.9333652e-05
237	0xb80ec523	-3.4039036e-05
238	0xb80ea49a	-3.4008735e-05
239	0xb7fbabf5	-3.0001605e-05
240	0xb80ca1fa	-3.3529454e-05
241	0xb80cab3e	-3.3538083e-05
242	0xb8105b55	-3.4417335e-05
243	0xb7df5628	-2.6623791e-05
244	0xb80c8354	-3.350091e-05
245	0xb80d6c34	-3.371779e-05
246	0xb7e3b01a	-2.7142512e-05
247	0xb7fa3dc1	-2.9831079e-05
248	0xb7f8f1b5	-2.9676457e-05
249	0xb8124254	-3.4870885e-05
250	0xb80f45d4	-3.415889e-05
251	0xb7ead1a5	-2.7992597e-05
252	0xb80f8362	-3.4216217e-05
253	0xb7efdaaa	-2.8592844e-05
254	0xb81210a6	-3.4824618e-05
255	0xb80db044	-3.378118e-05

dense_3/MatMul_bias f4 [32]
0	0xbe3741ca	-0.1789619
1	0xbe7961cb	-0.24353711
2	0x3dd235dc	0.10264179
3	0x3e57babc	0.21067327
4	0x406147d4	3.520009
5	0xbf68859b	-0.90828866
6	0x408358c2	4.1045847
7	0x40621473	3.5324981
8	0xbf009c51	-0.5023852
9	0x406cfedf	3.703056
10	0x40452832	3.0805783
11	0xc05922dd	-3.392753
12	0x406159e3	3.5211112
13	0x3e9aaea4	0.30211365
14	0x40735051	3.8017771
15	0x408210ad	4.0645356
16	0xc046df1d	-3.1073678
17	0x404e0008	3.218752
18	0x40566c67	3.3503664
19	0xc052201a	-3.2832093
20	0x402db171	2.7139552
21	0xbc1af97c	-0.009458896
22	0xc06c5d2a	-3.6931863
23	0x3e2bc35a	0.1677374
24	0x4082184b	4.0654655
25	0xbe2861e9	-0.164436
26	0x405e0edb	3.4696567
27	0x40511d5b	3.2674167
28	0x4044d518	3.0755062
29	0xbd04283d	-0.032264937
30	0x3db84905	0.08998302
31	0x4044948c	3.0715666
