libs/models/mlp_proposal.tflite (tflite, 431104 bytes, 16 tensors)

batch_normalization_1/batchnorm/mul f4 [768]
0.08430252 0.15950714 0.091804296 0.04891333 0.025677187 0.02126953 0.01895929 0.01330596
0.011470878 0.01065518 0.012062237 0.011725425 0.014148238 0.015949713 0.019260012 0.021777721
0.021951724 0.029032283 0.03155857 0.03695808 0.037970047 0.04409568 0.042974696 0.046885163
0.045368943 0.045738515 0.042362176 0.038578138 0.03631059 0.034573603 0.034946293 0.032366026
0.029052483 0.02885335 0.025335977 0.024015382 0.02281026 0.02240811 0.02361987 0.020009477
0.017216504 0.016644303 0.01461134 0.014571959 0.012737351 0.013969866 0.012692072 0.0100559
0.008337553 0.00805764 0.0084533505 0.008269812 0.008298575 0.008861858 0.009510551 0.009833617
0.009993534 0.0095250895 0.012615564 0.014540877 0.013006076 0.014431378 0.014795189 0.015565014
0.01576585 0.01539438 0.015912928 0.017048744 0.015710047 0.016385306 0.017784039 0.019286685
0.022820976 0.023835612 0.026512476 0.025747225 0.030107249 0.035546694 0.036848646 0.03458009
0.03701594 0.0346139 0.03699974 0.035175644 0.033084594 0.033201627 0.032586172 0.027126135
0.024331618 0.024835253 0.025491912 0.024976067 0.020788124 0.019210834 0.021074973 0.017458066
0.01688491 0.0142359 0.012977538 0.008354529 0.007731419 0.006404821 0.006775154 0.005930718
0.0070003797 0.0045742467 0.008197996 0.00751124 0.004192214 0.005737065 0.0072621615 0.0054649296
0.009170527 0.011447242 0.009580892 0.009468465 0.01291746 0.013150051 0.008185661 0.013392096
0.010145443 0.0077040982 0.007424632 0.00983582 0.01183368 0.007023874 0.009679022 0.008818467
0.009435593 0.009039515 0.0042929584 0.006585331 0.0049161967 0.003659563 0.008729005 0.00589601
0.0048188325 0.0036786743 0.0077021597 0.007490541 0.007848609 0.0095589645 0.009728278 0.0078805825
0.006102516 0.0037407337 0.008008855 0.0032318777 0.0032465684 0.006547737 0.004685975 0.00522893
0.0068418635 0.0064831255 0.0025412552 0.008887556 0.003914414 0.009905456 0.007552107 0.008045732
0.008083786 0.004929779 0.00853553 0.0085042305 0.007164625 0.0054213908 0.009156725 0.009539595
0.014699798 0.012569728 0.012077356 0.010243727 0.011883135 0.008702656 0.007406917 0.0049994714
0.007105457 0.0069699166 0.011755111 0.0092371665 0.009289872 0.0073469845 0.01117816 0.0073320484
0.0076829195 0.0070591853 0.008322902 0.0038730379 0.0029891075 0.0035675794 0.002907222 0.0046793693
0.0051217396 0.0055663353 0.0042375703 0.0044171005 0.0030209336 0.0028819887 0.0023443955 0.0020623503
0.0018189998 0.0014798273 0.0020727245 0.0021007243 0.0018100243 0.0015532984 0.0023138728 0.0016147573
0.0033159202 0.0026213683 0.0019553122 0.0020017698 0.0020124377 0.0024653287 0.0021623413 0.0009342158
0.0016006236 0.0017122657 0.0016312612 0.0009773473 0.0011533545 0.0017413573 0.0016227614 0.0013854895
0.0010655824 0.001011753 0.001203732 0.0007297134 0.0009376874 0.00061432493 0.0007415318 0.0009847673
0.0008222771 0.00066989596 0.0007509396 0.0007592797 0.0003075803 0.0006173469 0.0004889752 0.0005623505
0.00031251373 0.0002367795 0.0003276613 0.0005113981 0.00049208465 0.00039876107 0.0005897584 0.0012119199
0.00123274 0.001087823 0.0010359742 0.001145362 0.0011937533 0.00095231785 0.000642142 0.0007731597
00000000: cda6 ac3d d755 233e e403 bc3d 5859 483d
00000010: f758 d23c 703d ae3c 8350 9b3c 3e01 5a3c
00000020: 59f0 3b3c 1093 2e3c b0a0 453c ff1b 403c
00000030: 03ce 673c f9a8 823c 2cc7 9d3c 3167 b23c
00000040: 1ad4 b33c 1cd5 ed3c 8f43 013d 5b61 173d
00000050: 7b86 1b3d ac9d 343d 3c06 303d a80a 403d
00000060: c9d4 393d 4f58 3b3d f683 2d3d 1c04 1e3d
00000070: 6aba 143d 0d9d 0d3d d823 0f3d 3d92 043d
00000080: 79ff ed3c dc5d ec3c 658d cf3c e8bb c43c
00000090: 95dc ba3c 3691 b73c 757e c13c eaea a33c
000000a0: a009 8d3c a259 883c 6764 6f3c 3abf 6e3c
000000b0: 52b0 503c dde1 643c 69f2 4f3c 80c1 243c
000000c0: 3b9a 083c 3104 043c ec7f 0a3c 1b7e 073c
000000d0: bff6 073c 5431 113c 24d2 1b3c 2e1d 213c
000000e0: ebbb 233c 1f0f 1c3c 83b1 4e3c dc3c 6e3c
000000f0: 7017 553c 9671 6c3c 8567 723c 6704 7f3c
00000100: 6227 813c b638 7c3c d45b 823c cfa9 8b3c
00000110: 5bb2 803c 7a3a 863c d5af 913c 1cff 9d3c
00000120: 0ef3 ba3c e742 c33c b130 d93c d8eb d23c
00000130: 7aa3 f63c 6999 113d 9bee 163d daa3 0d3d
00000140: 079e 173d 4ec7 0d3d 0a8d 173d 5614 103d
00000150: b683 073d 6efe 073d 1479 053d a137 de3c
00000160: 1a53 c73c 4d73 cb3c 6ad4 d03c 9c9a cc3c
00000170: db4b aa3c 0a60 9d3c 6ca5 ac3c 3804 8f3c
00000180: 3952 8a3c b13d 693c bd9f 543c 6fe1 083c
00000190: d857 fd3b 88df d13b 1c02 de3b 7856 c23b
000001a0: 7163 e53b 90e3 953b e350 063c d920 f63b
000001b0: d75e 893b fdfd bb3b 6df7 ed3b 2713 b33b
000001c0: fa3f 163c 378d 3b3c 2cf9 1c3c 9f21 1b3c
000001d0: c1a3 533c 5073 573c 271d 063c 866a 5b3c
000001e0: 1239 263c a972 fc3b 544a f33b 6b26 213c
000001f0: 0de2 413c 8728 e63b c394 1e3c 557b 103c
00000200: bf97 1a3c 791a 143c f2ab 8c3b c3c9 d73b
00000210: 0c18 a13b 47d5 6f3b 1a04 0f3c 5133 c13b
00000220: 4ce7 9d3b ea15 713b 6662 fc3b 3673 f53b
00000230: 7497 003c 349d 1c3c 5b63 1f3c 8f1d 013c
00000240: 9df7 c73b 1927 753b 9337 033c e9cd 533b
00000250: 61c4 543b 668e d63b cf8c 993b 7257 ab3b
00000260: b631 e03b 6670 d43b 308b 263b 1d9d 113c
00000270: 7c44 803b 7e4a 223c aa77 f73b 3fd2 033c
00000280: db71 043c fc89 a13b 9cd8 0b3c 5455 0b3c
00000290: 3bc5 ea3b eca5 b13b 1706 163c f64b 1c3c
000002a0: 6cd7 703c 43f1 4d3c 1ae0 453c 4ed5 273c
000002b0: 7bb1 423c 9695 0e3c b9b5 f23b 9bd2 a33b
000002c0: e5d4 e83b e663 e43b 8298 403c 7c57 173c
000002d0: 8c34 183c f9be f03b 9a24 373c ae41 f03b
000002e0: 00c1 fb3b bd50 e73b c85c 083c cbd2 7d3b
000002f0: e7e4 433b 0dce 693b 1787 3e3b 6555 993b
00000300: 44d4 a73b ce65 b63b 51db 8a3b 53bd 903b
00000310: dbfa 453b bfdf 3c3b 6ea4 193b 7f28 073b
00000320: 816b ee3a c4f6 c13a 8cd6 073b 4eac 093b
00000330: 563e ed3a 0c98 cb3a 58a4 173b 44a6 d33a
00000340: e94f 593b 43cb 2b3b b224 003b 2030 033b
00000350: 1ae3 033b 5a91 213b 11b6 0d3b 29e6 743a
00000360: 04cc d13a 1a6e e03a 0bd0 d53a 551a 803a
00000370: 282c 973a 413e e43a d6b2 d43a 5099 b53a
00000380: 03ab 8b3a cc9c 843a 8bc6 9d3a 3d4a 3f3a
00000390: 23cf 753a a60a 213a 5b63 423a 4f13 813a
000003a0: 158e 573a f59b 2f3a b4da 443a 660a 473a
000003b0: bb42 a139 73d5 213a 922e 003a b46a 133a
000003c0: e2d8 a339 0348 7839 f5c9 ab39 580f 063a
000003d0: 3eff 003a ce10 d139 049a 1a3a 49d9 9e3a
000003e0: e493 a13a 4895 8e3a 87c9 873a f91f 963a
000003f0: b777 9c3a f8a4 793a 6c55 283a dfad 4a3a

batch_normalization_1/batchnorm/sub f4 [768]
-0.31791213 -0.09813082 0.123211265 0.115991816 0.16102229 0.13646495 0.09437196 0.08908437
0.08028252 0.09975791 0.12189224 0.09928428 0.14442262 0.13765797 0.16666539 0.119876966
0.11023593 -0.0020820796 -0.024976969 -0.038928986 -0.00059488416 -0.124035 -0.09469235 -0.18530285
-0.2003578 -0.24798188 -0.20857045 -0.20328018 -0.19082677 -0.19690213 -0.23573014 -0.28686738
-0.23566067 -0.36771643 -0.40888935 -0.37346834 -0.3685696 -0.40305197 -0.43698144 -0.38034362
-0.31770426 -0.24794249 -0.28150892 -0.31854945 -0.2967419 -0.38510114 -0.25834566 -0.10542202
-0.022718191 -0.0029046535 -0.007181555 -0.085872486 -0.12080617 -0.21800774 -0.29022938 -0.33725318
-0.31738773 -0.24369054 -0.3451011 -0.3908162 -0.32025135 -0.413468 -0.42121363 -0.48821753
-0.501107 -0.48317116 -0.48897952 -0.59741956 -0.47636145 -0.49180633 -0.6013785 -0.5950532
-0.68895835 -0.68518573 -0.7869113 -0.73124987 -0.8546859 -1.1209573 -1.0869275 -1.0088183
-1.095938 -1.0272162 -1.14632 -1.0705321 -0.9267176 -1.0221828 -1.014774 -0.7887572
-0.72001314 -0.71063346 -0.75418204 -0.8035946 -0.53937626 -0.46953008 -0.5766593 -0.39794138
-0.39427194 -0.28036338 -0.29272807 -0.17693198 -0.14518298 -0.07714329 -0.15661857 -0.10315353
-0.06688974 -0.33159816 -0.49011636 -0.35251206 -0.086104184 -0.3076837 -0.14215377 -0.1400353
-0.20532703 -0.3061331 -0.24483661 -0.32260412 -0.4153794 -0.4113196 -0.22911865 -0.39780384
-0.3748106 -0.21384479 -0.28849334 -0.39362168 -0.44256306 -0.2700047 -0.46791893 -0.5037945
-0.5105948 -0.60997945 -0.21114765 -0.3624092 -0.24162954 -0.19644414 -0.48515683 -0.32631433
-0.23363692 -0.069575965 -0.34226754 -0.32278568 -0.33711302 -0.4258091 -0.25499174 -0.33523932
-0.31242037 -0.2862494 -0.39041543 -0.17190237 -0.20926788 -0.4232419 -0.23520981 -0.17382781
-0.33389252 -0.22666857 -0.027189113 -0.17628029 -0.05210954 -0.22852808 -0.14278737 -0.17736623
-0.21307465 -0.074504785 -0.22189288 -0.2572625 -0.14874917 -0.11286773 -0.32451552 -0.33604947
-0.74472916 -0.49730414 -0.5377422 -0.45845574 -0.50097895 -0.22928298 -0.29078114 -0.12013945
-0.3625324 -0.2932074 -0.34468988 -0.26472142 -0.37463057 -0.2562247 -0.40269488 -0.38251385
-0.46228075 -0.45998985 -0.4629045 -0.15701973 -0.23665997 -0.21793875 -0.25045863 -0.16523808
-0.20204793 -0.16695337 -0.16228706 -0.4012026 -0.15771192 -0.2500772 -0.27613544 -0.3665893
-0.33835155 -0.1591953 -0.14646251 -0.16980687 -0.20434636 -0.25761467 -0.2289636 -0.3637939
-0.2977919 -0.13517098 -0.13759382 0.056489773 -0.016751394 -0.0015444607 -0.06576012 -0.05878528
-0.12629265 -0.29050612 -0.18087952 -0.16891591 -0.2962126 -0.3006665 -0.34236044 -0.3552571
-0.17747405 -0.27188784 -0.4261666 -0.17367926 -0.06279303 -0.03753586 -0.17944393 -0.2524818
-0.16829836 -0.08082239 -0.13282943 -0.2522642 0.057297684 -0.015477806 0.048858255 0.1948609
0.12124026 0.02414444 0.030119017 0.0573297 0.16398339 0.14367422 0.13227707 0.052711457
-0.04107754 -0.008017197 0.20678306 0.35418272 0.14243416 0.1252778 0.19513732 0.23768935
00000000: 61c5 a2be d0f8 c8bd 3056 fc3d 1e8d ed3d
00000010: 07e3 243e 78bd 0b3e 1646 c13d de71 b63d
00000020: 296b a43d e04d cc3d a4a2 f93d 8e55 cb3d
00000030: 86e3 133e 36f6 0c3e 55aa 2a3e 0e82 f53d
00000040: 60c3 e13d 8073 08bb 809c ccbc 0074 1fbd
00000050: 00f2 1bba 1006 febd 10ee c1bd 08c0 3dbe
00000060: 982a 4dbe f6ee 7dbe 7e93 55be ae28 50be
00000070: 1868 43be b6a0 49be 3e63 71be 48e0 92be
00000080: 0851 71be 5445 bcbe f259 d1be 3e37 bfbe
00000090: 28b5 bcbe d45c cebe 08bc dfbe 66bc c2be
000000a0: 22aa a2be a3e4 7dbe f021 90be ea18 a3be
000000b0: 8eee 97be fa2b c5be e245 84be 80e7 d7bd
000000c0: 801b babc 005c 3ebb 4053 ebbb eadd afbd
000000d0: 3a69 f7bd 6c3d 5fbe f298 94be 73ac acbe
000000e0: a580 a2be 038a 79be 17b1 b0be 1019 c8be
000000f0: fcf7 a3be 14b2 d3be 50a9 d7be a6f7 f9be
00000100: 8c48 00bf 3662 f7be 865b fabe 7df0 18bf
00000110: a6e5 f3be 0ace fbbe f1f3 19bf 6855 18bf
00000120: 935f 30bf 5568 2fbf 0573 49bf 3133 3bbf
00000130: b2cc 5abf 877b 8fbf 7120 8bbf f520 81bf
00000140: b247 8cbf d27b 83bf 9dba 92bf 3207 89bf
00000150: 5d3d 6dbf e3d6 82bf 1de4 81bf feeb 49bf
00000160: c852 38bf 13ec 35bf 1312 41bf 60b8 4dbf
00000170: 9014 0abf 3f66 f0be f29f 13bf f9be cbbe
00000180: 03de c9be ca8b 8fbe 74e0 95be a82d 35be
00000190: d9aa 14be 4dfd 9dbd 9e60 20be 2842 d3bd
000001a0: 7dfd 88bd 3cc7 a9be 88f0 fabe 767c b4be
000001b0: 6457 b0bd b888 9dbe c290 11be 6a65 0fbe
000001c0: 4041 52be 7abd 9cbe 73b6 7abe 5e2c a5be
000001d0: 9cac d4be 7c98 d2be 149e 6abe f2ac cbbe
000001e0: 2de7 bfbe 21fa 5abe 66b5 93be c888 c9be
000001f0: a097 e2be 0e3e 8abe 1293 efbe adf8 00bf
00000200: 57b6 02bf 9d27 1cbf 1737 58be b38d b9be
00000210: bc6d 77be a728 49be 7a66 f8be ac12 a7be
00000220: 843e 6fbe d87d 8ebd b13d afbe 2a44 a5be
00000230: 149a acbe a603 dabe 478e 82be 7da4 abbe
00000240: 90f5 9fbe 488f 92be 88e4 c7be 2d07 30be
00000250: 524a 56be 2ab3 d8be d7da 70be ebff 31be
00000260: f6f3 aabe ce1b 68be b4bb debc d282 34be
00000270: d070 55bd 4403 6abe da36 12be 7e9f 35be
00000280: 3e30 5abe f795 98bd e337 63be e9b7 83be
00000290: b451 18be 3227 e7bd e626 a6be ad0e acbe
000002a0: 92a6 3ebf a69e febe 79a9 09bf b6ba eabe
000002b0: 2840 00bf 28c9 6abe 44e1 94be ac0b f6bd
000002c0: d99d b9be 481f 96be 317b b0be 9189 87be
000002d0: 94cf bfbe e22f 83be 062e cebe dbd8 c3be
000002e0: 10b0 ecbe ca83 ebbe d201 edbe c8c9 20be
000002f0: fe56 72be 562b 5fbe 1d3c 80be 2c34 29be
00000300: a7e5 4ebe d3f5 2abe 942e 26be 6d6a cdbe
00000310: 3c7f 21be 1e0a 80be a061 8dbe 98b1 bbbe
00000320: 6a3c adbe 1804 23be 45fa 15be dae1 2dbe
00000330: 2c40 51be 12e6 83be 6f75 6abe 3243 babe
00000340: 2e78 98be 436a 0abe 65e5 0cbe d261 673d
00000350: 383a 89bc 806f caba 3ead 86bd d5c8 70bd
00000360: dc52 01be 38bd 94be 7b38 39be 4bf8 2cbe
00000370: 2ea9 97be f6f0 99be de49 afbe 42e4 b5be
00000380: c2bb 35be e234 8bbe 8232 dabe fad8 31be
00000390: a299 80bd 34bf 19bd 26c0 37be 4b45 81be
000003a0: 6856 2cbe 3686 a5bd 7004 08be c628 81be
000003b0: fab0 6a3d a096 7dbc 981f 483d 9e89 473e
000003c0: d04c f83d 90ca c53c 28bc f63c 8cd2 6a3d
000003d0: 43eb 273e 561f 133e a473 073e f8e7 573d
000003e0: ec40 28bd 905a 03bc f0be 533e 7057 b53e
000003f0: 43da 113e d348 003e 14d2 473e d664 733e

batch_normalization_2/batchnorm/mul f4 [768]
0.00032044775 0.044207953 -0.00015168222 0.0004637866 0.0351102 0.03978875 0.0025890626 3.947272e-05
0.00045719085 0.07931375 0.022389514 0.00017318779 0.012434935 -0.0004608982 -5.802053e-05 0.0005307835
3.6083782e-06 1.5296231e-05 0.0005517556 -4.4552486e-05 0.000114211456 0.000303034 -0.00029366417 0.00039956428
2.5553203e-05 0.0007777106 0.0005480216 0.0011118572 0.0007373695 0.0006292825 0.0012009959 0.00018861309
0.0034698343 0.0018341523 0.0006965399 0.0006506191 0.0006682109 0.0015280396 0.0026044867 0.0023173238
0.0005048029 0.003882359 0.00039982595 0.005179122 0.0013329 0.0014259005 0.0009817944 0.0011326785
0.00031640328 0.00073297956 -0.0005100362 0.0007532035 0.029039724 0.011201883 -0.00044518683 0.007491969
0.00033635905 -0.00023093581 0.0034952827 -6.094117e-05 1.693676e-05 0.0002573947 0.02577033 0.00033697113
0.104014166 0.021274343 0.11542179 0.18987837 0.00029238057 0.21762398 0.0015369151 0.019246858
0.0042661135 0.00056027045 0.14710312 0.0013221784 0.04361466 0.00049254607 0.08801749 0.001812845
0.1587802 0.010207896 0.11868957 0.17058408 0.8832154 -0.0006841135 0.2117411 0.2451394
0.06804178 0.0067716413 0.134042 0.14718984 0.03400346 0.00058168994 0.035462372 0.08814875
0.012344066 0.00873174 0.006108207 0.0003097563 0.016548717 0.1933329 0.06997036 0.0046534003
0.0008961472 0.8475546 0.0013007764 0.010756818 0.023083184 0.09885514 0.38117957 0.72441554
0.008967583 0.0027753362 0.1614401 0.34921452 0.001205009 0.1389937 0.078591004 -0.00014124045
0.0030461373 0.0020132181 0.00048419874 1.267712e-06 0.00020044117 0.013721236 0.27547562 0.00022428515
0.33808437 0.0710647 0.057233673 0.041828968 0.30837676 0.29478255 0.012465085 0.16695294
0.0005119536 0.20777193 0.08460526 0.06066521 0.19505072 0.21881144 0.0633565 0.00022937957
0.1980734 0.00078315265 1.1403667e-05 0.00071649475 0.01915901 0.28792724 -0.00019270366 0.22246817
0.017525032 0.17545034 0.0004505437 0.00050231506 0.0029662468 0.0006414248 0.009541348 0.00029377898
0.18442488 0.00084671116 0.00040508693 0.01562985 0.015573427 0.19874592 0.077949725 0.0054603918
0.032109454 0.18865977 0.00053818827 0.26878372 0.014561753 0.0059621176 0.021644956 0.0023246126
0.018874273 3.0344307e-05 0.0011488735 0.27874514 0.13634232 0.007818253 0.12027446 0.746653
0.0012064752 0.50261873 0.06001031 0.0011674304 2.6136084e-05 0.39004213 0.16759343 0.002402999
0.022571642 0.24968399 0.6096419 0.012647728 0.05359878 0.20985934 0.0013054666 0.24477331
0.0020802703 0.5860531 0.40045273 0.1089991 0.3589713 -0.00015676458 0.2228938 -0.00087568955
0.109802745 0.40907025 0.5186911 1.4218204 0.006624583 1.3396742 1.0319744 0.24391675
0.0084027685 0.5846652 0.71358615 0.07971161 0.41307512 0.0014736027 0.2914649 0.59799904
0.09608744 0.19704278 0.00022912002 0.72464395 0.3880846 0.6531678 0.5249848 0.003060601
0.09350812 0.00064025825 0.98019797 0.110465795 0.38654205 0.5666075 0.46186024 0.0009984048
0.002512256 0.19283265 0.29802033 0.12992026 0.0012044387 0.13713165 0.01143349 0.0036145323
0.047176506 0.026642464 0.0010915113 0.042599924 0.0057925833 0.04778587 0.3706522 31.622774
00000000: c501 a839 6613 353d e30c 1fb9 6228 f339
00000010: b7cf 0f3d 87f9 223d 43ad 293b 838f 2538
00000020: 1eb3 ef39 3f6f a23d 376a b73c be99 3539
00000030: e6bb 4b3c b6a4 f1b9 125b 73b8 4724 0b3a
00000040: 7727 7236 6850 8037 b1a3 103a dedd 3ab8
00000050: cf84 ef38 89e0 9e39 f0f6 99b9 9c7c d139
00000060: 165b d637 46df 4b3a 1ba9 0f3a bdbb 913a
00000070: 084c 413a 6ff6 243a bc6a 9d3a 71c6 4539
00000080: 2966 633b f067 f03a 0098 363a 4f8e 2a3a
00000090: e02a 2f3a 8048 c83a 09b0 2a3b 3ede 173b
000000a0: c054 043a 2d6f 7e3b bb9f d139 a0b5 a93b
000000b0: b4b4 ae3a 48e5 ba3a 8eaf 803a 6276 943a
000000c0: eee2 a539 6d25 403a f3b3 05ba a272 453a
000000d0: b7e4 ed3c 1a88 373c f767 e9b9 317f f53b
000000e0: 5959 b039 5c27 72b9 1d11 653b 159b 7fb8
000000f0: 6a13 8e37 eff2 8639 4d1c d33c 80ab b039
00000100: 6105 d53d 8847 ae3c 4262 ec3d 7a6f 423e
00000110: a84a 9939 d2d8 5e3e 5072 c93a 96ab 9d3c
00000120: c1ca 8b3b 1ddf 123a 33a2 163e f24c ad3a
00000130: 49a5 323d 351e 013a 8442 b43d fc9c ed3a
00000140: 4797 223e 053f 273c 8413 f33d 98ad 2e3e
00000150: 681a 623f 1456 33ba a9d2 583e d305 7b3e
00000160: 7d59 8b3d a5e4 dd3b 4e42 093e efb8 163e
00000170: 3647 0b3d 8d7c 183a fe40 113d 5587 b43d
00000180: c43e 4a3c 920f 0f3c 5b27 c83b c966 a239
00000190: 2d91 873c 0ff9 453e 9f4c 8f3d 8d7b 983b
000001a0: 6ceb 6a3a 57f9 583f d07e aa3a 5d3d 303c
000001b0: f218 bd3c 9074 ca3d f829 c33e 4c73 393f
000001c0: c5ec 123c 6ae2 353b 8e50 253e 3fcc b23e
000001d0: 64f1 9d3a 5d54 0e3e 52f4 a03d f219 14b9
000001e0: b4a1 473b 32f0 033b 0edc fd39 4126 aa35
000001f0: 842d 5239 09cf 603c 240b 8d3e 162e 6b39
00000200: 6519 ad3e 5f8a 913d db6d 6a3d da54 2b3d
00000210: 8fe3 9d3e bded 963e 5b3a 4c3c b6f5 2a3e
00000220: a034 063a 2ac2 543e 8645 ad3d 157c 783d
00000230: 60bb 473e 1b10 603e 0dc1 813d 9c85 7039
00000240: c1d3 4a3e 7c4c 4d3a 6052 3f37 26d3 3b3a
00000250: 5bf3 9c3c 336b 933e 7f10 4ab9 b2ce 633e
00000260: a890 8f3c 41a9 333e f436 ec39 cbad 033a
00000270: 5d65 423b 4a25 283a 5053 1c3c 5906 9a39
00000280: e0d9 3c3e d3f5 5d3a d961 d439 2c0a 803c
00000290: b027 7f3c 0d84 4b3e 1ba4 9f3d 16ed b23b
000002a0: 3485 033d 0730 413e 3415 0d3a 059e 893e
000002b0: 6b94 6e3c de5d c33b c350 b13c 8758 183b
000002c0: 389e 9a3c e78b fe37 cc95 963a afb7 8e3e
000002d0: 529d 0b3e 2118 003c 7552 f63d a724 3f3f
000002e0: 9722 9e3a 9fab 003f 5fcd 753d 7704 993a
000002f0: d03e db37 9ab3 c73e 9d9d 2b3e a27b 1d3b
00000300: 2ae8 b83c 29ad 7f3e 7e11 1c3f 6b38 4f3c
00000310: 658a 5b3d 5ee5 563e 311c ab3a dba5 7a3e
00000320: 2555 083b 9307 163f 2408 cd3e ec3a df3d
00000330: 16cb b73e 2c61 24b9 463e 643e 888e 65ba
00000340: 43e0 e03d a871 d13e f1c8 043f 36fe b53f
00000350: 0813 d93b 727a ab3f bd17 843f 50c5 793e
00000360: c4ab 093c 9eac 153f 95ad 363f d73f a33d
00000370: 957e d33e e725 c13a e33a 953e 7716 193f
00000380: 7ec9 c43d 95c5 493e f03f 7039 4482 393f
00000390: 06b3 c63e 0136 273f 6765 063f 5d94 483b
000003a0: 2f81 bf3d 01d7 273a 41ee 7a3f e43b e23d
000003b0: d7e8 c53e 300d 113f f278 ec3e e8dc 823a
000003c0: a9a4 243b ec75 453e 1f96 983e d109 053e
000003d0: 42de 9d3a 3d6c 0c3e 8853 3b3c cae1 6c3b
000003e0: 273c 413d 4c41 da3c 0b11 8f3a 427d 2e3d
000003f0: b6cf bd3b 1ebb 433d 20c6 bd3e 71fb fc41

batch_normalization_2/batchnorm/sub f4 [768]
-0.20536506 -0.8909836 -0.001042722 -0.054798175 -0.7151841 -0.93167746 -0.22539821 -0.004876738
-0.06843731 -1.4746566 -0.89376116 -0.032061934 -0.50685495 0.016024625 0.0020469923 -0.15885922
0.0038490752 0.003032893 -0.27600992 -0.0023305903 -0.004550282 -0.021077123 0.015984071 -0.0986958
-0.0060105156 -0.0879888 -0.23132136 -0.18375356 -0.33758312 -0.27686685 -0.22911152 -0.049355917
-0.16487205 -0.09224412 -0.07587153 -0.13243324 -0.26868802 -0.038229004 -0.013977006 -0.03100261
-0.007678561 -0.07001622 -0.0758217 -0.08762663 0.008358255 0.110946745 0.039355043 0.0854056
-0.016213506 -0.071664214 0.045059767 -0.033487678 -0.5391371 -0.49663526 0.055394746 -0.31438842
-0.10666474 0.0077959364 -0.20702748 0.028558206 -0.006062055 -0.027436757 -0.24850085 -0.029285269
-0.36789593 -0.42904693 -0.44342852 -0.68007785 -0.02374332 -0.7605343 -0.010678381 -0.25131056
-0.2953102 -0.12513226 -0.7730637 -0.043050423 -0.48083186 -0.06956894 -0.4037998 -0.09387099
-1.075654 -0.2359545 -1.0161777 -0.92228025 -1.4239985 0.02794893 -0.8397013 -0.87213856
-0.5841921 -0.23640797 -0.43409806 -0.34312445 -0.5477391 -0.030104905 -0.42632303 -0.35746038
-0.22019365 -0.12514506 -0.26663935 -0.074280195 -0.4704189 -0.18010795 -0.66218066 -0.11203616
-0.090586185 -1.004143 -0.04239784 -0.3905976 -0.22021085 -0.4994757 -0.6239928 -1.2156847
-0.31130615 -0.24703282 -0.6384709 -0.8072966 -0.047003146 -0.597887 -0.25924534 -0.00017055322
-0.04799221 -0.0055454313 -0.013029095 -0.00021702392 0.003262309 -0.09667863 -0.4138325 -0.091095805
-0.7227534 -0.6967474 -0.67687696 -0.6605153 -1.4914913 -1.6026512 -0.5331108 -1.2937914
0.0343153 -2.044827 -1.991102 -1.3225945 -2.53133 -2.7507844 -1.2608228 -0.1221212
-2.4090064 -0.12460601 -0.0038572494 -0.03583891 -0.81719446 -2.2041795 0.010098636 -2.3547783
-0.49359462 -2.2311473 0.0057770815 -0.024670698 -0.35870272 -0.047116704 -0.5164783 -0.08467308
-2.9334087 -0.14423725 0.008908281 -0.32508168 -0.31012064 -2.130363 -1.0854975 0.004491456
-0.29485542 -0.6096929 0.046299607 -1.6089818 -0.06555052 0.029211096 -0.13225588 0.024730116
-0.23401651 -0.0034332683 -0.030881118 -1.0792286 -0.38929424 0.1525413 -0.29277244 -0.8975392
-0.00067139696 -0.35603094 -0.015988111 0.03653471 -0.0007507531 -0.2815382 -0.32494846 0.12365872
0.0057873875 -0.3914194 -0.67371845 0.03130655 -0.07128431 -0.4943154 -0.1333712 -0.5302713
0.017863337 -1.1818473 -0.6053035 -0.12078875 -0.63506854 -0.0071654664 -0.4541764 0.00345864
-0.34353864 -0.77699536 -0.8295803 -1.8695546 -0.16883627 -1.9428091 -1.6169032 -0.89459395
0.016212668 -1.852918 -2.1554122 -0.4329276 -1.7747058 -0.011605263 -1.6010158 -3.05125
-0.85482574 -2.046796 0.0068382337 -3.716152 -2.521549 -3.1140099 -3.000186 -0.04296881
-0.87286913 -0.061616346 -2.8825092 -1.203649 -2.0381563 -1.8838788 -1.5958127 0.016934946
-0.25992927 -0.6039208 -0.95400345 -0.97397035 -0.03662453 -0.7621376 -0.31024155 -0.16648237
-0.57586277 -0.37966442 -0.22789899 -0.53650635 -0.32495648 -0.7912897 -2.0808585 0.1235157
00000000: 384b 52be 8017 64bf f2ab 88ba 0d74 60bd
00000010: 4e16 37bf 6a82 6ebf cace 66be 0bcd 9fbb
00000020: dc28 8cbd 8cc1 bcbf 88cd 64bf 6053 03bd
00000030: 3fc1 01bf 1346 833c d526 063b feab 22be
00000040: c440 7c3b 80c3 463b 2c51 8dbe d1bc 18bb
00000050: 881a 95bb eea9 acbc 07f1 823c 0621 cabd
00000060: dcf3 c4bb 7933 b4bd 82df 6cbe e529 3cbe
00000070: b2d7 acbe 7ec1 8dbe 369c 6abe 6e29 4abd
00000080: 38d4 28be 7cea bcbd 8862 9bbd 949c 07be
00000090: 7a91 89be 0496 1cbd d0ff 64bc 30f9 fdbc
000000a0: 709c fbbb aa64 8fbd 6848 9bbd 9775 b3bd
000000b0: 10f1 083c 0c38 e33d c132 213d 22e9 ae3d
000000c0: 30d2 84bc b0c4 92bd 9790 383d 602a 09bd
000000d0: e404 0abf fa46 febe 9ae5 623d 85f7 a0be
000000e0: 0b73 dabd 0e75 ff3b 03ff 53be e6f2 e93c
000000f0: 34a4 c6bb 0dc3 e0bc 0277 7ebe a9e7 efbc
00000100: db5c bcbe 0aac dbbe 1009 e3be 9519 2ebf
00000110: 5a81 c2bc 60b2 42bf 60f4 2ebc c7ab 80be
00000120: e632 97be ac22 00be 81e7 45bf a455 30bd
00000130: 982f f6be 297a 8ebd d9be cebe 6f3f c0bd
00000140: 08af 89bf 0e9e 71be 1c12 82bf 8f1a 6cbf
00000150: 9545 b6bf 28f5 e43c aaf6 56bf 7944 5fbf
00000160: 9d8d 15bf ee14 72be 1a42 debe 02ae afbe
00000170: a138 0cbf 909e f6bc 0347 dabe 0c05 b7be
00000180: 727a 61be 0726 00be f484 88be 3720 98bd
00000190: bfda f0be 386e 38be ac84 29bf 3773 e5bd
000001a0: 4085 b9bd c287 80bf 5ca9 2dbd 69fc c7be
000001b0: f47e 61be 47bb ffbe febd 1fbf 8e9b 9bbf
000001c0: 8563 9fbe 2cf6 7cbe d472 23bf fdaa 4ebf
000001d0: 5f86 40bd 1f0f 19bf cebb 84be 88d6 32b9
000001e0: 7b93 44bd 73b6 b5bb fc77 55bc ea90 63b9
000001f0: 76cc 553b 72ff c5bd dae1 d3be 7090 babd
00000200: 5e06 39bf 0a5e 32bf cf47 2dbf 8817 29bf
00000210: 30e9 bebf ad23 cdbf f379 08bf f59a a5bf
00000220: 338e 0c3d 72de 02c0 6edc febf c74a a9bf
00000230: 5001 22c0 da0c 30c0 a462 a1bf ae1a fabd
00000240: 292d 1ac0 7031 ffbd e8c9 7cbb d2cb 12bd
00000250: a833 51bf 4711 0dc0 c074 253c b0b4 16c0
00000260: 6fb8 fcbe 1ecb 0ec0 ac4d bd3b 341a cabc
00000270: e2a7 b7be 72fd 40bd ec37 04bf 1469 adbd
00000280: f8bc 3bc0 eeb2 13be 0af4 113c 1b71 a6be
00000290: 22c8 9ebe de57 08c0 95f1 8abf 102d 933b
000002a0: 4af7 96be d514 1cbf a8a4 3d3d 1ef3 cdbf
000002b0: 5a3f 86bd 1c4c ef3c 166e 07be d096 ca3c
000002c0: 06a2 6fbe af00 61bb 66fa fcbc 2a24 8abf
000002d0: 9351 c7be c933 1c3e 45e6 95be 21c5 65bf
000002e0: b000 30ba b049 b6be 80f9 82bc 6ca5 153d
000002f0: 30ce 44ba c625 90be a55f a6be c840 fd3d
00000300: 20a4 bd3b 2068 c8be d078 2cbf 4c3b 003d
00000310: 82fd 91bd e816 fdbe 7692 08be dcbf 07bf
00000320: 2256 923c c646 97bf 2cf5 1abf 1860 f7bd
00000330: da93 22bf 4acc eabb cf89 e8be 5aaa 623b
00000340: 4ce4 afbe 2be9 46bf 605f 54bf 914d efbf
00000350: 6ae3 2cbe f8ad f8bf aff6 cebf 1c04 65bf
00000360: 6ed0 843c 6b2c edbf 46f2 09c0 b0a8 ddbe
00000370: 8f29 e3bf 0024 3ebc 16ee ccbf ae47 43c0
00000380: dcd5 5abf b5fe 02c0 4313 e03b 6fd5 6dc0
00000390: 0f61 21c0 f04b 47c0 0c03 40c0 1000 30bd
000003a0: 5a74 5fbf 6c61 7cbd 087b 38c0 2c11 9abf
000003b0: 2771 02c0 f122 f1bf 9743 ccbf 28bb 8a3c
000003c0: 7315 85be 8e9a 1abf 9239 74bf 1f56 79bf
000003d0: 9a03 16bd 731b 43bf fbd7 9ebe 5b7a 2abe
000003e0: be6b 13bf 6063 c2be 5a5e 69be 7b58 09bf
000003f0: b260 a6be f691 4abf c92c 05c0 cdf5 fc3d

dense_1/MatMul_bias f4 [64]
0.26246285 0.07021225 0.028677883 -0.03161219 -0.054501124 0.07502616 0.02822236 0.0034390842
-0.052850306 0.033342756 0.15455842 -0.11705947 -0.07218247 -0.12685992 0.11142388 0.03439343
0.058826346 0.04413073 0.03558412 0.05948704 0.00718887 -0.12637258 0.027952127 0.07892564
0.108999334 0.049933657 0.028485361 -0.09377625 -0.10223169 -0.031016873 0.03605221 0.011432804
-0.018493429 0.1033519 0.05564408 0.036106046 -0.042613827 -0.028886434 -0.037352644 0.24272275
-0.041383732 -0.059738938 -0.10308954 -0.101789415 -0.054101337 -0.047041584 -0.18239267 0.09781626
-0.024721263 -0.058434777 0.03546508 0.15542042 4.7308753e-05 0.13354874 0.12162375 -0.02421469
0.024499837 -0.089449994 0.026453583 -0.028748624 0.09507679 -0.007548299 -0.021399057 -0.027225416
00000000: 8861 863e 71cb 8f3d e1ed ea3c c97b 01bd
00000010: 923c 5fbd 51a7 993d 9432 e73c 4262 613b
00000020: 9079 58bd 6a92 083d 9044 1e3e e0bc efbd
00000030: 67d4 93bd 91e7 01be 3432 e43d 20e0 0c3d
00000040: e5f3 703d 6dc2 343d a7c0 113d afa8 733d
00000050: 9d90 eb3b d067 01be dcfb e43c c4a3 a13d
00000060: 0b3b df3d 3c87 4c3d 225a e93c c30d c0bd
00000070: d95e d1bd 1917 febc 7bab 133d a850 3b3c
00000080: 887f 97bc 29aa d33d 0ceb 633d efe3 133d
00000090: d68b 2ebd 3ea3 ecbc 16ff 18bd 508c 783e
000000a0: fd81 29bd d1b0 74bd 9c20 d3bd f876 d0bd
000000b0: 5d99 5dbd adae 40bd 25c5 3abe e453 c83d
000000c0: 3f84 cabc 4e59 6fbd d543 113d 8826 1f3e
000000d0: 636d 4638 00c1 083e df15 f93d e35d c6bc
000000e0: e2b3 c83c 8f31 b7bd 2fb5 d83c 3c82 ebbc
000000f0: 9fb7 c23d b957 f7bb 134d afbc d607 dfbc

dense_1/kernel/transpose f4 [64, 768]
-0.00015888903 -0.000106883395 -7.0035676e-05 -5.7181736e-05 -4.0926425e-05 -2.9700703e-05 -1.5626956e-05 -2.7563683e-06
6.2698773e-06 4.669274e-06 -1.1306466e-05 -1.0628104e-05 -2.1943812e-05 -2.4479457e-05 -3.2797238e-05 -3.4077726e-05
-3.4840115e-05 -4.2990716e-05 -4.2493783e-05 -5.539358e-05 -6.258751e-05 -5.88932e-05 -5.024972e-05 -3.8185626e-05
-2.5243557e-05 4.053901e-05 -1.0561456e-05 6.164471e-05 9.427099e-05 3.60762e-05 6.766436e-05 8.139151e-05
0.000111931215 0.00012651947 7.6902965e-05 0.000109741966 7.140162e-05 7.393441e-05 7.705327e-05 6.6567634e-05
5.9575203e-05 4.1154464e-05 4.5653695e-05 3.766446e-05 2.7712858e-05 2.2082102e-05 1.697673e-05 -2.4394689e-05
-4.4997483e-05 -4.2960088e-05 -3.9882096e-05 -4.5687507e-06 1.5336325e-05 1.6346565e-05 2.2065926e-05 2.4881001e-05
-5.5508513e-06 -3.675002e-05 -1.752636e-05 -1.535597e-05 -4.503366e-05 -3.404169e-05 -7.4804157e-06 1.2765938e-06
-2.783794e-07 1.4733907e-05 1.203843e-05 1.9199048e-05 -1.8794039e-05 -2.0389152e-05 1.1631802e-05 2.5888272e-05
2.7465345e-05 3.910854e-05 2.9910332e-05 3.416928e-05 2.7496662e-05 4.5248817e-05 1.9387031e-05 6.9669935e-05
5.8646205e-05 1.7541512e-05 4.153434e-05 2.7503032e-05 9.234338e-06 -6.173791e-07 2.7020948e-05 4.952018e-06
-3.2944285e-05 -4.0879993e-05 -1.1517469e-05 -1.7849681e-05 -1.5022525e-05 -2.0512509e-05 1.6401638e-05 -1.3069189e-05
-1.0895779e-05 -2.8036535e-05 -2.0795844e-05 -2.331143e-05 -2.807775e-05 -3.0618678e-05 -2.2791348e-05 -2.088696e-05
-3.205986e-05 4.180816e-06 1.42127055e-05 2.3659716e-06 -7.913536e-06 -1.0655717e-07 -2.410885e-05 -2.422358e-05
-3.042462e-05 -4.3737314e-06 -9.694439e-06 -1.0501779e-05 9.892417e-06 3.5751625e-06 -2.1198794e-05 1.4105985e-05
6.7518476e-07 -2.2130718e-05 -4.5891156e-06 3.3564677e-06 5.3244526e-07 -3.096066e-05 -4.5677953e-06 6.351063e-07
-1.847359e-05 1.0405762e-05 -5.509398e-06 7.743647e-06 -4.881248e-06 2.6866248e-06 1.4798862e-05 6.544535e-06
6.071551e-07 -9.696714e-06 5.2901887e-06 -1.4962267e-06 -1.1782333e-06 -5.7349553e-08 -1.607711e-05 -2.2914945e-05
-1.7798675e-05 -6.3723974e-06 -1.0738963e-05 1.775454e-06 6.671366e-06 1.1562884e-05 1.3906458e-06 -7.958023e-06
2.1867809e-06 -2.1724325e-06 2.5033955e-06 -3.0356692e-05 -3.0915392e-06 -3.4337012e-05 -3.2015574e-05 -3.15989e-05
-2.6845035e-05 -1.4895177e-05 -4.0470197e-05 -4.8807975e-05 -6.355524e-05 -4.7328274e-05 -8.153504e-05 -6.110109e-05
-4.2536845e-05 -4.2131138e-05 -5.0749793e-05 -4.0787352e-05 -7.476571e-05 -6.434042e-05 -6.248696e-05 -4.6282315e-05
-4.2921125e-05 -4.060508e-05 -4.272963e-05 -3.1596377e-05 5.16259e-07 -3.31832e-05 -2.7462665e-05 -3.160527e-05
-2.7336848e-05 -1.29265445e-05 2.901827e-06 -2.434769e-05 8.544245e-06 2.5970148e-06 -5.3829876e-06 -3.2395837e-05
-1.8598817e-05 -3.9806924e-05 -3.6717072e-05 -8.824764e-06 -4.179451e-05 -3.017654e-05 -1.9124433e-05 -2.0693527e-05
-1.8717996e-05 -9.51209e-06 -5.1232924e-05 -1.3275556e-05 4.3888126e-06 1.2690339e-05 1.2578576e-05 2.4214012e-05
-2.8096629e-06 -1.0273281e-05 -5.3729555e-06 -1.4652676e-05 -4.022008e-06 -2.481139e-05 5.2561245e-07 1.7042716e-05
2.9531718e-06 4.0361015e-06 -1.0967863e-05 3.0848933e-06 1.6043132e-05 8.758494e-06 -6.2212325e-06 4.7349376e-06
-7.740771e-06 -3.6028473e-06 1.670852e-05 1.83055e-05 6.90059e-06 4.442677e-06 2.5349518e-05 3.192938e-05
1.424781e-05 -6.554016e-06 -2.7308033e-05 3.5849139e-06 -2.4382682e-05 -4.162367e-05 7.312358e-06 7.1304385e-05
1.4142889e-05 -1.3241263e-05 -6.4665087e-06 -1.2397276e-05 -2.4459205e-05 -3.1288342e-05 -3.6721314e-05 -4.0245362e-05
-3.8165956e-05 -7.570503e-05 -0.00020308407 -0.00015984355 -1.4161282e-05 -1.06662055e-05 -2.568308e-05 -5.819075e-05
00000000: 739b 26b9 9626 e0b8 1ee0 92b8 6cd6 6fb8
00000010: 6aa8 2bb8 c625 f9b7 a216 83b7 0cfa 38b6
00000020: d661 d236 c2ac 9c36 e7b0 3db7 5c4f 32b7
00000030: fa13 b8b7 3c59 cdb7 c48f 09b8 aeee 0eb8
00000040: 4a21 12b8 ee50 34b8 5a3b 32b8 6756 68b8
00000050: 6a41 83b8 1804 77b8 3ac3 52b8 8129 20b8
00000060: 20c2 d3b7 6e08 2a38 1c31 31b7 4047 8138
00000070: 5ab3 c538 8650 1738 07e7 8d38 bcb0 aa38
00000080: 9dbc ea38 50aa 0439 f746 a138 4525 e638
00000090: 74bd 9538 3c0d 9b38 a997 a138 3a9a 8b38
000000a0: 63e0 7938 459d 2c38 487c 3f38 e8f9 1d38
000000b0: e978 e837 f43c b937 4069 8e37 32a3 ccb7
000000c0: aebb 3cb8 0b30 34b8 1347 27b8 454d 99b6
000000d0: 82a6 8037 fb1f 8937 371a b937 8bb7 d037
000000e0: 7341 bab6 0924 1ab8 9205 93b7 b2d0 80b7
000000f0: 86e2 3cb8 fcc7 0eb8 4800 fbb6 6e57 ab35
00000100: 2c74 95b4 a631 7737 aaf8 4937 a40d a137
00000110: e4a7 9db7 5f09 abb7 3626 4337 a42a d937
00000120: 6165 e637 7a08 2438 f3e7 fa37 fc50 0f38
00000130: a2a8 e637 8cc9 3d38 55a1 a237 c31b 9238
00000140: e2fa 7538 1c26 9337 2835 2e38 50b6 e637
00000150: 2eed 1a37 f8b9 25b5 0bab e237 8329 a636
00000160: a82d 0ab8 8f76 2bb8 273b 41b7 e6bb 95b7
00000170: 4109 7cb7 4712 acb7 4096 8937 bd43 5bb7
00000180: 04cd 36b7 0030 ebb7 bc72 aeb7 ea8c c3b7
00000190: 8288 ebb7 8e6c 00b8 0c30 bfb7 6836 afb7
000001a0: 0378 06b8 f048 8c36 1b73 6e37 15c7 1e36
000001b0: 61c4 04b7 6cd4 e4b3 5c3d cab7 be33 cbb7
000001c0: 6038 ffb7 11c2 92b6 4ca5 22b7 cc30 30b7
000001d0: 9cf7 2537 d3ec 6f36 10d4 b1b7 bfa8 6c37
000001e0: 583e 3535 5ba5 b9b7 34fc 99b6 ad3f 6136
000001f0: 5ced 0e35 c1db 01b8 1045 99b6 2c7c 2a35
00000200: bcf7 9ab7 6894 2e37 5edd b8b6 b6ea 0137
00000210: 9ac9 a3b6 dd4b 3436 a148 7837 2199 db36
00000220: 61fb 2235 12af 22b7 6082 b136 f5d1 c8b5
00000230: ca23 9eb5 8050 76b3 55dd 86b7 7839 c0b7
00000240: 5d4e 95b7 7ad2 d5b6 7f2b 34b7 234c ee35
00000250: 99da df36 35fe 4137 3aa6 ba35 7383 05b7
00000260: 9cc0 1236 1bca 11b6 0200 2836 80a6 feb7
00000270: 3d78 4fb6 1605 10b8 7648 06b8 0f89 04b8
00000280: 4631 e1b7 4ce6 79b7 8bbe 29b8 2ab7 4cb8
00000290: f648 85b8 5982 46b8 cbfd aab8 6623 80b8
000002a0: 9769 32b8 f7b5 30b8 2ddc 54b8 1613 2bb8
000002b0: 89cb 9cb8 80ee 86b8 6e0b 83b8 421f 42b8
000002c0: 3506 34b8 5f4f 2ab8 9738 33b8 5a86 04b8
000002d0: 0c95 0a35 312e 0bb8 a05f e6b7 e68f 04b8
000002e0: 6f51 e5b7 16df 58b7 02bd 4236 443e ccb7
000002f0: 4159 0f37 6048 2e36 839f b4b6 c4e0 07b8
00000300: a804 9cb7 5cf6 26b8 a800 1ab8 130e 14b7
00000310: 834c 2fb8 a023 fdb7 686d a0b7 0397 adb7
00000320: 9704 9db7 1e96 1fb7 efe2 56b8 14ba 5eb7
00000330: 9d43 9336 97e8 5437 9308 5337 321f cb37
00000340: a48d 3cb6 685b 2cb7 5649 b4b6 c4d4 75b7
00000350: c9f4 86b6 0e22 d0b7 d017 0d35 f4f6 8e37
00000360: 1b2f 4636 d96d 8736 9d02 38b7 1006 4f36
00000370: 5d94 8637 72f1 1237 fbbf d0b6 cee0 9e36
00000380: 5cde 01b7 72c8 71b6 4629 8c37 c38e 9937
00000390: 9e8b e736 4e12 9536 ada5 d437 e9eb 0538
000003a0: e109 6f37 92ea dbb6 8e13 e5b7 5a94 7036
000003b0: 6989 ccb7 1395 2eb8 ad5c f536 4089 9538
000003c0: 3f47 6d37 cb26 5eb7 e3fa d8b6 e5fd 4fb7
000003d0: be2d cdb7 9a3b 03b8 3605 1ab8 21cd 28b8
000003e0: 6214 20b8 d4c3 9eb8 f7f2 54b9 ad9b 27b9
000003f0: 3e96 6db7 01f3 32b7 ff71 d7b7 d811 74b8

dense_2/MatMul_bias f4 [32]
0.02593785 -0.049874336 0.07523676 -0.14254366 0.037438214 -0.045850076 -0.016742053 0.0037335663
0.026723798 -0.015040337 -0.07355744 -0.008794842 -0.00061979535 -0.038019788 0.0029842898 -0.004823442
-0.026805945 0.0324343 0.010295585 -0.044165526 -0.121332765 0.014866567 -0.016460873 -0.014648939
-0.020074973 -0.15960328 -0.00808343 0.019966368 -0.10049808 0.043590233 -0.000858016 0.059071794
00000000: 9d7b d43c 0849 4cbd bb15 9a3d f7f6 11be
00000010: d058 193d 4acd 3bbd a126 89bc d9ae 743b
00000020: deeb da3c bf6b 76bc 48a5 96bd 3e18 10bc
00000030: c379 22ba a3ba 1bbd 1394 433b f70d 9ebb
00000040: 2498 dbbc d4d9 043d d0ae 283c e9e6 34bd
00000050: 507d f8bd e792 733c f4d8 86bc 1a02 70bc
00000060: 4574 a4bc 0b6f 23be 5d70 04bc 8290 a33c
00000070: f0d1 cdbd ac8b 323d 7bec 60ba 44f5 713d

dense_2/kernel/transpose f4 [32, 64]
-3.4213204e-05 -1.05854315e-05 -4.4187345e-06 4.782167e-06 7.3595843e-06 -1.3182463e-05 -4.2283364e-06 -4.958813e-07
9.477817e-06 -5.439881e-06 -2.3934064e-05 1.3821106e-05 -5.050581e-07 1.960903e-05 -1.7717695e-05 -5.535524e-06
-9.518261e-06 -6.497778e-06 -6.286331e-06 -1.0912125e-05 -5.017551e-07 2.0986257e-05 -4.227679e-06 -1.5407522e-05
-1.5442332e-05 -8.018165e-06 -4.446055e-06 1.4816739e-05 1.3541337e-05 5.3253707e-06 -5.5488604e-06 -1.8380739e-06
2.7353879e-06 -1.4252211e-05 -8.569957e-06 -4.872814e-06 6.8367785e-06 4.3244327e-06 6.657379e-06 -3.1423784e-05
7.3668316e-06 8.237163e-06 1.6453292e-05 1.6268626e-05 8.811727e-06 9.106786e-06 2.5935984e-05 -1.4410198e-05
4.152295e-06 8.299408e-06 -5.3256913e-06 -2.6585707e-05 -7.557826e-09 -2.140024e-05 -1.7493567e-05 3.5714502e-06
-4.439513e-06 1.3217045e-05 -5.259683e-06 4.261535e-06 -1.5310072e-05 8.702346e-08 3.7074242e-06 4.42558e-06
1.4194094e-05 6.7434808e-06 2.8695843e-06 -3.0863653e-06 -7.371971e-06 -3.2102507e-06 2.7414926e-06 4.123635e-07
2.008308e-06 4.77951e-06 1.8332219e-05 -1.0619373e-05 -5.9649105e-06 -3.7986429e-06 1.34533775e-05 3.901591e-06
8.46451e-06 3.7946593e-06 -2.4396531e-06 -3.617096e-06 9.090227e-07 -1.882281e-05 3.0610167e-06 -2.430607e-06
1.2818056e-05 6.3335256e-06 2.3230536e-06 -1.1573941e-05 -7.191693e-06 3.0739411e-06 2.2736224e-06 -1.833545e-07
1.0545064e-07 1.1954117e-05 1.4308631e-07 3.4024524e-06 -4.85435e-06 6.709408e-08 2.4491835e-06 8.656587e-06
3.1456682e-06 -7.742848e-06 -1.2175274e-05 -1.10070805e-05 -7.1881377e-06 2.3419113e-06 -2.0754592e-06 -2.5600173e-06
-3.7690425e-06 -2.1197432e-06 2.7398862e-06 2.4815286e-05 6.078446e-09 7.0994943e-06 1.31149245e-05 -2.8347094e-06
-2.654657e-06 -8.825679e-06 -2.0215916e-06 -3.1261902e-06 1.263182e-05 -7.5992415e-07 1.6244144e-06 2.3685884e-06
-0.00018729706 -4.772816e-05 -1.9503324e-05 2.16393e-05 3.573171e-05 -1.969089e-05 -1.9339655e-05 -2.3779132e-06
1.7901153e-05 -2.4121342e-05 -0.00010758392 8.501545e-05 5.2231266e-05 7.186869e-05 -7.8708625e-05 -2.3794018e-05
-4.2593205e-05 -2.9836105e-05 -1.0716705e-05 -1.3168224e-05 -5.1364887e-06 9.28911e-05 -1.9530744e-05 -1.2911122e-05
-7.973301e-05 -3.507264e-05 -1.7821694e-05 6.460826e-05 7.300229e-05 8.955295e-06 -2.3196775e-05 -5.8319347e-06
1.00011e-05 -7.355809e-05 -2.8200851e-05 -2.6893666e-05 2.9098825e-05 1.5591851e-05 1.2221592e-05 -0.000146383
7.2536695e-06 4.311203e-05 7.249648e-05 6.6295695e-05 3.7276455e-05 8.212986e-06 9.348063e-05 -4.2731303e-05
1.72898e-05 3.671142e-05 -2.2853099e-05 -0.000111658424 -3.2364042e-08 -7.314386e-05 -8.4281186e-05 1.6668559e-05
-6.0210755e-06 6.241151e-05 -2.7242181e-06 2.0112495e-05 -6.531001e-05 5.107844e-06 7.752054e-06 9.1396705e-06
0.00024398504 5.7067187e-05 2.322909e-05 -2.5715668e-05 -3.9778923e-05 1.3427406e-05 2.3123535e-05 2.8083646e-06
-1.5254107e-05 2.8930895e-05 0.00013019654 -0.00010506297 -6.300472e-05 -8.483196e-05 9.485411e-05 2.8501385e-05
5.0587718e-05 3.5884463e-05 7.97567e-06 4.2980205e-06 6.125978e-06 -0.00011248169 2.3320965e-05 -1.3502694e-06
9.70775e-05 4.168972e-05 2.044929e-05 -7.649085e-05 -9.026379e-05 -6.4614273e-06 2.7755297e-05 6.5296745e-06
-1.1466821e-05 8.864631e-05 3.0594812e-05 3.308452e-05 -3.425522e-05 -1.7831444e-05 -9.896283e-06 0.00018116648
-7.776855e-07 -5.1553106e-05 -8.713708e-05 -7.695016e-05 -4.3998265e-05 1.1237654e-07 -0.00011029322 4.4913737e-05
-2.0256666e-05 -4.3610344e-05 2.6765389e-05 0.00013297355 3.794523e-08 8.116025e-05 0.000101061494 -1.97026e-05
2.7537494e-06 -7.565224e-05 -4.277521e-06 -2.4184152e-05 7.667747e-05 -5.9557024e-06 -7.229864e-06 -7.717628e-06
00000000: 2680 0fb8 1598 31b7 a444 94b6 8076 a036
00000010: 59f2 f636 3f2a 5db7 22e1 8db6 b41c 05b5
00000020: ea02 1f37 3988 b6b6 03c6 c8b7 33e1 6737
00000030: 5493 07b5 127e a437 76a0 94b7 cabd b9b6
00000040: 9fb0 1fb7 7d07 dab6 2cef d2b6 3813 37b7
00000050: 59b0 06b5 a50b b037 7cdb 8db6 673f 81b7
00000060: 288a 81b7 c285 06b7 522f 95b6 6995 7837
00000070: 992f 6337 96b0 b236 5930 bab6 bdb3 f6b5
00000080: 9b91 3736 c81c 6fb7 afc7 0fb7 2781 a3b6
00000090: 7b67 e536 981a 9136 7362 df36 08cd 03b8
000000a0: 9a30 f736 5832 0a37 2d05 8a37 9c78 8837
000000b0: 14d6 1337 59c9 1837 1a91 d937 54c3 71b7
000000c0: f153 8b36 b03d 0b37 57b3 b2b6 5f04 dfb7
000000d0: acd7 01b2 aa84 b3b7 26bf 92b7 0cad 6f36
000000e0: 20f7 94b6 c7be 5d37 557c b0b6 4ffe 8e36
000000f0: 216e 80b7 a7e1 ba33 10cd 7836 717f 9436
00000100: 2b23 6e37 0f46 e236 1593 4036 5a1f 4fb6
00000110: c05c f7b6 b06f 57b6 7cfa 3736 cf62 dd34
00000120: 78c6 0636 ae5f a036 24c8 9937 dc29 32b7
00000130: 3126 c8b6 30ec 7eb6 d1b5 6137 69ea 8236
00000140: cb02 0e37 c0a7 7e36 ecb8 23b6 3cbd 72b6
00000150: 9003 7435 ade5 9db7 de6b 4d36 831d 23b6
00000160: 220d 5737 9284 d436 c2e5 1b36 b32d 42b7
00000170: 2c50 f1b6 e849 4e36 8994 1836 1ae0 44b4
00000180: 1a74 e233 8b8e 4837 44a3 1934 b055 6436
00000190: 8de2 a2b6 5c15 9033 a75c 2436 c23b 1137
000001a0: 2b1a 5336 47e7 01b7 6744 4cb7 0dab 38b7
000001b0: a231 f1b6 bb29 1d36 1e48 0bb6 c3cc 2bb6
000001c0: a8ef 7cb6 e940 0eb6 e3de 3736 6c2a d037
000001d0: 94da d031 3138 ee36 2c08 5c37 f03b 3eb6
000001e0: a926 32b6 0112 14b7 aeaa 07b6 8acb 51b6
000001f0: 41ed 5337 97fd 4bb5 7406 da35 0af4 1e36
00000200: 2c65 44b9 b92f 48b8 129b a3b7 0b86 b537
00000210: a2de 1538 dd2d a5b7 983b a2b7 3d94 1fb6
00000220: 6f2a 9637 3058 cab7 ad9e e1b8 524a b238
00000230: e512 5b38 36b8 9638 5f10 a5b8 4499 c7b7
00000240: 1ba6 32b8 8c48 fab7 e6cb 33b7 17ed 5cb7
00000250: 1a5a acb6 88ce c238 f4d5 a3b7 d99c 58b7
00000260: 5536 a7b8 f61a 13b8 cc7f 95b7 4c7e 8738
00000270: ce18 9938 b33e 1637 b296 c2b7 f0af c3b6
00000280: 66ca 2737 3343 9ab8 de90 ecb7 b599 e1b7
00000290: 4019 f437 3fcb 8237 570b 4d37 637e 19b9
000002a0: 8c64 f336 31d3 3438 4009 9838 3b08 8b38
000002b0: 4a59 1c38 82ca 0937 080b c438 633a 33b8
000002c0: 9009 9137 96fa 1938 a8b4 bfb7 292a eab8
000002d0: a400 0bb3 d064 99b8 1ec0 b0b8 75d3 8b37
000002e0: a508 cab6 ede2 8238 b6d1 36b6 41b7 a837
000002f0: 0bf7 88b8 0c64 ab36 d20e 0237 9656 1937
00000300: 3cd6 7f39 6d5b 6f38 17dc c237 fab7 d7b7
00000310: 4bd8 26b8 4546 6137 6af9 c137 5677 3c36
00000320: e4eb 7fb7 a0b0 f237 5e85 0839 4155 dcb8
00000330: 6721 84b8 d0e7 b1b8 6aec c638 4216 ef37
00000340: 262e 5438 a682 1638 3ecf 0537 b737 9036
00000350: c08d cd36 26e4 ebb8 64a1 c337 e73a b5b5
00000360: 1696 cb38 ffdb 2e38 848a ab37 b669 a0b8
00000370: 014c bdb8 3dcf d8b6 0cd4 e837 7a19 db36
00000380: 9f61 40b7 a0e7 b938 ee52 0038 3cc4 0a38
00000390: 43ad 0fb8 bc94 95b7 3608 26b7 82f7 3d39
000003a0: 24c2 50b5 ba3a 58b8 5dbd b6b8 4d60 a1b8
000003b0: c78a 38b8 a853 f133 394d e7b8 c261 3c38
000003c0: dcec a9b7 40ea 36b8 3c86 e037 d16e 0b39
000003d0: 39f9 2233 9434 aa38 faf0 d338 0347 a5b7
000003e0: 0ecd 3836 7da7 9eb8 a087 8fb6 12df cab7
000003f0: e7cd a038 18d7 c7b6 0f98 f2b6 f67a 01b7

dense_3/MatMul_bias f4 [64]
-0.24079096 0.043985713 -0.0073881634 -0.6158343 0.014009301 0.062787905 -0.020716013 -0.046520326
-0.078391604 0.073543355 -0.08063062 -0.021678686 0.27836585 0.06345439 -0.03202884 -0.06276727
-0.026899954 -0.07839887 -0.11821093 -0.023620496 0.030898595 -0.4842083 -0.0040817996 -0.063461676
0.2154601 -0.09690767 -0.6683369 -0.086054586 -0.0059506386 0.0035889384 -0.24097681 0.019407365
0.14294538 -0.11960571 -0.04043908 -0.21805656 -0.06694725 0.0146176675 0.0013361415 -0.078117445
-0.13288811 0.09998505 0.0092390245 -0.010287457 0.048970368 0.17900446 0.19811296 -0.037149288
-0.0063271844 -0.09872266 -0.078896515 0.050999288 -0.020152701 0.13455237 0.4393676 -0.07703625
0.055944987 0.0045106146 -0.18988568 -0.014579855 -0.0330166 -0.37868217 -0.042801943 0.6270806
00000000: e891 76be 5d2a 343d 6818 f2bb 51a7 1dbf
00000010: 4487 653c f296 803d a1b4 a9bc 198c 3ebd
00000020: c78b a0bd e69d 963d ab21 a5bd 8097 b1bc
00000030: f885 8e3e 60f4 813d ac30 03bd 208c 80bd
00000040: 4b5d dcbc 968f a0bd 9218 f2bd c57f c1bc
00000050: 0d1f fd3c 26ea f7be 9ec0 85bb 32f8 81bd
00000060: 93a1 5c3e 8777 c6bd 2118 2bbf 633d b0bd
00000070: 93fd c2bb 6534 6b3b a0c2 76be 32fc 9e3c
00000080: 4660 123e d7f3 f4bd 73a3 25bd 384a 5fbe
00000090: a41b 89bd f17e 6f3c 7821 af3a 0afc 9fbd
000000a0: d213 08be f6c4 cc3d 475f 173c b98c 28bc
000000b0: 2795 483d f24c 373e 20de 4a3e da29 18bd
000000c0: 4554 cfbb 1b2f cabd 7f94 a1bd a1e4 503d
000000d0: 4717 a5bc 19c8 093e caf4 e03e 2ec5 9dbd
000000e0: 9226 653d c7cd 933b 6471 42be 58e0 6ebc
000000f0: 6a3c 07bd a1e2 c1be 1751 2fbd 5b88 203f

dense_3/kernel/transpose f4 [64, 768]
0.00025315495 0.0008997716 -6.509831e-06 -8.3384955e-05 0.00050490955 9.560079e-05 -6.864196e-05 1.7693521e-05
2.6026002e-05 0.0012447286 -0.00048119508 -2.9523686e-05 0.0002704153 6.042548e-06 7.4229786e-07 -0.00013765947
-9.238481e-07 1.3743515e-06 0.00017596717 1.7293274e-05 4.3379664e-06 1.1058079e-05 3.3954595e-05 -7.853282e-05
-2.2563434e-06 -3.4704626e-05 0.0005375514 0.00025179633 -0.0038830708 0.0004532119 0.00024513833 0.0001645112
0.0006740219 0.00052169524 0.00078782014 0.0007837065 0.0004294738 3.0528067e-06 0.0003193 0.00020043562
-2.2524346e-05 0.0009123584 0.0007238586 2.4998186e-05 -3.250801e-05 0.0005498351 0.00025251167 0.0013524927
-0.0001602215 0.00036009564 2.8752218e-05 0.00079239364 -0.003583813 -0.004534109 0.00012438948 -0.0048904107
2.9157833e-05 4.073408e-05 -0.00035055378 -1.7618562e-05 1.8217926e-05 -5.1302504e-05 -0.0048402934 -6.1988816e-05
-0.0056146225 -0.0031820128 -0.004812317 -0.0053463764 -5.792874e-05 -0.0049510435 -0.0031965529 -0.0015637617
-0.0005997771 -0.0001443432 -0.0029364312 3.395949e-06 -0.0011737003 -7.860281e-05 0.00014429189 -5.9519138e-05
0.00075902976 -0.0001550424 -0.0012509546 0.0005850446 0.0006445526 1.4960926e-05 0.0006473336 -0.0001150488
-0.0001883634 -0.00021385677 2.1981938e-05 0.0004610819 -0.00033144135 -9.709992e-05 -0.0003364942 2.8010501e-05
-0.00016743055 -0.00011877469 -0.00015781149 -0.000120448974 -0.00038052784 0.0009118981 -0.00041084838 -9.8913864e-05
-0.00012788261 0.0014828548 0.00026055623 0.00023473917 0.003051407 0.00065707957 0.0023074946 0.0040341034
-0.0002439742 -6.13212e-05 0.0014648774 0.004887915 0.00022549092 0.0025568593 0.0014635229 7.5760418e-06
-5.848483e-05 5.7169145e-06 9.368357e-07 1.2849794e-06 -2.4825272e-07 -0.00014674131 0.0032797644 -0.00014772864
0.0036277042 0.00038507866 0.00019090326 -0.00044547959 0.002334438 0.0038671345 -0.00031237287 -0.0003411843
8.087727e-05 0.0013692316 0.0001000098 0.0006695067 0.00081772415 -0.0018229231 0.00013436159 -0.0001448702
-0.0019889886 3.7059046e-06 5.0163108e-06 7.5110206e-06 -0.0006039193 0.0002763924 -1.3785241e-05 0.0017538909
0.00022026835 0.0017583049 4.2247913e-05 7.3980555e-05 0.00024967935 -1.8236275e-05 -0.00076422474 1.5442329e-05
-0.005084966 -0.00020329596 -2.613041e-06 -0.0011832827 -0.000105825966 -0.001946858 0.00048835966 -0.0003744105
0.0002453656 0.0028469875 0.00013851002 0.0016538796 0.006210076 -0.00010616061 0.009032713 0.00014930582
0.0033600593 -4.761623e-06 0.00015173186 0.0036931564 0.0037015625 -0.0009882768 0.0013889069 0.0028902472
7.7360437e-07 0.0037226598 -1.4515907e-05 0.000103395556 4.3649115e-06 0.0027976965 0.0008950818 -0.00022185766
7.3834686e-05 0.0022866174 0.0023389484 1.9549632e-05 0.0006467843 0.0027583854 -3.9129867e-05 0.0015858858
4.780949e-06 0.0031799553 0.002656575 0.0015331963 0.003089342 4.356353e-06 0.0015622479 -4.3177724e-06
0.0011694778 0.0016325242 -0.001303443 0.0029261818 -0.00014993608 0.0038243267 0.0022466779 -0.0011949363
7.273561e-05 -0.0064462917 0.005007246 0.00040694998 -0.003913309 -4.3796404e-05 -0.0022175498 0.004468825
-0.0015232763 -0.001828851 1.2587024e-05 0.0055296235 0.00072554976 -0.00035159418 0.0010610946 1.0183936e-05
0.0015886718 0.00013426456 0.001079744 -0.0008145571 0.0021651867 0.0021211011 0.0016900308 1.9785282e-05
-0.0005450491 0.0009542976 0.002645897 0.0015112822 -8.935049e-05 0.001996798 1.0372512e-05 -0.00010828327
0.0012991762 0.0008759928 -0.000113039656 0.0010149527 -4.024649e-05 0.00093013694 0.0012402862 0.00017098668
00000000: e2b9 8439 a6de 6b3a 066f dab6 f5de aeb8
00000010: e85b 043a 497d c838 dff3 8fb8 8c6c 9437
00000020: 6a52 da37 2926 a33a e948 fcb9 a2a9 f7b7
00000030: 87c6 8d39 18c1 ca36 5242 4735 af58 10b9
00000040: 5cfe 77b5 5c76 b835 d483 3839 0611 9137
00000050: d98e 9136 1686 3937 786a 0e38 fdb1 a4b8
00000060: af6b 17b6 cf8f 11b8 77ea 0c3a 8803 8439
00000070: 1e7b 7ebb 129d ed39 e985 8039 a480 2c39
00000080: d8b0 303a 60c2 083a b785 4e3a a771 4d3a
00000090: ff2a e139 d2de 4c36 b867 a739 072c 5239
000000a0: aaf2 bcb7 562b 6f3a 54c1 3d3a 32b3 d137
000000b0: 3659 08b8 cf22 103a 8b63 8439 2046 b13a
000000c0: 2201 28b9 38cb bc39 eb30 f137 a3b8 4f3a
000000d0: 68de 6abb dd92 94bb 8c6e 0239 bd3f a0bb
000000e0: f897 f437 e3d9 2a38 88ca b7b9 93cb 93b7
000000f0: b3d2 9837 a52d 57b8 539b 9ebb feff 81b8
00000100: defa b7bb 5189 50bb a4b0 9dbb a830 afbb
00000110: 83f8 72b8 5d3c a2bb 427d 51bb 23f7 ccba
00000120: 5c3a 1dba d55a 17b9 2471 40bb f6e5 6336
00000130: d9d6 99ba 90d7 a4b8 0f4d 1739 30a4 79b8
00000140: a0f9 463a e192 22b9 12f7 a3ba ae5d 193a
00000150: 31f7 283a b000 7b37 d3b1 293a 5b46 f1b8
00000160: 6a83 45b9 bd3e 60b9 da65 b837 5dbd f139
00000170: 4ec5 adb9 1fa2 cbb8 7d6b b0b9 18f8 ea37
00000180: 4c90 2fb9 ad16 f9b8 337a 25b9 8d99 fcb8
00000190: 9581 c7b9 720c 6f3a 2367 d7b9 fa6f cfb8
000001a0: 3a18 06b9 5a5c c23a 449b 8839 5124 7639
000001b0: 1dfa 473b dd3f 2c3a 5639 173b 8330 843b
000001c0: 53d3 7fb9 9299 80b8 2101 c03a ce2a a03b
000001d0: c271 6c39 fb90 273b aed3 bf3a b435 fe36
000001e0: 9c4d 75b8 ecd3 bf36 dc7a 7b35 8e77 ac35
000001f0: 9847 85b4 92de 19b9 51f1 563b 9be7 1ab9
00000200: c7be 6d3b 62e4 c939 342d 4839 428f e9b9
00000210: 5ffd 183b c06f 7d3b fac5 a3b9 fbe0 b2b9
00000220: a79c a938 ca77 b33a 5abc d138 d681 2f3a
00000230: 8a5c 563a 26ef eeba 6ae3 0c39 4ce8 17b9
00000240: b159 02bb f5b2 7836 c851 a836 2d07 fc36
00000250: 5750 1eba c3e8 9039 2947 67b7 d0e2 e53a
00000260: d6f7 6639 ec76 e63a 5a33 3138 0226 9b38
00000270: 65e7 8239 1afa 98b7 4156 48ba 268a 8137
00000280: c99f a6bb d82b 55b9 b45b 2fb6 6118 9bba
00000290: e2ee ddb8 b72d ffba 4305 003a 874c c4b9
000002a0: 6aa4 8039 8694 3a3b 003d 1139 fec6 d83a
000002b0: e57d cb3b 8ba2 deb8 f2fd 133c fa8e 1c39
000002c0: 7134 5c3b 08c6 9fb6 361a 1f39 e208 723b
000002d0: ea95 723b 1189 81ba fb0b b63a 4d6a 3d3b
000002e0: b0a9 4f35 def7 733b 5989 73b7 11d6 d838
000002f0: 4e76 9236 8f59 373b eca3 6a3a 76a2 68b9
00000300: b2d7 9a38 13db 153b 0b49 193b 84fe a337
00000310: f68c 293a 07c6 343b 601f 24b8 7fdd cf3a
00000320: 0a6c a036 cc66 503b ef19 2e3b 88f5 c83a
00000330: 8f76 4a3b ca2c 9236 57c4 cc3a 62e1 90b6
00000340: 2a49 993a 6cfa d53a 4ad8 aaba 2fc5 3f3b
00000350: 2938 1db9 8ea1 7a3b 003d 133b 699f 9cba
00000360: a289 9838 6a3b d3bb d313 a43b e75b d539
00000370: 373b 80bb 08b2 37b8 5054 11bb 396f 923b
00000380: aca8 c7ba 0eb6 efba db2c 5337 d831 b53b
00000390: d232 3e3a 2c56 b8b9 6d14 8b3a acdb 2a37
000003a0: fb3a d03a 5ec9 0c39 3286 8d3a 0088 55ba
000003b0: cee5 0d3b 2c02 0b3b 0684 dd3a 92f8 a537
000003c0: a0e1 0eba d429 7a3a c966 2d3b 3716 c63a
000003d0: ae61 bbb8 b6dc 023b 9a05 2e37 2316 e3b8
000003e0: 1f49 aa3a e2a2 653a b40f edb8 2908 853a
000003f0: 57ce 28b8 6fd4 733a 1991 a23a e34a 3339
