libs/models/mlp_proposal_s.tflite (tflite, 218524 bytes, 16 tensors)

batch_normalization_1/batchnorm/mul f4 [768]
000000 39 dc 6a 3d 2f 5c 9c 3d 28 1a b8 3c 8e 3e 8d 3c
       0.057338927 0.0763477 0.02247341 0.017241742
000010 91 55 c6 3c ec 99 19 3d 3f 0f 09 3d fb 0a 57 3c
       0.024210723 0.037500307 0.033461805 0.013125177
000020 f8 85 6f 3c fa f5 bb 3c 12 77 c2 3c 11 18 e1 3c
       0.014619343 0.02294444 0.023738418 0.027477296
000030 1e 3b f0 3c 84 a9 cc 3c 9d e4 bb 3c 3a bb da 3c
       0.029325064 0.024983175 0.02293616 0.026700605
000040 14 5e de 3c 75 76 df 3c 0f 82 a4 3c 96 40 79 3c
       0.02714447 0.027278164 0.020081548 0.015213152
000050 a9 a1 29 3c 92 2e 54 3c bc 4a b3 3c 38 e2 ba 3c
       0.010353484 0.012950556 0.021886222 0.022812948
000060 65 55 d3 3c 25 91 cd 3c 97 15 bb 3c f9 a6 9d 3c
       0.025797555 0.025093624 0.022837443 0.019244658
000070 73 6b 8f 3c e9 cb 59 3c c3 67 7f 3c 8e b6 3f 3c
       0.01750729 0.013293245 0.015588704 0.011701239
000080 93 60 6f 3c 3a b7 50 3c 9a c8 69 3c 77 e0 65 3c
       0.014610427 0.012738997 0.014269019 0.014030567
000090 ae b3 6f 3c 27 ae 88 3c 35 50 81 3c d6 9a 7c 3c
       0.014630241 0.016684605 0.015785316 0.015417775
0000a0 48 cb 79 3c 03 67 73 3c 9a ca 9c 3b f9 6f 13 3c
       0.01524622 0.014856103 0.004784894 0.008998864
0000b0 18 11 1c 3c 24 5e 2f 3c 62 33 5a 3c 21 29 65 3c
       0.00952556 0.010703597 0.013317915 0.013986857
0000c0 0d 92 5a 3c 9d 26 56 3c 8f f4 63 3c 80 7d 60 3c
       0.013340485 0.01307073 0.013913288 0.0137017965
0000d0 9b c9 68 3c 90 bd 6d 3c 27 77 7b 3c 4e 0f 72 3c
       0.014208223 0.014510527 0.015348232 0.014774157
0000e0 31 4a 79 3c ed cb 84 3c 1f fd 82 3c 2f ba 86 3c
       0.0152154425 0.01621052 0.015989838 0.016446201
0000f0 84 d7 87 3c c9 f3 81 3c d2 83 79 3c 80 0e 72 3c
       0.016582258 0.015863316 0.015229182 0.014773965
000100 d0 d9 87 3c d4 9b 81 3c 65 e6 81 3c 0d c1 82 3c
       0.016583353 0.015821375 0.015856931 0.015961194
000110 8c f4 89 3c 08 06 82 3c f9 d8 82 3c 3b d2 84 3c
       0.016840242 0.015872017 0.015972601 0.016213527
000120 94 19 85 3c e8 fd 8b 3c 2a ef 8e 3c ff 8a 95 3c
       0.016247548 0.017088845 0.017448027 0.018254755
000130 8f 30 a3 3c 5e 74 97 3c 6a a3 95 3c 67 af 8e 3c
       0.019920615 0.018488105 0.018266398 0.017417623
000140 b0 99 95 3c af 52 93 3c 2a 0f 90 3c ba f3 95 3c
       0.01826176 0.017983763 0.017585356 0.018304694
000150 0a 78 99 3c ab be 96 3c 9c 4c a0 3c 31 d2 91 3c
       0.018733997 0.018401464 0.01956778 0.017800422
000160 01 09 8d 3c 53 86 04 3c 1d 04 6d 3c 51 3c 8b 3c
       0.017216207 0.008088666 0.014466313 0.016996535
000170 d7 f4 63 3c 78 11 71 3c 2b b1 7f 3c 21 e6 65 3c
       0.013913355 0.0147136375 0.015606205 0.014031918
000180 cc 53 6c 3c 60 a3 2b 3c 71 68 77 3b 18 d6 04 3c
       0.014424276 0.010475963 0.003775146 0.008107685
000190 93 d3 c6 3b 13 8f 06 3c fb 2c a6 3b 3c cc c8 3b
       0.006067702 0.0082128225 0.00507128 0.0061278623
0001a0 3a a6 b3 3b 52 59 05 3c 7b 9b 15 3b f4 fe 11 3c
       0.0054824622 0.008138971 0.002282827 0.008910883
0001b0 f4 3d 03 3c 14 42 b6 3b 4f 4d be 3b 7f 77 e8 3b
       0.008010376 0.0055620763 0.0058075557 0.007094323
0001c0 ff 25 1b 3c 45 d1 94 3b 26 55 ba 3b 9b 26 a0 3b
       0.009469508 0.0045415484 0.00568642 0.0048874146
0001d0 86 b4 1e 3b a9 d1 af 3b 5a 35 a9 3b 2e d1 38 3b
       0.0024216487 0.0053655696 0.0051638307 0.0028200853
0001e0 37 1a eb 3b 1a 94 a4 3b 9c c3 56 3b ff 84 82 3b
       0.007174756 0.005022538 0.00327704 0.0039831395
0001f0 59 14 8e 3b b6 fe b3 3b 53 af 82 3b 08 f7 ae 3b
       0.0043359217 0.0054930104 0.0039881854 0.005339507
000200 01 b4 91 3b 0b c8 e7 3a 2d 9a 49 3b bf 9a 27 3b
       0.004446507 0.0017683519 0.0030762062 0.0025574414
000210 3b 05 0a 3b 0e b1 68 3b 40 2f 48 3b 8a 84 93 3b
       0.0021060247 0.0035505923 0.0030545741 0.004501884
000220 b1 07 15 3b 33 03 49 3b 3e f3 48 3b 6c dc 32 3b
       0.002274018 0.0030672073 0.0030662562 0.0027292026
000230 d9 dd 5b 3b fa 29 ca 3b c5 b4 a8 3b 73 79 13 3b
       0.003354898 0.006169555 0.0051485025 0.002250281
000240 44 43 9a 3b be ca 7b 3b a2 4f 21 3b a7 68 19 3b
       0.0047077257 0.0038420404 0.0024614115 0.0023408325
000250 2a e0 1c 3b 19 50 50 3b ee ec 75 3b 23 d6 09 3b
       0.0023937323 0.0031786023 0.0037525254 0.0021032176
000260 e4 f4 41 3b 3d ee 58 3b ad bf 11 3b 05 51 2e 3b
       0.002959543 0.0033100985 0.0022239492 0.0026598584
000270 ef aa 16 3b db 76 3a 3b a7 28 dc 3a f0 93 b1 3a
       0.0022990068 0.002845219 0.0016796783 0.0013548117
000280 0c e8 13 3b 62 f1 f0 3a f4 d4 9e 3a d3 a7 16 3b
       0.002256873 0.0018382485 0.0012117908 0.0022988215
000290 38 5c 89 3a b3 41 2b 3b f2 58 1c 3b 77 73 c0 3a
       0.0010479754 0.002613169 0.0023856726 0.0014682849
0002a0 20 43 1b 3b a3 d1 c6 3a 8c 99 e8 3a 40 86 d0 3a
       0.0023691133 0.0015168678 0.0017745956 0.001590915
0002b0 96 a3 e6 3a 5b f6 25 3b 24 f1 17 3b 0f 12 22 3b
       0.001759636 0.0025323841 0.0023184502 0.0024730002
0002c0 1c 84 08 3b 92 98 ac 3a f4 ef 04 3b 89 f1 08 3b
       0.0020830696 0.0013168028 0.0020284625 0.002089592
0002d0 4a 51 d4 3a 79 a6 36 3b 1e 88 25 3b cc 66 fc 3a
       0.0016198542 0.0027870222 0.0025258134 0.001925671
0002e0 d5 61 12 3b f4 2c 30 3b 17 02 33 3b 2f d4 1b 3b
       0.0022336144 0.0026882263 0.0027314478 0.0023777594
0002f0 15 e7 10 3b 1a e2 0d 3b 89 ee d4 3a 83 fb f6 3a
       0.0022110392 0.002164966 0.0016245405 0.0018843267
000300 47 6e 3a 3b 96 32 60 3b 67 3c 39 3b e7 69 e4 3a
       0.0028447078 0.003420984 0.0028264762 0.0017426581
000310 9b b7 16 3b 02 96 2b 3b 92 80 6c 3b 2f 65 80 3b
       0.002299762 0.002618194 0.0036087376 0.003918312
000320 41 57 2a 3b d1 f0 66 3b 7b f5 27 3b a9 88 1e 3b
       0.0025991949 0.0035238753 0.0025628495 0.0024190343
000330 42 e8 26 3b 31 e2 35 3b 15 97 08 3b 02 78 41 3b
       0.0025468026 0.0027753229 0.0020842005 0.0029520993
000340 ab b1 16 3b df 21 81 3b 6c 88 34 3b 87 ab 2a 3b
       0.0022994082 0.0039408053 0.0027547134 0.002604218
000350 c8 b5 67 3b 17 82 5d 3b 0e c7 00 3b 2a 74 13 3b
       0.0035356153 0.0033799463 0.0019649896 0.002249966
000360 79 a9 14 3b ca a5 81 3b da 52 0f 3b de 76 f6 3a
       0.0022684021 0.003956531 0.0021869452 0.0018803736
000370 8b 9d 12 3b 8e 4a 03 3b ce 3e f2 3a 1b 21 e0 3a
       0.0022371735 0.0020033452 0.0018481852 0.001709971
000380 31 fe d0 3a e7 6e c7 3a c7 ac f9 3a b1 e8 c7 3a
       0.0015944896 0.0015215547 0.0019048684 0.0015251843
000390 6e 96 d8 3a 40 9f cd 3a 1d bf e3 3a 8b 82 cd 3a
       0.0016524324 0.0015687719 0.0017375682 0.0015679164
0003a0 21 d6 ae 3a 76 42 d3 3a 0b 5e c5 3a b8 86 af 3a
       0.0013338962 0.0016117829 0.0015057934 0.001339159
0003b0 82 79 ae 3a a3 8c a1 3a 79 0a 98 3a 1d 82 b5 3a
       0.0013311359 0.0012325238 0.0011599801 0.0013847981
0003c0 93 97 a5 3a c9 8c 73 3a c8 85 8e 3a d5 9d 99 3a
       0.0012633674 0.0009290693 0.001087361 0.0011720011
0003d0 8f 70 8d 3a 01 27 af 3a 1a b0 bf 3a a2 63 e9 3a
       0.0010790991 0.0013363064 0.0014624626 0.0017806182
0003e0 dd 09 e5 3a 28 be 0e 3b 92 fc 30 3b 35 80 34 3b
       0.0017474253 0.0021780822 0.0027006012 0.0027542238
0003f0 2b 51 dd 3a 9d ee 35 3b 11 4d 87 3a a3 4a a0 3a
       0.0016885152 0.0027760633 0.001032265 0.0012229275

batch_normalization_1/batchnorm/sub f4 [768]
000000 33 b0 27 be 4c ab 77 bd 99 c2 81 3d 16 4c 6a 3d
       -0.16375808 -0.060466096 0.06335945 0.057201467
000010 70 8b 90 3b 0e 1d 79 bd 63 a9 a0 bd 00 8b b9 ba
       0.0044111535 -0.060818724 -0.07844808 -0.0014155805
000020 50 7a 7b 3c 14 07 92 bd 67 dc 13 be fc d2 f0 bd
       0.015348986 -0.07130256 -0.14439546 -0.11758992
000030 2a 00 fb bd d0 05 d8 bd 05 47 07 be 62 94 07 be
       -0.12255891 -0.10547984 -0.13210686 -0.13240197
000040 75 e0 37 be d9 04 32 be fe d9 bb bd 4c 90 1f bd
       -0.17956717 -0.17384662 -0.09172438 -0.03895597
000050 30 a2 53 bc 98 fe 3b bd 8e 29 2f be 79 aa 5b be
       -0.0129170865 -0.045897096 -0.17105696 -0.21451749
000060 78 8a 89 be c1 c1 99 be e5 49 87 be df 35 6e be
       -0.26863456 -0.30030635 -0.26423565 -0.23262738
000070 7c 6c 50 be 0d e1 15 be 6e d2 5f be 1d c5 1f be
       -0.20353884 -0.14636631 -0.21857616 -0.15602536
000080 e5 ea 6f be 38 85 71 be f9 2f a5 be 16 cc b0 be
       -0.23429449 -0.23585975 -0.32263163 -0.34530705
000090 08 9b a6 be b2 6a d9 be a8 8e e7 be 17 52 d6 be
       -0.32540154 -0.42464215 -0.45226026 -0.41859505
0000a0 ba 34 de be 8f 59 e6 be 8e 5b a3 bd bd 21 7b be
       -0.43399602 -0.44990203 -0.07976447 -0.24524589
0000b0 dc 14 9f be 20 2b c4 be 4c 4b e8 be 6c e8 eb be
       -0.31070602 -0.38314152 -0.45369947 -0.4607576
0000c0 04 69 02 bf 94 53 fc be 4a a1 f9 be 88 8c f2 be
       -0.5094149 -0.49282515 -0.48755866 -0.47372842
0000d0 c5 9e f0 be d5 09 00 bf b4 69 02 bf 47 ba 02 bf
       -0.46996132 -0.50015 -0.5094254 -0.51065487
0000e0 80 0a 08 bf 6e ff 1b bf 74 e5 1e bf 7e 0d 1a bf
       -0.5314102 -0.6093663 -0.6206887 -0.6017684
0000f0 ec 4b 22 bf 04 9c 18 bf ba 8a 13 bf 61 3e 1b bf
       -0.633971 -0.5961306 -0.57633555 -0.6064206
000100 9c f2 1c bf 5d 8f 1c bf e7 1f 09 bf 5a e7 0f bf
       -0.6130769 -0.61156255 -0.53564304 -0.5621239
000110 a9 9e 1a bf d1 2a 15 bf 46 b2 0a bf 85 e7 09 bf
       -0.60398346 -0.5826846 -0.54178274 -0.53868896
000120 b4 3c 0c bf 60 9b 18 bf f6 55 22 bf 54 97 13 bf
       -0.54780126 -0.59612083 -0.63412416 -0.57652783
000130 c6 3e 31 bf 1c c6 28 bf 0c b6 2b bf 93 2f 1c bf
       -0.6923641 -0.6592729 -0.67074656 -0.6101009
000140 06 83 20 bf 00 c2 1a bf fb 9a 12 bf 7e 17 1a bf
       -0.62699926 -0.6045227 -0.5726773 -0.60192096
000150 ef 8b 1b bf fc cb 20 bf a1 73 22 bf ca bf 1e bf
       -0.60760397 -0.62811255 -0.63457686 -0.62011397
000160 d4 16 1c bf 6a 2d 59 be 39 1b f8 be 32 e3 11 bf
       -0.6097233 -0.2120873 -0.4845827 -0.569873
000170 37 a3 01 bf f4 64 01 bf d7 c2 14 bf fb eb 00 bf
       -0.5063967 -0.5054467 -0.581098 -0.5036008
000180 d3 98 0b bf 71 6a c6 be 32 d4 18 be 48 c4 aa be
       -0.54530066 -0.38753083 -0.14924696 -0.33352876
000190 dd 2b 83 be b0 0a a9 be b4 97 27 be 0d b4 81 be
       -0.25619403 -0.33015966 -0.16366464 -0.2533268
0001a0 eb ab 70 be bc b1 89 be 87 d2 1c be 03 06 9c be
       -0.23503082 -0.26893413 -0.15314685 -0.30473337
0001b0 1d 71 99 be a2 2d 3b be 51 7e 49 be 93 d0 89 be
       -0.2996911 -0.18279126 -0.19677092 -0.26916942
0001c0 5d 16 bf be 80 40 44 be 60 b9 69 be fa 9a 3f be
       -0.3732175 -0.1916523 -0.22824621 -0.18711463
0001d0 fb 87 ee bd 7f 11 77 be 68 f2 41 be 84 6d 19 be
       -0.1164703 -0.24127768 -0.18940127 -0.14983183
0001e0 2c 3a 91 be 36 3a 3c be 8b 49 09 be b6 17 0f be
       -0.28364694 -0.1838158 -0.1340696 -0.13973889
0001f0 fe c6 02 be ac 0c 35 be 08 7a 16 be 89 b3 45 be
       -0.12771222 -0.17680615 -0.14694989 -0.19306768
000200 6a 23 40 be 2e 86 ea bd 50 a0 08 be f2 b3 4b be
       -0.1876351 -0.11451374 -0.13342404 -0.19892862
000210 fc ee f7 bd 6e 3a 69 be f2 49 6e be d7 2e 58 be
       -0.121061295 -0.22776195 -0.23270395 -0.21111618
000220 1f be 42 be 5f d2 4d be 98 42 3b be c2 b0 3d be
       -0.19017838 -0.20099781 -0.18287122 -0.18524459
000230 df f8 57 be ab a9 a9 be de 35 81 be 88 d2 5a be
       -0.2109103 -0.3313726 -0.2523641 -0.21369374
000240 02 51 81 be c8 7a 25 be 5b f7 42 be 63 d4 de bd
       -0.25257117 -0.16160119 -0.19039671 -0.10880353
000250 5a 3c 0c be 92 55 3c be 2d 0e 44 be 5c 18 fb bd
       -0.13694897 -0.18392017 -0.19146033 -0.122605056
000260 34 88 11 be 59 c7 fd bd c8 4b c2 bc 92 6d c0 bd
       -0.14212114 -0.12391538 -0.023717776 -0.09395899
000270 cb e4 85 bd 63 e7 a1 bd 40 5f 76 bd 4c b2 a1 bd
       -0.065377794 -0.07905462 -0.06014943 -0.078953356
000280 78 d5 40 bd 32 e8 b3 bd c8 75 b2 bc 38 2c e6 bd
       -0.04707858 -0.08784522 -0.021784678 -0.11238903
000290 50 68 1a bd 92 fb 06 be df b3 d0 bd 0b 43 b5 bd
       -0.037697136 -0.13181904 -0.10190558 -0.08850678
0002a0 a2 ad 2c be d8 20 22 be 10 15 3b be 16 73 24 be
       -0.1686311 -0.15832841 -0.18269753 -0.16059527
0002b0 59 00 37 be bc a0 23 be 8f 2c e9 bd 3e d6 ee bd
       -0.17871226 -0.15979284 -0.11385452 -0.11661957
0002c0 b7 d8 d3 bd 27 99 c3 bd 86 47 23 be e0 22 3a be
       -0.103440695 -0.09550696 -0.15945253 -0.18177366
0002d0 23 86 81 bd a0 a3 23 be 20 0f 18 be 72 eb 88 bd
       -0.06324413 -0.15980387 -0.1484952 -0.06685533
0002e0 c0 5d d8 bd f5 37 1e be e0 58 25 be b0 58 f7 bd
       -0.105647564 -0.15451033 -0.16147184 -0.12077463
0002f0 da 3c 0f be 1a 46 e6 bd 4e b8 00 be 9a 9a f5 bd
       -0.13988057 -0.112438396 -0.12570307 -0.119923785
000300 ec 89 e3 bd c9 9b fb bd 92 da 0f be 40 5e c8 bd
       -0.11110291 -0.12285573 -0.14048222 -0.09783602
000310 06 aa c2 bd 28 bc d5 bd 8d 97 17 be f0 d8 4f be
       -0.09505086 -0.104362786 -0.14803906 -0.20297599
000320 c8 79 bc bd b5 f9 03 be 00 bd d6 bd e6 a1 ad bd
       -0.092029154 -0.12888224 -0.10485268 -0.08478145
000330 a5 a3 99 bd 57 d0 b2 bd 2e c4 08 be 70 da cf bd
       -0.07501916 -0.08731144 -0.13356087 -0.101490855
000340 db b1 80 bd 46 2b 1f be 29 05 8d bd 10 4a 01 be
       -0.06283923 -0.15543851 -0.0688575 -0.12625909
000350 76 71 3e be 54 34 04 be 03 44 f1 bd a8 b3 ef bd
       -0.1859797 -0.12910587 -0.1178055 -0.117041886
000360 60 90 01 be e3 c3 37 be aa c4 d8 bd 46 8c 00 be
       -0.12652731 -0.17945819 -0.10584386 -0.1255351
000370 9e 85 22 be 76 3f 31 be 34 72 5c be 7f 37 78 be
       -0.15871283 -0.17309365 -0.2152794 -0.2423992
000380 01 ec 41 be 7e e3 30 be 02 ec 62 be fc 7a 1e be
       -0.18937685 -0.17274281 -0.22160342 -0.15476602
000390 2a 81 60 be 12 f7 5c be 09 03 60 be d6 aa 42 be
       -0.21924272 -0.21578625 -0.21876158 -0.19010481
0003a0 d1 df 15 be f4 bb 3d be f0 02 43 be b8 50 46 be
       -0.1463616 -0.1852873 -0.1904409 -0.1936673
0003b0 eb 53 65 be 3b 8c 76 be 81 19 34 be ca 23 2c be
       -0.22395293 -0.24076931 -0.17587854 -0.16810527
0003c0 86 9a 33 be 6e 2b 36 be 6a 8d 1d be c0 b4 39 be
       -0.17539415 -0.17790005 -0.15385976 -0.18135357
0003d0 66 db 2e be 5a e0 1a be 16 26 09 be bf 8c c8 bd
       -0.17075881 -0.15124646 -0.13393435 -0.0979247
0003e0 58 f9 7f bd dc db 25 bd a5 dc 57 bd 4a 2b ab bd
       -0.062493652 -0.040492877 -0.052700657 -0.08357866
0003f0 2c d5 5c bd ff 49 8d bd e3 c4 f5 bd 0d 84 a1 bd
       -0.053914234 -0.06898879 -0.12000444 -0.07886515

batch_normalization_2/batchnorm/mul f4 [768]
000000 ab ec 8d 35 5d 55 25 3c fc 66 5a 3b 0e 5c 29 b8
       1.0574198e-06 0.010091153 0.0033325544 -4.0378472e-05
000010 ad e1 b6 3b c5 db b2 3f c4 89 54 ba bf ab 92 39
       0.005581102 1.3973318 -0.0008107687 0.0002797525
000020 a5 b6 87 39 aa bd 9f 3f 7a 0e 68 ba 79 8f b3 b8
       0.00025885287 1.2479756 -0.0008852255 -8.562109e-05
000030 e4 a1 d1 38 55 66 07 39 9b 9c 81 38 79 fa 64 38
       9.996051e-05 0.00012912725 6.1803694e-05 5.4592707e-05
000040 24 b4 d4 36 5f c5 60 38 0f 2f 95 bb 70 39 93 bb
       6.3390635e-06 5.3589578e-05 -0.004552729 -0.004492931
000050 b3 59 6c 38 ec 58 b7 3b 03 1a 1b 39 ee e8 96 38
       5.6350324e-05 0.005595317 0.00014791642 7.195944e-05
000060 4d 29 ad b8 57 21 34 3d 5b 90 ed b6 d5 dc 04 b9
       -8.256976e-05 0.043977108 -7.0799556e-06 -0.00012670767
000070 aa 46 c3 b7 5b 5b 94 38 10 e7 80 39 fa b7 4b b9
       -2.3278717e-05 7.074206e-05 0.00024586217 -0.00019428125
000080 c6 35 78 ba 8d bc 2c 3a 08 40 9b 38 47 74 ac b7
       -0.0009468462 0.00065893756 7.402903e-05 -2.0558144e-05
000090 4a 80 8e b8 82 2c 05 39 b8 29 20 b8 f9 2e c2 b9
       -6.794983e-05 0.00012700449 -3.8185826e-05 -0.0003703756
0000a0 be 54 3d b8 7e 80 12 3a fe 83 d5 35 18 5d aa 3d
       -4.5140034e-05 0.0005588605 1.5908151e-06 0.083185375
0000b0 76 f7 16 b7 45 45 18 b9 77 29 54 b8 5b 13 98 39
       -8.998313e-06 -0.00014521655 -5.0583356e-05 0.0002900612
0000c0 7d 61 59 ba ce 1b 42 b9 21 d8 84 3a 57 20 61 b7
       -0.000829242 -0.0001851164 0.0010135212 -1.3418575e-05
0000d0 04 3b a1 bb af 9d 27 bb 34 a5 05 3b 68 7e 5f 3e
       -0.0049203653 -0.0025576164 0.0020392658 0.21825564
0000e0 1b 08 87 39 21 34 ac ba 5e c6 cc ba 9f e9 28 3a
       0.00025755246 -0.0013138094 -0.0015623083 0.00064435037
0000f0 3c bf 9c 39 4d 7e 01 3c fe 52 6d bb c9 29 06 3b
       0.0002989712 0.007903648 -0.0036212797 0.0020471683
000100 d9 ec 45 3c 7e 5f 24 3f f5 66 28 bc 63 33 10 bc
       0.012080395 0.6420821 -0.010278453 -0.008801314
000110 9a 2e 5e 39 ea b5 92 bb 59 2b 5c 39 bc df ac bb
       0.0002118893 -0.0044772523 0.00020996983 -0.0052756947
000120 27 9c 5a bb 52 39 8b 3b f5 e7 04 3c 9e e2 ff 3b
       -0.0033357234 0.0042487765 0.0081119435 0.0078089973
000130 d4 0d e2 bb a4 18 1d bb 2f 00 8c bc 53 5c 36 3b
       -0.006898621 -0.0023970986 -0.017089931 0.0027826026
000140 4b 25 2b bb 60 60 3f bb fd c0 8b bb 43 cd 02 3c
       -0.0026114758 -0.002920173 -0.0042649494 0.0079835085
000150 ff 81 eb 3b 4b e3 04 ba 37 3e 88 bc dc 3d 35 bc
       0.0071871276 -0.00050692697 -0.016631229 -0.011062112
000160 cd 47 82 bb c4 82 48 ba 1a 39 3c 3c 9d b4 9e bc
       -0.0039758445 -0.000764888 0.011488223 -0.019373232
000170 79 62 04 3c 48 2c 14 ba 38 3c ad 3b 21 f3 52 bc
       0.008080118 -0.00056523504 0.0052867197 -0.012875349
000180 27 1a 0b 3c 10 1c 1c bc 34 1a cf 3b cd 5e 67 ba
       0.008490122 -0.009528175 0.0063202623 -0.0008826077
000190 ab 6b 38 ba e7 1f af b8 2c df 00 40 df 15 e4 ba
       -0.0007035087 -8.3505925e-05 2.0136213 -0.0017401538
0001a0 c1 cc d2 bf 51 71 3f 3d be 7f 6c b6 29 1c 57 bc
       -1.6468736 0.046738926 -3.5241096e-06 -0.0131292725
0001b0 6a ea c3 3c ef cd 89 40 d4 b9 71 bb 97 49 f5 3c
       0.023915488 4.3063884 -0.0036884444 0.029942317
0001c0 d4 e0 75 3c 29 6a 04 3b 82 be ca 40 e1 4f 39 ba
       0.0150072165 0.0020204878 6.3357553 -0.0007069093
0001d0 7a c6 36 b9 51 73 87 bc c2 7d e8 ba dc 36 91 3b
       -0.00017430811 -0.01653448 -0.0017737674 0.0044315886
0001e0 1b 29 9a 3b 74 11 4c 41 4c f4 1f 3b bb dd d4 3b
       0.004704607 12.754261 0.0024407087 0.006496159
0001f0 52 0f 78 3c 9c 86 ff 3c dc a1 db bc d1 07 c4 ba
       0.015140371 0.031192116 -0.026810579 -0.0014955943
000200 b5 52 95 3c 6b ff af 40 1d a1 05 bc d6 f9 86 3c
       0.018227914 5.499929 -0.008156088 0.016476553
000210 42 b7 81 3c 05 18 8e bc 83 fc 88 bb 62 e6 38 3c
       0.015834454 -0.017345438 -0.0041804924 0.011285396
000220 fd 78 de b9 78 50 66 3b 5e 4b 77 3b 79 d4 cd 3a
       -0.00042433283 0.0035143178 0.0037734131 0.001570358
000230 79 62 a5 bb 66 07 d8 3b 3a 85 ee 39 47 9b a0 39
       -0.0050471392 0.006592679 0.0004549416 0.0003063327
000240 ed 6f 31 bb b5 24 12 39 7a 9c 5f ba 49 c3 4c 3a
       -0.002707477 0.0001393732 -0.0008530092 0.0007811082
000250 b5 8c b6 b9 2b ee a4 3b 1e e4 8f 39 30 8d 04 39
       -0.0003481858 0.0050332746 0.00027445046 0.00012641097
000260 42 cc 8b 39 f6 d1 8c 38 21 8f ab 38 cd ff 52 38
       0.0002666433 6.7148285e-05 8.180575e-05 5.0306135e-05
000270 a3 d6 c4 b8 76 c8 5e 38 e2 66 04 39 e8 ad 14 b9
       -9.3859875e-05 5.311562e-05 0.00012626828 -0.00014179165
000280 10 71 98 39 63 18 1a b8 2a 3d c0 b9 3c 15 63 b7
       0.00029075937 -3.6739173e-05 -0.00036666665 -1.3535198e-05
000290 51 62 4d ba 25 fa 1b 3c f9 d3 8a bb 9f d0 56 3b
       -0.00078347797 0.009520088 -0.004236695 0.0032778156
0002a0 6f 69 35 3b 8d 2e 89 bc b8 83 20 b8 ce af 7c 39
       0.0027681252 -0.01674583 -3.8269645e-05 0.00024098085
0002b0 54 41 0a 3b ff 7b c5 bb d2 12 c1 bb a0 b3 aa bb
       0.0021096068 -0.0060267444 -0.005892136 -0.0052094012
0002c0 b4 9b 9e be 5c 5e 0f b9 02 44 07 b9 39 97 86 bb
       -0.30978167 -0.00013672694 -0.00012899938 -0.0041073826
0002d0 3c 67 f5 3b 93 04 65 bb 64 21 33 bc 34 47 f6 3c
       0.007489113 -0.0034945353 -0.010933254 0.03006325
0002e0 a2 1f 8f bb 38 f7 06 3d d7 c1 ab 40 01 78 46 b8
       -0.0043677846 0.03295061 5.367412 -4.731864e-05
0002f0 89 ba 9d b9 e4 a0 18 bd 45 07 dc 3c 95 9e 7d bb
       -0.00030084353 -0.037262812 0.026858935 -0.0038699259
000300 8c 67 0f ba f0 8c b1 40 91 b1 b1 3c 1d 17 e8 bb
       -0.0005470447 5.5484543 0.021691116 -0.0070828334
000310 ac bd 12 3c 1c 16 27 41 d3 7d 84 b8 ad 2e 9d 40
       0.008956354 10.442898 -6.317687e-05 4.9119477
000320 90 75 6f b9 7d a6 7f 3a 56 15 11 bc 8b cf d5 3b
       -0.00022836612 0.0009752287 -0.008855185 0.006524985
000330 ba e0 9a 3c fe df 8d 38 0b c6 f5 bb 78 6a 92 bb
       0.018905986 6.765126e-05 -0.007500415 -0.0044682585
000340 60 01 45 bc 40 99 dc 3c ab 19 eb bc 51 f4 5a bd
       -0.012024254 0.026928544 -0.028698763 -0.053455655
000350 c8 a7 6d 3a e9 b0 b5 3c 89 32 b9 bc dc 1e c3 40
       0.0009065834 0.022179084 -0.022607105 6.097517
000360 80 eb 19 3c 3f 0b fa bc e9 06 49 ba b1 32 a7 bc
       0.0093945265 -0.03052294 -0.0007668571 -0.020409914
000370 55 e1 2b 3b 41 16 3c b9 c6 d9 c0 bc 86 3d 80 bc
       0.0026226838 -0.00017937367 -0.023541342 -0.015654337
000380 8f f7 17 bc 72 35 71 bc 12 94 71 3a 5b 65 77 bc
       -0.009275331 -0.014722215 0.00092154846 -0.015099849
000390 d9 20 a1 3c 68 00 4e 3c 46 36 54 bc cd ef e6 ba
       0.019668983 0.012573339 -0.012952393 -0.0017619074
0003a0 c9 dd 81 bc 29 bf 9b b6 bf 18 c9 bc 61 48 1a 40
       -0.015852826 -4.641614e-06 -0.024547933 2.4106677
0003b0 d4 a6 4a bb 59 d2 d7 3b 8a e1 f0 3b 8a 28 bc 3a
       -0.0030922191 0.0065863547 0.007351105 0.0014355343
0003c0 59 ee 70 ba ff 9d d0 3c 21 ab 16 bd 36 33 78 3c
       -0.000919079 0.025465963 -0.036784295 0.015148928
0003d0 18 67 2c b9 28 47 59 3c 88 2c b2 3b 8c 55 93 bb
       -0.00016441604 0.013261594 0.0054374374 -0.004496282
0003e0 7b 28 f4 3b 72 0a da 3b 31 2e 2c 3a bd 23 3e bc
       0.0074511147 0.006654077 0.00065681624 -0.0116052
0003f0 c9 5b c2 3b 5b 0d 22 40 71 a7 5f bc 71 fb fc 41
       0.005931352 2.5320652 -0.013650761 31.622774

batch_normalization_2/batchnorm/sub f4 [768]
000000 4d 44 a5 bb dc c1 28 be 80 10 bf 3d 30 94 e1 ba
       -0.0050435425 -0.16480201 0.09329319 -0.0017210301
000010 a2 7b b2 bd 30 68 43 c1 37 c6 f1 bd b7 14 a4 3d
       -0.08714987 -12.212936 -0.118053846 0.080117635
000020 1c 9f c3 3d ff f9 64 c1 46 29 f1 bc 72 4d 4d bd
       0.09551832 -14.311034 -0.029438626 -0.050122686
000030 de b4 2a bc c2 0e 1f 3d 6f 7a c2 3c 6c e3 af 3b
       -0.010419099 0.038832434 0.023740022 0.005367687
000040 48 5f 98 ba d1 a7 59 3d fc 63 74 40 84 0b 4e 40
       -0.0011625076 0.053138558 3.8186026 3.2194529
000050 2d 06 07 bd 0a 6d 9a c0 c5 ba c6 3c 1e 3d 03 3d
       -0.032964874 -4.8258104 0.02425898 0.032040708
000060 c4 6d 7b bc e1 ff 70 c0 7b c0 33 bd 16 c5 7b bc
       -0.015345994 -3.7656176 -0.043884736 -0.015366813
000070 9c c0 05 bd 8a 59 02 3c 9b c5 88 bd 40 9f 62 bb
       -0.03265439 0.007955918 -0.06678315 -0.0034579784
000080 f0 0f 16 3c e8 6f 6d 3c c6 c7 3d 3d 6e bb 0c 3d
       0.009159073 0.014492013 0.046333097 0.034358434
000090 6c 4b 85 bc 2e f9 be 3c 13 47 42 bc d6 3d 99 bc
       -0.016271316 0.023312178 -0.011857766 -0.018706243
0000a0 f6 6b 58 3d b4 a2 f6 bc 5e e8 b6 bb d2 9f f7 3f
       0.052837335 -0.03010688 -0.0055818995 1.9345648
0000b0 32 e1 51 bc 9e d5 b7 bb 4b b0 15 3d 73 0d e2 3c
       -0.012810038 -0.005610182 0.03654508 0.027594304
0000c0 02 65 5b bc 08 1d 39 bb 84 c5 7b 3d 7e fc 10 3d
       -0.013390781 -0.0028246064 0.061467662 0.035397045
0000d0 a0 df 9b 3a 2a 42 e9 bc e0 19 e9 bb 3b 7a ef 3f
       0.0011892207 -0.028473932 -0.0071136802 1.8709177
0000e0 d6 b9 8c bd 67 71 a9 3c 68 a6 55 bd 73 94 fa 3c
       -0.06871383 0.020683957 -0.05216065 0.030588364
0000f0 50 6a cf 3b 80 a6 8d 39 78 df c1 3b b6 3c 6f bc
       0.006329812 0.00027017668 0.005916532 -0.014601877
000100 70 2d 88 bb 78 98 60 bf 25 53 91 3d 6a e3 c6 3c
       -0.004155807 -0.8773265 0.07095937 0.024278361
000110 6c ef 13 3a f2 de 4e 3d 1a 5b dc bc 6a 36 66 3d
       0.00056432816 0.050505586 -0.02689891 0.056204237
000120 e9 92 10 3d 40 e5 1c 3b 8c 44 8d bd b1 d2 ac bc
       0.035296354 0.0023940355 -0.0689784 -0.02109656
000130 5a 87 2d bc 6e 7b 81 bc 9e b4 96 3d 98 2b 43 bd
       -0.010591352 -0.015805926 0.07358669 -0.047648996
000140 aa 1d 14 3d a0 b8 02 3d 8c 69 44 3d 64 b7 2a bd
       0.036161102 0.031914353 0.04795222 -0.0416788
000150 e4 cf d6 bc 0d 80 9c 3d 81 a5 01 3e 73 32 56 bd
       -0.026222177 0.07641611 0.12660791 -0.052294206
000160 73 d3 c2 3c 54 7c dd bc 87 3e c0 3c 20 3e 90 bd
       0.023782467 -0.027036823 0.023467315 -0.070430994
000170 e0 1e a4 bc 8c 92 48 bd 3b 19 14 bc 3d 6d d7 bc
       -0.020034254 -0.048967883 -0.009039219 -0.026297206
000180 1d 3a b8 bc e9 1c 87 bd a0 c3 4a bd c3 6f 24 3c
       -0.022488648 -0.06597311 -0.04950297 0.010036412
000190 43 80 37 bc b0 b6 8d bc 1c 6e 20 c0 56 02 e1 3c
       -0.011200014 -0.017299026 -2.5067205 0.027466934
0001a0 e6 b3 ed 40 b6 a1 99 bd 47 3e 7f 3b 26 f3 af 3d
       7.4282103 -0.07501547 0.0038947032 0.08591299
0001b0 b3 ad e0 bc 3c 9a 8f c0 c4 3c 04 bb 9b 6b d6 bd
       -0.027426576 -4.4875774 -0.002017782 -0.10469743
0001c0 a2 1e 2d be 5f 77 07 be 5c 44 af c0 fb a2 d4 3c
       -0.16906217 -0.1322913 -5.4770947 0.025956621
0001d0 13 a4 97 bc b4 61 d4 3d 94 fc 02 bb ae 9a ad bd
       -0.018510854 0.10370198 -0.0019986974 -0.084767684
0001e0 1a 76 af bd 58 70 6b c1 16 d4 9c bc a4 ad 64 bd
       -0.08567448 -14.714928 -0.0191441 -0.05582966
0001f0 1c 42 6f bd 92 a1 de bd df f9 cc 3d 82 c2 86 3d
       -0.058412656 -0.10870661 0.10008597 0.06580068
000200 12 7a 5c bc 7b be 28 c1 5b 2b 96 3d 9b 09 05 be
       -0.013456838 -10.546504 0.07332488 -0.12991945
000210 d0 08 cf bd 0c 52 ff 3d 05 6d e5 3d ce 7c f8 bd
       -0.10109103 0.12466821 0.112024345 -0.121331796
000220 24 42 17 bc 96 56 53 bd 2e e6 13 bd 92 7e a5 3c
       -0.009232078 -0.051596247 -0.03610819 0.020201955
000230 0b 89 45 3d 27 ef a6 bd 3d 99 57 bd ce af 5a bd
       0.048226397 -0.081510834 -0.052636374 -0.053390317
000240 d2 3d 70 3d 2b 67 0d 3d 9a 78 b1 3d 93 e2 4b bd
       0.058652706 0.034522217 0.08665581 -0.049776625
000250 87 a7 85 3d 13 48 b0 bd b4 b1 22 bd a3 77 d2 bd
       0.06526094 -0.08607497 -0.039720252 -0.10276725
000260 1a 86 a2 bd 8a 56 96 bd 07 be db bd 0b d9 14 be
       -0.07935734 -0.07340725 -0.10729604 -0.1453592
000270 24 04 ae 3d 33 1f 13 be 0e d2 e6 bd 18 27 4f 3d
       0.084968835 -0.1436737 -0.112705335 0.050574392
000280 25 f2 c8 bd 10 8b d4 3c 1b a7 90 3d d0 a4 76 3c
       -0.098118104 0.025945216 0.07063123 0.015053943
000290 4a 56 aa 3d 32 47 15 be fc 62 fd 3d 7c c5 f8 bd
       0.083172396 -0.1457794 0.123723954 -0.12147042
0002a0 43 27 d6 bd ba ac e4 3d 44 bf ea bb 2a 91 f4 bc
       -0.10456707 0.111657575 -0.007163914 -0.029854376
0002b0 ac 08 a4 bd c3 80 05 3e 41 83 c4 3d d8 8f 36 3e
       -0.080094665 0.130374 0.09595347 0.1782831
0002c0 08 fd 1c 40 5d 62 b3 3d 0f 4e 13 bd 88 1d 86 3d
       2.4529438 0.08758996 -0.035963114 0.065486014
0002d0 d6 c9 b3 bd 7e 36 d3 3d be 55 16 3e e7 97 e4 bd
       -0.087787315 0.10313128 0.14681146 -0.111617856
0002e0 fc fb f5 3d 16 b7 02 be b1 82 5f c1 80 68 92 3b
       0.12010953 -0.12765154 -13.969407 0.004468024
0002f0 a0 6f 00 3e 57 2a e7 3d 47 56 c4 bd 25 84 a6 3d
       0.12542582 0.112873726 -0.095867686 0.08130673
000300 50 d7 48 bc a9 65 17 c1 34 3f c4 bd 40 75 3d 3e
       -0.012258366 -9.462319 -0.095823675 0.18501759
000310 06 87 bf bd 9b b6 ef c1 b4 da ee 3c 73 49 0c c1
       -0.093519256 -29.964163 0.02915702 -8.767932
000320 a6 dd 44 3c 7f df d4 bc f0 a5 a8 3d 68 8c a6 bd
       0.012015736 -0.025985477 0.08234775 -0.08132249
000330 c2 94 f1 bd e6 15 19 3b 38 4c ab 3d a0 63 94 3d
       -0.117959514 0.0023359 0.08364147 0.072455645
000340 c6 e0 e4 3d 9e 2f 1e be e6 82 0e 3e b4 29 99 3d
       0.11175685 -0.15447852 0.13917121 0.07478657
000350 e4 12 e3 bc 8e 0f 73 bd 09 48 a6 3d 3f 1f 4d c1
       -0.027718969 -0.059341006 0.08119208 -12.820128
000360 0c 77 e2 bd 14 18 30 3e 07 7d a0 bc 7c b5 e5 3d
       -0.11057863 0.17196685 -0.019590868 0.11216256
000370 57 fa 5f 3d a3 fa 37 3d 5c 09 32 3e e6 6e f0 3d
       0.054682102 0.04491676 0.17386383 0.11739902
000380 27 ad e3 3d 8c dd 25 3e f4 79 1c 3d 60 6d e5 3d
       0.111170106 0.16197795 0.03820224 0.11202502
000390 82 ec 18 be a1 6c 9f bd 52 76 a2 3d 94 c2 03 3d
       -0.1493397 -0.07784391 0.07932724 0.032167986
0003a0 37 1a 10 3e d2 29 70 bb 34 21 9a 3d 13 c3 23 c1
       0.140725 -0.003664602 0.07525864 -10.235126
0003b0 b6 a1 07 3d 00 f1 e7 3b aa 01 9d bc c9 bc 81 3d
       0.033113204 0.00707829 -0.019165833 0.06334836
0003c0 f7 39 f3 bd 6c d9 c8 bd 06 90 0d 3e 49 47 1b be
       -0.1187629 -0.09807095 0.13824472 -0.15163912
0003d0 3c 42 d0 bd 6d 46 5b bd 1e 0d b6 bd 6e e1 84 3d
       -0.10168883 -0.05353396 -0.08889221 0.0648831
0003e0 24 2c cc bc fd 2a 03 bd f4 b5 12 3d f2 f9 bc 3d
       -0.024923392 -0.03202342 0.035818055 0.09227361
0003f0 20 80 04 be b2 65 1c c1 3c 70 06 3d 96 1c ba b8
       -0.12939501 -9.774828 0.03282188 -8.874496e-05

dense_1/MatMul_bias f4 [32]
000000 af 2c e0 bf 30 d1 df bf 65 11 df bf ea ed dc bf
       -1.7513636 -1.7485714 -1.7427183 -1.7260106
000010 d5 30 de bf 2d 34 e0 bf 35 ab e0 bf b2 b4 de bf
       -1.7358652 -1.7515923 -1.7552248 -1.7398894
000020 a5 aa e1 bf c1 38 de bf f8 6e dc bf f3 5e e2 bf
       -1.7630202 -1.736107 -1.7221365 -1.7685226
000030 00 46 df bf 93 f0 df bf 54 fd dd bf b1 b8 dd bf
       -1.7443237 -1.7495292 -1.7342935 -1.7321988
000040 63 c2 e4 bf 09 51 e1 bf 34 95 de bf a3 23 e1 bf
       -1.7871822 -1.7602855 -1.7389283 -1.7589
000050 c6 39 e0 bf 4e 85 dd bf 6e b5 e0 bf ad ca df bf
       -1.7517631 -1.7306306 -1.7555368 -1.7483727
000060 da ef e2 bf f8 c2 dd bf 8f 8b e0 bf 13 e8 dd bf
       -1.7729447 -1.7325125 -1.754259 -1.7336448
000070 1d 2e e0 bf 0c f6 e1 bf 3d dd df bf a9 42 e3 bf
       -1.7514073 -1.7653213 -1.7489392 -1.7754718

dense_1/kernel/transpose f4 [32, 768]
000000 ea 13 89 b5 b6 32 21 b9 14 53 49 34 1e 96 34 ae
       -1.0213091e-06 -0.00015373048 1.8749807e-07 -4.1060592e-11
000010 7e a7 9d af ae c4 32 b6 d9 ab 3e 30 4e b9 ce af
       -2.8677144e-10 -2.663855e-06 6.936581e-10 -3.760285e-10
000020 9c 19 a3 30 b9 80 0a b4 d6 27 2c 30 f5 5b a1 b8
       1.186709e-09 -1.289908e-07 6.2629846e-10 -7.6942066e-05
000030 8b 7c 3e 37 a0 d7 fe 37 00 3a d5 af 10 3f b9 36
       1.135388e-05 3.0379568e-05 -3.8785686e-10 5.520771e-06
000040 00 ff 85 30 d2 cb 9c 35 d6 22 97 b6 93 6b 7d b6
       9.749499e-10 1.1682225e-06 -4.504206e-06 -3.7762554e-06
000050 fc 4e f8 2e c0 59 2e 33 cd fd 30 34 8e 80 80 2f
       1.1291765e-10 4.059416e-08 1.648361e-07 2.3374408e-10
000060 14 68 cd b2 ba 4d 8c 2f 3d 8d fa af a4 54 75 36
       -2.391247e-08 2.552108e-10 -4.557509e-10 3.6557112e-06
000070 2f c7 60 34 c6 69 b2 b6 1a 41 84 b7 e3 a0 99 38
       2.0934088e-07 -5.317127e-06 -1.5765941e-05 7.325576e-05
000080 2d cc 51 34 f2 f4 98 32 c0 5f 08 32 f2 5b 01 af
       1.953892e-07 1.7806517e-08 7.938013e-09 -1.1765147e-10
000090 49 13 0b b4 fc 1c 53 37 c8 f0 10 30 32 cb b6 af
       -1.29524e-07 1.25833285e-05 5.2729066e-10 -3.3249986e-10
0000a0 9e 70 2c 2f 26 01 0c 31 d0 0f 3f 32 d0 e6 ec 34
       1.5683319e-10 2.0373334e-09 1.1121259e-08 4.4126364e-07
0000b0 3a 8f 6e 30 4c da 22 af 6d 51 f9 35 37 ec 4d 37
       8.6787433e-10 -1.4811369e-10 1.8575644e-06 1.227395e-05
0000c0 8a 94 07 32 43 be 3c b7 1a 67 b9 38 f2 eb bb af
       7.891808e-09 -1.1249972e-05 8.8406916e-05 -3.418275e-10
0000d0 10 1b 02 b7 65 2a b8 b7 e4 c3 62 35 16 58 6e 30
       -7.754905e-06 -2.195425e-05 8.447662e-07 8.6709073e-10
0000e0 df b8 ae b8 ec d0 8a 37 07 26 e1 31 e4 b5 24 b1
       -8.3314015e-05 1.6548169e-05 6.552685e-09 -2.3968534e-09
0000f0 62 24 95 30 34 cc d6 b6 5a 39 71 b4 46 e8 bd b1
       1.0851517e-09 -6.4014694e-06 -2.2465738e-07 -5.5270304e-09
000100 c6 7f 03 b4 12 af 3e 38 7e 6e 05 b7 5f ca ba af
       -1.224681e-07 4.5462577e-05 -7.953144e-06 -3.3976996e-10
000110 ee ca 3a b5 fd 87 bf 30 b3 c5 58 b3 86 b9 b3 2f
       -6.95857e-07 1.3935729e-09 -5.0471225e-08 3.2691733e-10
000120 de cc d1 af 56 81 1b 31 09 bc d7 b4 0a 28 29 34
       -3.8162445e-10 2.2628988e-09 -4.0183684e-07 1.5753918e-07
000130 92 c3 ee 35 97 ce b4 33 4b 6a d9 b6 76 ae 16 36
       1.77893e-06 8.419482e-08 -6.479478e-06 2.2453291e-06
000140 d4 45 6e 34 10 79 81 b5 d3 e3 5a 38 ff a5 8a 38
       2.219088e-07 -9.646483e-07 5.2187428e-05 6.611272e-05
000150 90 b6 8e b8 3e 10 5c 35 d3 1f ae b5 6c 60 82 b6
       -6.8050926e-05 8.198002e-07 -1.2973272e-06 -3.885527e-06
000160 18 7f 48 ad 81 ad 93 b0 08 0d 93 2f 82 91 be 35
       -1.1396904e-11 -1.074497e-09 2.6748403e-10 1.4198451e-06
000170 d6 8c dd 38 e2 07 a7 b8 17 cc 13 b9 c4 28 7d 30
       0.00010564334 -7.964649e-05 -0.00014095042 9.2098795e-10
000180 b5 0b 16 b8 20 3f 3b 36 b6 e5 cc 32 5b 5b 34 34
       -3.577369e-05 2.7901915e-06 2.3853186e-08 1.6797041e-07
000190 72 4b 99 b4 57 c5 86 35 b2 6c 93 37 10 c5 ab b0
       -2.8553364e-07 1.0041211e-06 1.757438e-05 -1.2497896e-09
0001a0 46 55 8d b7 99 5e 39 32 42 3d 0d af c6 4f c7 af
       -1.6848218e-05 1.0789926e-08 -1.2845638e-10 -3.6254572e-10
0001b0 91 ea 3a 2e 82 2f 96 36 9c 16 00 b1 08 87 c8 af
       4.249984e-11 4.475879e-06 -1.8639303e-09 -3.6475734e-10
0001c0 35 ad ae 38 6a fb 4b b8 60 ce e3 37 80 95 a6 ae
       8.329229e-05 -4.863312e-05 2.715661e-05 -7.5753626e-11
0001d0 64 49 8d 2f 4a 21 80 34 66 96 bf b6 a0 a0 82 32
       2.5699898e-10 2.386608e-07 -5.7097523e-06 1.5207036e-08
0001e0 35 48 c3 af ef 16 95 37 50 1d df af b8 c4 f9 31
       -3.55216e-10 1.7772863e-05 -4.0584291e-10 7.269218e-09
0001f0 6e a4 58 b5 25 56 a9 33 8c dd 5d 30 86 ea 11 33
       -8.0705547e-07 7.885345e-08 8.071417e-10 3.397374e-08
000200 5c c1 42 b1 78 5f 40 b7 cc 73 16 b5 f1 77 cc b8
       -2.8340628e-09 -1.146632e-05 -5.604786e-07 -9.749819e-05
000210 dd 41 3b 36 6a 09 99 ae 2e 74 f5 35 90 d5 04 b9
       2.790351e-06 -6.959307e-11 1.8287735e-06 -0.00012668059
000220 e8 32 17 30 f2 e7 87 30 18 ee a4 2f fe 8e 0c b9
       5.500582e-10 9.888466e-10 3.0000602e-10 -0.00013404709
000230 1e bc fb 34 18 3e c0 af 08 48 16 b2 13 d6 0c 39
       4.6889267e-07 -3.4968717e-10 -8.747527e-09 0.0001343119
000240 c1 8d 25 34 a8 cf 11 36 4f 44 98 34 f5 39 ee 35
       1.5418392e-07 2.1727556e-06 2.8361907e-07 1.774925e-06
000250 19 92 82 32 fa 36 01 30 42 f9 4e b7 8e ee 8f b6
       1.520043e-08 4.7008053e-10 -1.2336592e-05 -4.2895035e-06
000260 e4 44 a8 af 7e 87 09 b1 ef 14 41 b0 a5 58 67 b3
       -3.0607972e-10 -2.0013142e-09 -7.024274e-10 -5.38645e-08
000270 b8 98 87 31 5f ad dd 2f 2a c2 80 2e 36 38 8a b8
       3.9463792e-09 4.0322853e-10 5.8552566e-11 -6.590823e-05
000280 3d d1 a5 38 5a 05 65 37 58 e7 73 af b9 ec 33 b4
       7.906787e-05 1.365071e-05 -2.2182911e-10 -1.6756793e-07
000290 2c 13 1a b1 f6 ee fc b3 d2 57 1f 2e e0 2c 4b ac
       -2.2420847e-09 -1.1778131e-07 3.6230415e-11 -2.8872946e-12
0002a0 da df df b1 1c 86 47 af a6 ba a3 b0 18 c5 69 b2
       -6.515603e-09 -1.814659e-10 -1.191286e-09 -1.3607199e-08
0002b0 0e 31 e1 b6 f2 cd 8c 30 01 36 68 37 47 6c b7 b8
       -6.7112333e-06 1.0244874e-09 1.3840851e-05 -8.746288e-05
0002c0 94 56 90 2f b6 5b aa b4 ab 63 f2 b5 aa 1a ed b4
       2.6254965e-10 -3.1731696e-07 -1.8059412e-06 -4.416409e-07
0002d0 cc 34 e0 33 d2 16 1b b6 f0 f7 0c 35 6e f6 05 b4
       1.04404165e-07 -2.3110083e-06 5.251486e-07 -1.2476241e-07
0002e0 56 1e 77 30 37 fb 5f b6 38 31 bf 38 54 77 ff 2f
       8.9901186e-10 -3.3375816e-06 9.1167574e-05 4.6469018e-10
0002f0 c0 3b 5e b5 10 8f 55 b8 dc 0e e2 34 f4 57 5f b0
       -8.278839e-07 -5.0916395e-05 4.2106592e-07 -8.1251916e-10
000300 a8 17 03 31 ac 3a d0 35 7a 5a 4f b4 dc 1f 07 37
       1.9076456e-09 1.5514283e-06 -1.9311292e-07 8.054045e-06
000310 a8 ff ca b4 8c be e1 b7 8c e8 fb 36 88 35 0a b9
       -3.7811446e-07 -2.691082e-05 7.507455e-06 -0.00013180648
000320 9a 5b cc b8 10 f6 45 b0 12 dd db b3 02 64 03 b3
       -9.74454e-05 -7.201786e-10 -1.0238195e-07 -3.059177e-08
000330 a1 35 20 b2 28 8f 1d 32 bf 75 28 b2 0f 50 51 30
       -9.3254195e-09 9.171153e-09 -9.805659e-09 7.6147527e-10
000340 19 23 0f 33 7e 9b e0 2e 0c 68 3a 32 44 30 c8 35
       3.3326703e-08 1.02139616e-10 1.08502825e-08 1.4915208e-06
000350 a4 50 2e 36 7a a8 05 b0 dc 5d 34 36 5a 65 4b ae
       2.597496e-06 -4.862454e-10 2.6876723e-06 -4.6246874e-11
000360 20 1f cc ad c8 70 ea ae 68 8d 8b 34 ca 00 19 b1
       -2.3205937e-11 -1.0661122e-10 2.5993654e-07 -2.2264879e-09
000370 45 70 81 34 c2 13 48 31 22 57 5d 35 d0 99 4a b0
       2.410981e-07 2.9115061e-09 8.245571e-07 -7.370575e-10
000380 8c 2b 06 31 b0 d1 52 b8 ba ec 2e 32 59 fc 10 31
       1.952432e-09 -5.026319e-05 1.0181958e-08 2.10982e-09
000390 38 6a 1b 30 4f e2 c4 b3 58 b9 c9 36 c4 8d 7a b3
       5.653962e-10 -9.1681265e-08 6.0118437e-06 -5.8336596e-08
0003a0 0f ae c0 35 7f ae 3a 30 a0 c1 81 b2 12 21 5a 30
       1.4355772e-06 6.791438e-10 -1.5105627e-08 7.9354934e-10
0003b0 96 a8 a9 36 8f df e9 33 e6 d5 82 34 28 e7 e3 af
       5.0562185e-06 1.0890573e-07 2.4370019e-07 -4.1455306e-10
0003c0 ca 5d 60 af 0b 8c 0d b7 e2 c6 50 30 fd c0 dc 31
       -2.0406002e-10 -8.436861e-06 7.595259e-10 6.424783e-09
0003d0 83 d3 92 b0 a4 64 e0 36 20 94 1e 39 b9 24 60 30
       -1.0683013e-09 6.6874363e-06 0.00015123235 8.154291e-10
0003e0 47 48 82 36 14 7b 0b 33 cf 54 f5 32 e1 79 b7 36
       3.882716e-06 3.24754e-08 2.856032e-08 5.4680136e-06
0003f0 58 5b 99 b4 86 93 1b b3 bd dc 41 b4 c7 6e 0f 2f
       -2.8564932e-07 -3.622292e-08 -1.805483e-07 1.304513e-10

dense_2/MatMul_bias f4 [16]
000000 2b e8 15 c1 17 e8 15 c1 d7 e7 15 c1 1b e8 15 c1
       -9.369182 -9.369163 -9.369102 -9.369166
000010 fe e7 15 c1 bb e7 15 c1 45 e8 15 c1 bc e7 15 c1
       -9.369139 -9.369075 -9.369206 -9.369076
000020 20 e8 15 c1 e0 e7 15 c1 b4 e7 15 c1 16 e8 15 c1
       -9.369171 -9.36911 -9.369068 -9.369162
000030 19 e8 15 c1 15 e8 15 c1 16 e8 15 c1 d0 e7 15 c1
       -9.369164 -9.369161 -9.369162 -9.369095

dense_2/kernel/transpose f4 [16, 32]
000000 fa b1 83 b7 79 47 90 b7 f4 68 fc 36 85 39 e6 38
       -1.5699294e-05 -1.719942e-05 7.5224034e-06 0.000109779685
000010 48 24 cc b6 30 dc 09 37 35 d6 8a b6 e6 7c 6d b6
       -6.0838975e-06 8.217103e-06 -4.1376575e-06 -3.5388452e-06
000020 90 fe 48 b7 68 ae 80 b6 d4 a5 8a 36 c0 d3 f3 b8
       -1.1980199e-05 -3.835001e-06 4.1320254e-06 -0.000116265845
000030 ae b9 a3 b6 14 3d fc b6 5c 4c eb b6 4b b7 cc b6
       -4.8793945e-06 -7.5172957e-06 -7.012435e-06 -6.101012e-06
000040 50 ec c0 36 84 11 8f 35 b4 35 7b b8 84 96 3b b7
       5.7495563e-06 1.0659428e-06 -5.989308e-05 -1.1181113e-05
000050 4a 64 ef 38 37 2b 5c b8 04 7f 99 b7 51 37 c1 b5
       0.000114150884 -5.2492334e-05 -1.8298168e-05 -1.439572e-06
000060 30 44 86 37 c8 1d 44 35 1e 5e 5c 38 86 eb 60 37
       1.6005797e-05 7.305903e-07 5.253974e-05 1.34062775e-05
000070 f7 9f 37 b6 0f 3e 8f b7 08 74 25 b8 f7 5d 0c 37
       -2.7362237e-06 -1.7075827e-05 -3.9447128e-05 8.366528e-06
000080 dc 96 b1 b6 ec 87 ed b7 66 a7 e6 38 ff 9f ab b7
       -5.2925734e-06 -2.8315895e-05 0.00010998435 -2.0459293e-05
000090 4d bd 14 b8 a9 81 06 b8 8d 94 6b b7 63 ef bb 37
       -3.546225e-05 -3.2068845e-05 -1.4041679e-05 2.240361e-05
0000a0 94 fa f5 36 ca 67 7d b7 0a 67 b8 b7 b2 7e 16 b7
       7.33074e-06 -1.510414e-05 -2.198249e-05 -8.970195e-06
0000b0 fd 02 94 b7 f0 65 d8 35 72 6e c9 36 9e ab 94 b6
       -1.7644366e-05 1.6122922e-06 6.0031243e-06 -4.4307226e-06
0000c0 4e ce 91 b7 1e 0e c8 b7 a0 d3 3a 34 e2 c0 a1 b6
       -1.7381415e-05 -2.3848432e-05 1.7399589e-07 -4.8206284e-06
0000d0 9e 16 16 b7 66 27 1f b7 08 38 ff b5 da 50 dc b7
       -8.945963e-06 -9.486312e-06 -1.9015288e-06 -2.6263693e-05
0000e0 a0 15 08 b8 22 4d eb b7 b4 2e 66 37 cc 30 3f 38
       -3.2445067e-05 -2.80501e-05 1.3719942e-05 4.5583394e-05
0000f0 7e 70 7a b7 b6 a2 ce b6 70 4b 81 b6 2a 3f dc b7
       -1.4927353e-05 -6.1582205e-06 -3.8532817e-06 -2.6255457e-05
000100 f7 cc 4f b7 65 10 3f b7 96 0c 92 36 2d e9 1f b7
       -1.2385884e-05 -1.1388304e-05 4.3526043e-06 -9.531429e-06
000110 bc e7 d1 b5 d0 82 11 35 9e 0b 69 b7 4e c3 a2 b6
       -1.5639157e-06 5.4207067e-07 -1.3890587e-05 -4.8507127e-06
000120 be 30 80 36 15 97 56 b6 22 52 49 37 48 4e 5b b8
       3.8203716e-06 -3.1976426e-06 1.1999657e-05 -5.2286574e-05
000130 24 5b 7e b6 3c f4 d9 36 c0 9f 13 35 00 66 78 b8
       -3.7902e-06 6.4955366e-06 5.4994234e-07 -5.9222803e-05
000140 f0 99 7e b7 78 24 48 b8 ac 3e ac 35 86 e5 30 37
       -1.5175421e-05 -4.771768e-05 1.2833239e-06 1.0543858e-05
000150 88 a3 29 36 d6 ca 1a b8 96 9f 37 b7 1e 9e c0 34
       2.527815e-06 -3.6905367e-05 -1.09448065e-05 3.5877832e-07
000160 b8 b6 28 b7 80 49 bd b3 cc 75 85 35 02 cb 3f b5
       -1.0056123e-05 -8.814368e-08 9.943556e-07 -7.144846e-07
000170 cf df d7 b5 4c be 14 b7 b2 8b 73 b7 8a 17 92 b7
       -1.6083885e-06 -8.865794e-06 -1.4516454e-05 -1.7415518e-05
000180 48 d2 94 b5 7e 97 05 b6 86 e7 01 b7 9e df 11 b7
       -1.1088059e-06 -1.9906724e-06 -7.742905e-06 -8.694738e-06
000190 2f d1 5e b8 7e fe 89 38 91 cb 20 b7 80 6c c3 33
       -5.3123742e-05 6.580072e-05 -9.58414e-06 9.100131e-08
0001a0 04 fa 10 38 3c fb 9b b6 24 a7 28 b7 86 d6 3e b7
       3.456512e-05 -4.6486075e-06 -1.0052496e-05 -1.137483e-05
0001b0 d0 ca dd b5 74 5f 38 b7 ac b7 0b b5 5a 35 50 37
       -1.6524809e-06 -1.0989479e-05 -5.2048813e-07 1.2410188e-05
0001c0 cd 5d 18 b8 20 68 89 35 40 e5 8d 35 84 2d b1 b7
       -3.6326983e-05 1.02376e-06 1.0572039e-06 -2.112124e-05
0001d0 9b eb 48 b7 a8 42 5f 37 cd 58 6a b6 56 99 30 37
       -1.1975785e-05 1.3307355e-05 -3.4920406e-06 1.0526119e-05
0001e0 14 48 6b b6 91 05 88 b6 01 f9 35 b7 56 0d 9b b7
       -3.5059684e-06 -4.053764e-06 -1.0846416e-05 -1.848365e-05
0001f0 a6 8b 96 b7 47 99 15 b6 c4 9c 96 b7 20 54 07 b8
       -1.7946422e-05 -2.229195e-06 -1.7954393e-05 -3.2264856e-05
000200 68 e6 92 36 58 fc 17 b8 03 ec 1e b8 58 9f 11 b8
       4.377962e-06 -3.623622e-05 -3.788994e-05 -3.4719094e-05
000210 5a 5e bc b6 76 14 a9 b7 6a 42 1c b8 74 14 d2 b6
       -5.6138206e-06 -2.0155898e-05 -3.725515e-05 -6.2608688e-06
000220 56 56 ea 36 12 63 a8 b7 0f 8b 5d b7 e3 bb 46 b6
       6.9837943e-06 -2.0073294e-05 -1.3205004e-05 -2.9613664e-06
000230 e0 dd 59 36 de 14 d1 b6 64 b3 88 b5 3d 5d f0 b7
       3.2464668e-06 -6.2311146e-06 -1.0184999e-06 -2.8653647e-05
000240 b0 2f 7a b7 1c 58 51 b7 05 40 30 b7 e1 65 47 b8
       -1.4912264e-05 -1.2477885e-05 -1.0505323e-05 -4.754018e-05
000250 60 86 46 38 95 08 e1 b7 98 ea 0b b6 9d d8 b8 b6
       4.7332025e-05 -2.6826086e-05 -2.0849166e-06 -5.5088444e-06
000260 18 86 9f b7 ac 5f 9c 35 b2 b0 1e b7 92 5a 0c b7
       -1.901672e-05 1.165075e-06 -9.458674e-06 -8.365738e-06
000270 e6 e5 40 b6 2a 66 0f 37 dc 30 8a 37 20 9b 1c 37
       -2.8744048e-06 8.547251e-06 1.6473634e-05 9.334442e-06
000280 63 57 82 b7 64 8e 53 b6 7e 0b 48 37 da 44 24 b7
       -1.55379e-05 -3.1524332e-06 1.1923605e-05 -9.7911925e-06
000290 e0 93 29 b6 18 3a 58 b5 38 9f 0a b7 0a 89 1f b7
       -2.5269037e-06 -8.055081e-07 -8.262512e-06 -9.509045e-06
0002a0 74 d3 7e b8 6d 72 86 b7 2c 6e b3 b7 9c 16 73 b8
       -6.075525e-05 -1.6027328e-05 -2.1389766e-05 -5.795677e-05
0002b0 90 ab 3d 38 55 7f 4e b7 25 2c 31 38 7e 06 23 b6
       4.522089e-05 -1.2308204e-05 4.22412e-05 -2.4292672e-06
0002c0 01 79 06 b7 b6 4d 29 b8 0c 37 6a b7 26 c5 8b b7
       -8.015196e-06 -4.0365114e-05 -1.39603035e-05 -1.6661896e-05
0002d0 ec ac 91 36 87 8f 64 b7 17 00 0c b8 84 91 25 b6
       4.3414675e-06 -1.3623277e-05 -3.3378685e-05 -2.4671617e-06
0002e0 8d fd 9b b7 20 4d fd b6 20 2e 7a b7 88 31 14 35
       -1.8595509e-05 -7.548966e-06 -1.49119005e-05 5.5206374e-07
0002f0 aa 62 49 b7 fb 7b b9 b7 cb f8 51 b7 a2 98 90 b8
       -1.2003506e-05 -2.2111451e-05 -1.2515297e-05 -6.894885e-05
000300 94 29 f0 37 ea 14 74 b7 90 b6 22 34 8a e1 11 b7
       2.862959e-05 -1.4548403e-05 1.5153842e-07 -8.695186e-06
000310 82 95 07 36 1c 56 9b b7 e4 62 f3 b5 16 ba df 38
       2.0203593e-06 -1.8517538e-05 -1.8133692e-06 0.0001066813
000320 54 03 8b b7 54 eb 9e b7 03 b4 d5 b6 01 e5 85 b8
       -1.6571641e-05 -1.8944651e-05 -6.368851e-06 -6.3845895e-05
000330 c6 6b 7f b8 ec 45 34 b8 16 5b ff b6 00 51 15 37
       -6.089711e-05 -4.2980464e-05 -7.610196e-06 8.899951e-06
000340 32 15 7b b7 94 7d 08 b7 ae dd 1f b7 c0 34 03 37
       -1.4965701e-05 -8.13547e-06 -9.528752e-06 7.82049e-06
000350 f2 e7 36 37 fa a2 bc b7 70 dc be 34 5b 93 5a b7
       1.0902049e-05 -2.2487238e-05 3.5550647e-07 -1.3028121e-05
000360 0d 47 48 b7 60 96 59 b7 a0 04 e3 b3 b2 63 98 b6
       -1.1937472e-05 -1.296922e-05 -1.05713525e-07 -4.541559e-06
000370 fc a0 24 b7 ca 01 6e b8 ea 0e bc b6 58 de 88 36
       -9.812644e-06 -5.6745288e-05 -5.604573e-06 4.079e-06
000380 a0 49 f7 34 ce 84 5f b7 1c d9 df 37 1c 7b 70 b7
       4.6060904e-07 -1.3322757e-05 2.6684771e-05 -1.4333778e-05
000390 b0 29 91 34 37 52 3a b7 c4 21 95 b6 ce fc 62 b7
       2.7038686e-07 -1.1105606e-05 -4.444477e-06 -1.352951e-05
0003a0 d0 1c d7 b5 e8 ed 06 b7 9c 62 a1 35 51 76 73 b8
       -1.6027134e-06 -8.042414e-06 1.2024134e-06 -5.8045905e-05
0003b0 90 41 52 b7 b8 74 d9 b8 5d b5 9a b6 36 8f b0 b7
       -1.253224e-05 -0.00010369107 -4.610671e-06 -2.1047523e-05
0003c0 f6 bb 2b 37 a2 85 00 b6 4e 40 73 b8 82 02 de b7
       1.0236157e-05 -1.915127e-06 -5.7995603e-05 -2.646563e-05
0003d0 0a 8c 66 b8 00 57 18 36 56 0b c6 b7 34 59 0a b7
       -5.4966695e-05 2.2700406e-06 -2.3608718e-05 -8.24621e-06
0003e0 04 c5 cb 37 9a ce 17 37 34 00 67 b7 55 ab 3e b7
       2.4291228e-05 9.0484045e-06 -1.376872e-05 -1.1364774e-05
0003f0 42 aa 3a b7 37 e0 0a b8 3c 1c 00 b7 96 be 64 b7
       -1.1126105e-05 -3.311058e-05 -7.635968e-06 -1.3634233e-05

dense_3/MatMul_bias f4 [32]
000000 4b bb fd 3f 9f 81 eb 3f a1 95 02 c0 78 cb 14 40
       1.9822782 1.8398932 -2.0403826 2.3249187
000010 2b b5 0c 40 78 5b 05 40 5c 92 d9 bf ac 56 e0 bf
       2.1985576 2.0837078 -1.699779 -1.752645
000020 c4 df ea 3f 7e 6f 1d 40 8d d1 22 40 a3 a9 fb bf
       1.8349538 2.45993 2.54404 -1.9661144
000030 47 f1 1f 40 70 b9 0a c0 f2 40 1a c0 07 85 18 c0
       2.4991014 -2.1675682 -2.410214 -2.3831193
000040 99 f5 d2 3f 68 d3 14 c0 74 b7 f6 bd 28 db 13 c0
       1.64812 -2.3254032 -0.1204671 -2.3102512
000050 fa 12 0e c0 48 2d e0 bf d1 a5 f0 bf 69 4c 96 bf
       -2.2199082 -1.7513819 -1.8800603 -1.1742069
000060 4c ef dc 3f 09 41 0b c0 58 53 02 40 8c a3 dd 3f
       1.7260528 -2.1758444 2.036337 1.7315536
000070 16 bb da bf b6 24 1f 40 66 2a 18 40 da 43 f1 3f
       -1.7088344 2.4866157 2.3775878 1.8848832
