libs/models/mlp_proposal_s.tflite (tflite, 218656 bytes, 16 tensors)

batch_normalization_1/batchnorm/mul f4 [768]
0	0x3c330373	0.010926115
1	0xbb4e5811	-0.0031485597
2	0x3c51b599	0.012799644
3	0xbadb8ff6	-0.0016751278
4	0xbb0475d5	-0.0020211835
5	0xba962e57	-0.0011457902
6	0x3a27bdaa	0.00063988066
7	0x39e31a1e	0.00043316273
8	0xb8593215	-5.1783474e-05
9	0x3a8f3da8	0.0010928409
10	0x3b0d8d83	0.002159924
11	0x3afc783b	0.0019261906
12	0xbb4718d2	-0.0030379784
13	0xbb05255f	-0.0020316464
14	0x3b12bda6	0.0022390871
15	0x3b344960	0.0027509555
16	0x3ba88de3	0.0051438673
17	0x3bad74b0	0.0052934512
18	0xbbd26b64	-0.0064214934
19	0xbb11b21b	-0.0022231403
20	0xb9b7bc48	-0.0003504476
21	0x3adc2d20	0.0016798116
22	0x3aed4fda	0.0018105463
23	0x3ae8a391	0.0017748942
24	0x3ab4e61b	0.0013801487
25	0xbaba066f	-0.0014192591
26	0xbb0ea8e3	-0.0021768145
27	0x3b019eda	0.001977852
28	0x39b4d13b	0.00034488164
29	0x3a259f12	0.0006317954
30	0x3af9bd88	0.0019053677
31	0x3a9a8ecc	0.0011791824
32	0x3a39a1d4	0.0007081304
33	0x3b289d14	0.0025728391
34	0x39ad920b	0.00033105942
35	0xb925dca1	-0.00015817817
36	0xbb4a62f8	-0.0030881744
37	0xbb230f03	-0.0024880774
38	0xbb3d8487	-0.0028918104
39	0x3b38f6f0	0.0028223358
40	0x3a25fe09	0.00063321047
41	0xbb032565	-0.0020011303
42	0x3b760d8e	0.00375447
43	0x3b2226ca	0.0024742358
44	0xba92b2d0	-0.0011192206
45	0xbb26100b	-0.0025339152
46	0xb98c2f10	-0.00026737945
47	0x3a68db0a	0.0008882737
48	0x3b368423	0.0027849756
49	0x3ab9a278	0.0014162799
50	0xbab7fff0	-0.0014038067
51	0x3ae17ae4	0.0017202762
52	0xb93d6a51	-0.0001806405
53	0xba4067c3	-0.00073396805
54	0x3b51bdda	0.003200403
55	0xba617e64	-0.00086019025
56	0xbb082971	-0.0020776654
57	0xba137c8f	-0.00056261657
58	0x3922da0e	0.00015530756
59	0xbab22298	-0.0013590632
60	0x3aef8423	0.0018273633
61	0xbab13872	-0.001352085
62	0x3a932ae2	0.001122799
63	0x3b5de76a	0.0033859857
64	0xbadb9451	-0.0016752576
65	0x3b0d60e6	0.0021572649
66	0xbb31db8d	-0.002713892
67	0xbb20f2ce	-0.0024558785
68	0x39e3c642	0.00043444528
69	0xb891f149	-6.959082e-05
70	0x3b267296	0.0025397888
71	0xb989f62d	-0.00026314092
72	0xb7bed6c3	-2.2749771e-05
73	0xbb25e084	-0.0025310824
74	0xb973d9ef	-0.00023255472
75	0x39825ce3	0.00024864738
76	0xba236a15	-0.0006233764
77	0x3a914a7a	0.0011084818
78	0xb9e403e2	-0.00043490442
79	0x3927c786	0.0001600069
80	0x3995718d	0.00028504097
81	0xb8e4d46f	-0.00010911456
82	0x39881960	0.00025958847
83	0xb91db314	-0.00015039399
84	0x3b6d080b	0.0036168124
85	0x388d4b91	6.737479e-05
86	0x39aef701	0.00033371898
87	0xb99bb5c3	-0.00029699327
88	0x398da32a	0.00027015182
89	0xb94df73c	-0.00019642425
90	0xba2ef305	-0.0006673786
91	0xb8491ff3	-4.795189e-05
92	0xb930ad9a	-0.0001684934
93	0x398610cc	0.00025570986
94	0x38221094	3.863925e-05
95	0x3a175218	0.0005772426
96	0xb9c01d5f	-0.00036642977
97	0x382458a5	3.9183204e-05
98	0xb6a55893	-4.9276946e-06
99	0x3a01bc99	0.0004949063
100	0x390a7c21	0.00013206947
101	0x3895cc91	7.142977e-05
102	0x395fc947	0.00021341919
103	0x366d3885	3.534865e-06
104	0x394d8717	0.00019600648
105	0x38311ef9	4.2228934e-05
106	0x3a36389d	0.0006951185
107	0x3b027bf7	0.0019910315
108	0xb988caf7	-0.00026091162
109	0x3a3a366c	0.00071034464
110	0xb9078091	-0.00012922498
111	0xbaed3c3c	-0.0018099616
112	0x3943f6bc	0.00018688565
113	0xba25e1e4	-0.0006327911
114	0x39b72917	0.00034935094
115	0xb8f618b1	-0.00011734793
116	0xb9fb0283	-0.00047876322
117	0x39d1b620	0.0003999928
118	0xba39c694	-0.00070867804
119	0xb8874871	-6.450795e-05
120	0x39e602fd	0.00043871245
121	0x3ad1b16d	0.0015998312
122	0xb990692c	-0.0002754418
123	0x39cbc7f3	0.0003886815
124	0xb9cb6b87	-0.0003879929
125	0x3a7035fa	0.00091633166
126	0x39e69bb4	0.00043985026
127	0xb8e52c72	-0.000109278495
128	0x39997377	0.00029268462
129	0x39ebea76	0.0004499738
130	0xb92f1897	-0.00016698461
131	0x39b89276	0.00035204337
132	0xb73a8b13	-1.1118845e-05
133	0xb79bae6d	-1.8558663e-05
134	0xb9844b7f	-0.0002523325
135	0x35ebaffd	1.7560084e-06
136	0xb6b74282	-5.4615675e-06
137	0x3776ddc4	1.4714376e-05
138	0x3a5e33d1	0.0008476349
139	0x37cb10c1	2.4207287e-05
140	0xb8e955bc	-0.00011126275
141	0xb9d33f9e	-0.00040292455
142	0x394fd90b	0.00019821913
143	0x3a9d378a	0.0011994701
144	0xba2ffe43	-0.0006713608
145	0xb90e2ccf	-0.00013558868
146	0x3924c54c	0.00015713758
147	0x38ef3bce	0.000114075476
148	0xba4dc7f7	-0.00078499265
149	0xbabbc689	-0.0014326136
150	0x3946b436	0.00018949885
151	0xbb03cc8c	-0.0020110933
152	0x3b05dd92	0.0020426256
153	0x3a5dd28d	0.00084618555
154	0x3b10f7ac	0.002212028
155	0x3a016e55	0.00049374
156	0x3a9fe4d1	0.001219893
157	0xb9a421d4	-0.00031305721
158	0xba43fa11	-0.00074759225
159	0x3a3ce82e	0.00072062283
160	0xbaa452be	-0.0012536866
161	0x39800b8c	0.00024422666
162	0x38665aa7	5.49207e-05
163	0x3aa20657	0.0012361509
164	0xb964314c	-0.00021762139
165	0x394eeddd	0.00019734302
166	0xb4f4cade	-4.5596147e-07
167	0x393ce83e	0.00018015594
168	0x3a095c3c	0.0005239879
169	0x3a597214	0.0008294892
170	0xba1b5e56	-0.0005926838
171	0x3937da29	0.00017533511
172	0xb71712d3	-9.004684e-06
173	0x39322262	0.00016988211
174	0x3a03d705	0.0005029294
175	0x39014eda	0.00012331773
176	0x38bbeb4f	8.9606845e-05
177	0x398b3ccf	0.00026557452
178	0xb86f95f5	-5.71217e-05
179	0xba6a19b4	-0.00089302217
180	0x3909f668	0.00013157132
181	0x3908854c	0.00013019628
182	0xba20b106	-0.0006129894
183	0x3a2cfcb2	0.0006598934
184	0xb93ca5f9	-0.00017990907
185	0xba6fcbf9	-0.0009147521
186	0xb93b6606	-0.00017871716
187	0xb8c172bb	-9.2243274e-05
188	0x391ab31c	0.00014753308
189	0xb9976d0f	-0.0002888222
190	0xb9b01689	-0.00033586126
191	0x39062517	0.00012793053
192	0x3ac0aac6	0.0014699332
193	0xba5421e5	-0.0008092209
194	0xb9670846	-0.00022032959
195	0xba39c95e	-0.0007087196
196	0x375bf59e	1.3110604e-05
197	0xb710c8fc	-8.629864e-06
198	0xb90fa5e4	-0.00013699342
199	0xb8ea50e8	-0.000111730595
200	0xb8c55ccd	-9.4109775e-05
201	0xb8137a78	-3.516159e-05
202	0x394936f6	0.00019189328
203	0xb4ebe140	-4.3936052e-07
204	0xb8397476	-4.42159e-05
205	0xb890325e	-6.875837e-05
206	0x391633a7	0.00014324357
207	0x3a0e5376	0.0005429307
208	0x3acc11e1	0.0015569293
209	0x3a15504e	0.0005695865
210	0x3a3ae1e9	0.0007129
211	0xb799680f	-1.8287477e-05
212	0x389dad5a	7.5186326e-05
213	0xb97d798c	-0.0002417324
214	0x3a06068b	0.00051126693
215	0xb9392695	-0.00017657348
216	0x38c37924	9.320889e-05
217	0xb93a3bba	-0.00017760592
218	0xb8563329	-5.1069223e-05
219	0xb91ec9e9	-0.00015143272
220	0x38ce4363	9.835397e-05
221	0xb8690a57	-5.556116e-05
222	0x36cc22a2	6.0837056e-06
223	0x38e510ed	0.000109227236
224	0xb8e6196e	-0.00010971991
225	0x3904a7f8	0.00012651074
226	0x392b5a5c	0.00016341492
227	0xb9045c61	-0.00012622915
228	0xb8ee5bc9	-0.00011365821
229	0x387134a8	5.7507918e-05
230	0x380cef81	3.3601656e-05
231	0x363e53af	2.8360917e-06
232	0xb93c9fe9	-0.00017988648
233	0xb8cedc5f	-9.863893e-05
234	0x380cd29f	3.3574757e-05
235	0x364c239f	3.0419103e-06
236	0x383db8ce	4.5233224e-05
237	0xb844de2e	-4.6936962e-05
238	0x385cdbb5	5.2656706e-05
239	0x376498bc	1.362542e-05
240	0xb844e941	-4.6947276e-05
241	0xb838e4d4	-4.408213e-05
242	0xb83d2fb8	-4.5105553e-05
243	0x38a7539e	7.9787555e-05
244	0x378a651f	1.649797e-05
245	0x3882f76e	6.2449704e-05
246	0x393838dd	0.0001756879
247	0x38dee9d4	0.00010629339
248	0x39b62619	0.0003474213
249	0xb88de09c	-6.765241e-05
250	0x389b232b	7.3975265e-05
251	0x3905ccee	0.0001276021
252	0x39728ccc	0.0002313137
253	0xb9aea7aa	-0.00033312786
254	0x38c67cb2	9.464602e-05
255	0x39413470	0.00018425449

batch_normalization_1/batchnorm/sub f4 [768]
0	0x3c8f5e24	0.017500944
1	0xbc6caa3c	-0.014444884
2	0x3d22642b	0.03964631
3	0xbcf0a89c	-0.029377274
4	0xbd22cee2	-0.03974808
5	0xbd71c0c8	-0.05902174
6	0x3d6ef055	0.058334667
7	0x3d11328f	0.035448607
8	0xbc9838fa	-0.018581856
9	0x3d3f86f2	0.046759553
10	0xbc99c819	-0.018772172
11	0x3c8ddc94	0.017317094
12	0x3c6a73d0	0.014309838
13	0xbd8516fc	-0.064985245
14	0x3d8a26e9	0.06745703
15	0x3dbdd1a4	0.092685014
16	0x3d1e7c26	0.038692616
17	0x3d084834	0.033271983
18	0xbc41a658	-0.011819445
19	0xbd7c316e	-0.061570577
20	0xbac49a34	-0.0014999569
21	0x3d87eb1b	0.0663664
22	0x3dc810d6	0.09768836
23	0x3e012922	0.12613347
24	0x3dfd68b1	0.12373484
25	0xbde50743	-0.11183026
26	0xbdd427d7	-0.10359161
27	0x3d9e55a7	0.07731181
28	0x3d01ca02	0.03168679
29	0xbc0c40aa	-0.008560339
30	0x3db01bcd	0.085990526
31	0x3da8d956	0.082445785
32	0x3d9aa24a	0.075504854
33	0x3da083a0	0.078376055
34	0x3d2c28dc	0.042031154
35	0xbcaeda70	-0.021344393
36	0xbd9936f2	-0.07481183
37	0xbce86ac4	-0.028371222
38	0xbc7c99e0	-0.015417546
39	0xbd85aea1	-0.065274484
40	0xbbd903ac	-0.006622752
41	0x3d578b00	0.052622795
42	0xbe043de8	-0.1291424
43	0xbd45b33b	-0.04826663
44	0xba2d63c0	-0.000661429
45	0x3d2f8233	0.042848777
46	0x3c7dc24e	0.01548822
47	0xba2ca840	-0.00065863505
48	0xbd9c3af3	-0.07628431
49	0xbcdf8300	-0.027284145
50	0x3da03b8b	0.07823857
51	0xbd9dff44	-0.07714704
52	0xbc7cc222	-0.015427144
53	0x3d2c3142	0.042039163
54	0xbe14cdb6	-0.14531597
55	0x3d1dcea8	0.03852716
56	0x3e269e69	0.16271366
57	0x3c0b5291	0.008503572
58	0xbc9eb31d	-0.019372517
59	0x3dcb2ddc	0.09920856
60	0xbddbd2e8	-0.107335865
61	0x3d9cd5ba	0.076579526
62	0xbda9a7c6	-0.08283953
63	0xbe01d467	-0.12678681
64	0x3ca234b8	0.019800529
65	0xbd219c7c	-0.039455876
66	0x3d118aae	0.035532646
67	0x3d24ba0d	0.040216494
68	0xbbe9f78e	-0.0071401065
69	0x3c252b12	0.01008107
70	0xbd580d25	-0.05274691
71	0xb8ccbf80	-9.763148e-05
72	0xbb0fdd4b	-0.002195197
73	0x3dc7b4e7	0.09751301
74	0xba467fa0	-0.0007572118
75	0xbbbdf5cc	-0.0057971235
76	0xbcb2bfd4	-0.021819986
77	0x3b558b40	0.003258422
78	0x3cb6163c	0.022227399
79	0xbb08e2f4	-0.0020887228
80	0xbc914977	-0.017735226
81	0xbb8b3fdd	-0.0042495565
82	0xbba78a62	-0.005112932
83	0xbc398c7f	-0.011325001
84	0xbe3403a6	-0.17579517
85	0x3bbef8c6	0.005827996
86	0xbc170540	-0.00921756
87	0x3cb1257d	0.021624321
88	0xbc9e79cc	-0.019345187
89	0x3b8e9ac2	0.0043519447
90	0xbcb314c6	-0.021860491
91	0x3b4445ac	0.0029948754
92	0x39a13db0	0.00030754274
93	0xbc8ae5f8	-0.01695536
94	0x3b664c84	0.0035140822
95	0xbc4aef2c	-0.012386125
96	0x3b849b34	0.004046822
97	0xbc29450e	-0.010331405
98	0x3c1735f6	0.009229174
99	0xbd176983	-0.03696586
100	0x3c8555ca	0.016276259
101	0xbc090f2a	-0.008365432
102	0xbb2028c0	-0.0024438351
103	0x3ae39b74	0.0017365054
104	0xbc6e2e53	-0.014537412
105	0xbb366b71	-0.0027835036
106	0xbcf21c16	-0.029554408
107	0xbd1c7642	-0.038198717
108	0x3cc22536	0.023699384
109	0x3b80b180	0.0039274096
110	0x3d5680b0	0.05236882
111	0x3daccb25	0.08437184
112	0xbbc52ea3	-0.0060175224
113	0x3d9d6168	0.076845944
114	0xbc4d1609	-0.012517461
115	0xbd1030f6	-0.035202943
116	0xbd87c869	-0.06630022
117	0x3cd95083	0.026527649
118	0xbc3d23e8	-0.011544205
119	0x3c9bcf70	0.019019812
120	0x3d1536f2	0.036429353
121	0xbd977094	-0.073945194
122	0x3af75da0	0.0018872507
123	0xbc363bb2	-0.011122631
124	0xbb2acf58	-0.0026063528
125	0xbdb3f489	-0.08786876
126	0xbd7cd9d0	-0.06173116
127	0x3c8b0270	0.016968936
128	0xbd8a5bad	-0.06755767
129	0xbdb00873	-0.085953616
130	0x3dd980ca	0.10620268
131	0xbdf958a8	-0.12175113
132	0xbc3a3789	-0.01136578
133	0x3ca077fb	0.019588461
134	0x3d466db6	0.048444472
135	0x3a93bb90	0.0011271108
136	0xbb01c56d	-0.0019801513
137	0xbd41bbc0	-0.047298193
138	0xbe18fd9c	-0.14940494
139	0x3bbb6cde	0.005719765
140	0xbcd6a8d8	-0.026203558
141	0x3cdfaab4	0.027303077
142	0xbd916e31	-0.071010955
143	0xbdd08572	-0.10181703
144	0x3d944476	0.072396204
145	0xbc2c53ee	-0.010518057
146	0xbd7e8cb6	-0.06214591
147	0xbca35654	-0.019938625
148	0x3d60d434	0.054889873
149	0x3e17de16	0.14830813
150	0xbd4d74c6	-0.050160192
151	0x3e185b39	0.14878549
152	0xbe31de5e	-0.17369983
153	0xbd1de0ee	-0.038544588
154	0xbde8bdfc	-0.11364362
155	0xbce339ff	-0.027737616
156	0xbdd371b8	-0.103244245
157	0x3dcb33fd	0.09922025
158	0x3d46f727	0.048575547
159	0xbd13e794	-0.036109522
160	0x3d55f36e	0.052234106
161	0xbbe9865c	-0.0071266126
162	0x3c71c124	0.014755521
163	0xbdd49b5f	-0.10381197
164	0xbb370ec0	-0.0027932376
165	0x3a9b8f50	0.0011868272
166	0xba1f329b	-0.00060729095
167	0x3ccb3280	0.024804354
168	0xbd99edae	-0.07516037
169	0xbe1f3473	-0.15547352
170	0x3d67a254	0.056551293
171	0xbcd1a182	-0.025589708
172	0xba086700	-0.00052033365
173	0xbd0ba77c	-0.034095272
174	0xbd0065c4	-0.03134705
175	0xbc21816e	-0.009857519
176	0xbc7ffd1c	-0.015624311
177	0xbd32e6e1	-0.043677215
178	0x3cd0cd60	0.025488555
179	0x3dce378a	0.10069187
180	0xbd57dce3	-0.05270089
181	0x3c2f624e	0.01070459
182	0x3d7063fb	0.0586891
183	0xbde76e9e	-0.113003954
184	0x3d710a03	0.05884744
185	0x3e3da15b	0.18518583
186	0x3cf935d4	0.030421175
187	0x3d9d640e	0.076850995
188	0xbda3083a	-0.079605535
189	0x3e0ac708	0.13552487
190	0x3e01cce6	0.12675819
191	0xbca9dedc	-0.02073615
192	0xbc2855e4	-0.010274384
193	0x3dbc8198	0.092044055
194	0x3d9827fe	0.07429503
195	0x3bca9f90	0.006183572
196	0xbc79454a	-0.015214274
197	0xbc3051bb	-0.010761674
198	0xbd9bfeb0	-0.07616937
199	0xbd08a04f	-0.033356007
200	0xbc654a82	-0.013994815
201	0x3c9ad81a	0.018901873
202	0x3c500612	0.01269676
203	0x3909f1b2	0.00013155377
204	0x3c8d87b5	0.017276624
205	0xbb6c4644	-0.0036052624
206	0x3bfa8c0a	0.0076460885
207	0x3cd80563	0.026369756
208	0xbc8afa2f	-0.016965
209	0x3c829bb0	0.015943378
210	0xbce52c6c	-0.027975284
211	0xbc37ef34	-0.011226464
212	0xbcc98b3c	-0.024602525
213	0xbc8c38a2	-0.017116848
214	0x3ce1e2f8	0.027574047
215	0xbc097624	-0.008389983
216	0xbc47df06	-0.012199169
217	0x3c56cd6c	0.0131105
218	0x3b9d0fce	0.004793144
219	0x3c30b966	0.01078639
220	0xbbd5f4d6	-0.006529431
221	0x3c670e16	0.014102479
222	0x3c33736d	0.010952813
223	0x3c57b41c	0.0131655
224	0x3c7c1b63	0.015387389
225	0xbc1abf1e	-0.00944498
226	0xbc7eb582	-0.0155462045
227	0x3c2173e5	0.009854292
228	0x3c2b8b74	0.01047026
229	0xbcc24c98	-0.023718163
230	0xbca0dc86	-0.019636404
231	0xbb4c66b5	-0.0031189148
232	0xbc3b3048	-0.011425085
233	0x3caa42f5	0.02078388
234	0xbbb0dfd1	-0.0053977747
235	0x3ae6db66	0.0017612993
236	0xbc1b7d9b	-0.009490396
237	0x3c6813e2	0.014164897
238	0xbc372537	-0.011178306
239	0xbce80cb2	-0.028326366
240	0x3b08c444	0.0020868937
241	0xbc2cfb7c	-0.010558005
242	0x3cc35da0	0.023848355
243	0xbc98668a	-0.018603582
244	0xbc334dc2	-0.010943832
245	0xbc2dfd5d	-0.010619489
246	0xbbbf268b	-0.005833452
247	0xba2367b0	-0.0006233407
248	0x3aba58d0	0.0014217142
249	0xbae03f98	-0.0017108796
250	0xbd1243a5	-0.035709042
251	0xbd3e0a71	-0.046396676
252	0xbd3a7549	-0.045522008
253	0x3d0921b0	0.033479393
254	0xbd443e47	-0.047910955
255	0xbbd39940	-0.006457478

batch_normalization_2/batchnorm/mul f4 [768]
0	0xb334e806	-4.212054e-08
1	0x3e182f05	0.14861687
2	0xb989ea4f	-0.0002630525
3	0xb711e544	-8.696054e-06
4	0xb7472f23	-1.1872299e-05
5	0x3ddd531b	0.10806867
6	0x3ca0dbfb	0.019636145
7	0x359434a1	1.1042176e-06
8	0x36abdbbf	5.121779e-06
9	0x3dd51039	0.10403485
10	0xb62949a2	-2.5225822e-06
11	0xb89b8815	-7.416323e-05
12	0x3bc427cc	0.0059861895
13	0x3450a346	1.9430908e-07
14	0x36a56977	4.929661e-06
15	0xb70d8be2	-8.436824e-06
16	0xb81ada08	-3.691952e-05
17	0xb5cb8443	-1.5163172e-06
18	0x39d097f9	0.0003978608
19	0x39fc57e2	0.00048130663
20	0xb7f11419	-2.8738797e-05
21	0xb80a4beb	-3.2972468e-05
22	0xb91f63ba	-0.00015200573
23	0xb812f059	-3.5032954e-05
24	0xb58277f6	-9.720668e-07
25	0x3c41f2fd	0.011837718
26	0xb7a07152	-1.9126255e-05
27	0xb417ee63	-1.4149695e-07
28	0x377a84cb	1.49320795e-05
29	0x35a522e3	1.2303611e-06
30	0xb8784a79	-5.9197166e-05
31	0xb767b9fc	-1.3811976e-05
32	0x3c1412a3	0.009037646
33	0xb7253aef	-9.848488e-06
34	0xb63c7fba	-2.808853e-06
35	0x34a0d5f7	2.9958002e-07
36	0x365e2243	3.310052e-06
37	0xb7a68faf	-1.985565e-05
38	0xb8160918	-3.5771256e-05
39	0x38327eca	4.255659e-05
40	0x3943a338	0.00018657453
41	0xb91bf2ef	-0.00014872452
42	0x376a5518	1.3967299e-05
43	0x3c71a2a5	0.01474825
44	0xb8f38fff	-0.00011613964
45	0x393c6f14	0.00017970457
46	0xb80164d6	-3.0849907e-05
47	0x37ca993d	2.4151634e-05
48	0xb8d67a82	-0.00010227134
49	0xb49a8db7	-2.8787846e-07
50	0xb85b5d71	-5.2300693e-05
51	0xb6be90f6	-5.679317e-06
52	0x3ca4524b	0.020058772
53	0xb8d20df2	-0.00010016178
54	0x38842468	6.301032e-05
55	0x39370049	0.00017452346
56	0x3983dffe	0.00025153154
57	0xb998b58b	-0.0002912696
58	0x3da51e7f	0.08062457
59	0xb9c53e48	-0.0003762117
60	0xb8dbea79	-0.00010486408
61	0x3b0e5c7c	0.0021722605
62	0xbadf0091	-0.0017013719
63	0xb98e7d1a	-0.00027177559
64	0x3bc07b03	0.005874039
65	0x3e92d4c0	0.2867794
66	0xbba51f4f	-0.0050391327
67	0xbb24165e	-0.0025037746
68	0xb89db5db	-7.5202166e-05
69	0x3abbfd7a	0.001434251
70	0x378d550b	1.6848111e-05
71	0x39b76be4	0.00034984865
72	0xb9de8823	-0.0004244457
73	0xba2cf1b3	-0.0006597295
74	0xb9829c51	-0.00024911997
75	0xb8b68f31	-8.705108e-05
76	0x3903c696	0.00012567113
77	0x3a16d08b	0.0005753121
78	0xb9daa102	-0.0004170016
79	0xbb15f660	-0.0022882447
80	0xbad9a475	-0.0016604798
81	0x3abc5ccc	0.0014370917
82	0xbb5f686a	-0.0034089335
83	0x40515871	3.271023
84	0xbc252e25	-0.0100818025
85	0xb8e00fc0	-0.00010684086
86	0xba84e7d4	-0.0010139891
87	0x3ae8c16c	0.001775784
88	0x39f889a9	0.0004740481
89	0x3b8e1cd7	0.004336934
90	0x3b792c6a	0.0038020858
91	0xbab7bfda	-0.0014018968
92	0x3a60b668	0.00085721025
93	0xb66e680a	-3.5525322e-06
94	0xbb6cccdc	-0.0036132848
95	0xba1e8cac	-0.00060481834
96	0xb8d38bb1	-0.000100872836
97	0xbc162296	-0.009163519
98	0x3f1dc2fa	0.61625636
99	0x384937eb	4.7974212e-05
100	0x3a59fded	0.0008315731
101	0x3b4404d6	0.002991011
102	0x3f4e90f5	0.80689937
103	0xb99f33bb	-0.00030365385
104	0x398e16d4	0.0002710136
105	0x3b8bec3f	0.004270106
106	0x3771e834	1.4418783e-05
107	0x3f2cd60c	0.6751411
108	0x3b529cfd	0.003213703
109	0x3f74d876	0.95642793
110	0x394e3903	0.0001966693
111	0xbac60513	-0.0015107713
112	0x3ee5a6f6	0.44853944
113	0xb8ccce15	-9.765864e-05
114	0x3f16fae0	0.58976555
115	0xba464efc	-0.000756487
116	0x38883269	6.494375e-05
117	0x3b0018f5	0.0019546126
118	0xba02f7ed	-0.000499605
119	0x3925ac3d	0.0001579979
120	0x3b549e0d	0.0032442838
121	0x39d8731a	0.00041284488
122	0xbae3dc11	-0.001738431
123	0xb8e50a30	-0.000109214685
124	0x39d0978c	0.00039785763
125	0xb90e09f6	-0.00013545886
126	0x3b8381a6	0.004013258
127	0x3a25d56f	0.00063260546
128	0xbb427239	-0.0029670133
129	0x3f3148d2	0.6925174
130	0xbad15983	-0.0015972111
131	0x35647892	8.511207e-07
132	0xba9e0cb5	-0.001205823
133	0xbb319843	-0.0027098812
134	0xb92b5410	-0.00016339147
135	0x3e8c456d	0.27396718
136	0xb5074cd0	-5.0403196e-07
137	0xb8cb52e2	-9.6952324e-05
138	0x3a57206c	0.00082064304
139	0x390e009c	0.00013542402
140	0xb997e6fe	-0.00028973067
141	0xb901fe4f	-0.00012397136
142	0xba0d2fae	-0.0005385828
143	0x3a207038	0.00061202375
144	0xbab14c00	-0.0013526678
145	0x38636662	5.421637e-05
146	0xba404481	-0.00073344266
147	0x37271b52	9.960337e-06
148	0xb67a67c3	-3.73133e-06
149	0xb9b65dee	-0.00034783728
150	0x38047dda	3.158846e-05
151	0x361578d2	2.2273057e-06
152	0xb880b4da	-6.137202e-05
153	0xb6a5ca43	-4.9409296e-06
154	0xb6a25359	-4.837679e-06
155	0x33d0fe02	9.7319585e-08
156	0xb67dcbf2	-3.781865e-06
157	0x3723e04f	9.767783e-06
158	0x378eca55	1.7021937e-05
159	0x377ead0d	1.5179871e-05
160	0xb863e98c	-5.4338525e-05
161	0xb68c17dd	-4.175103e-06
162	0xb99e2e2b	-0.00030170506
163	0x37ffadda	3.0479325e-05
164	0x370633bb	7.999067e-06
165	0x3934ecf0	0.00017254404
166	0x38bdc91a	9.0496804e-05
167	0xb8a01b31	-7.634459e-05
168	0xba046bac	-0.0005051445
169	0xb8b18bcf	-8.466059e-05
170	0x350020a1	4.7731197e-07
171	0x4015785a	2.3354707
172	0xb990c76f	-0.0002761441
173	0xb780ef98	-1.5370359e-05
174	0x3796930b	1.7949866e-05
175	0xba75ef23	-0.00093816424
176	0x3c15cca5	0.009143029
177	0x38ccf2b1	9.772683e-05
178	0xb7bc7226	-2.2464501e-05
179	0x3ed9c553	0.4253336
180	0x3b2115dd	0.0024579682
181	0x3e4b037a	0.19825545
182	0xba4c631a	-0.00077967497
183	0xba3bd0d7	-0.00071646034
184	0x39d34101	0.00040293488
185	0x382ec3d7	4.1667223e-05
186	0x3f019bdf	0.50628465
187	0xb9668f88	-0.00021987979
188	0x37b6fca0	2.1813728e-05
189	0xbb9399eb	-0.0045044324
190	0xbb9e7e3c	-0.0048368257
191	0x37eb3228	2.8037539e-05
192	0x3ea8eda7	0.32993814
193	0x3f106a89	0.5641256
194	0xb8aeb515	-8.330696e-05
195	0x39bb4e7b	0.00035725892
196	0x391690d3	0.00014359066
197	0x3f15d4dc	0.5852792
198	0xb6d36355	-6.299854e-06
199	0xb99031b0	-0.0002750284
200	0x390fd311	0.00013716171
201	0xbba3f073	-0.005003029
202	0xb96571cf	-0.00021881539
203	0xba19dc0c	-0.00058692764
204	0x3b8c292d	0.0042773695
205	0x373cd9ae	1.1256356e-05
206	0x3aeefbe2	0.0018233026
207	0xba10c7d6	-0.0005522942
208	0x3f0d2ef6	0.5514978
209	0xba617166	-0.00085999665
210	0x3b8b0936	0.0042430414
211	0x39a6f06c	0.00031841116
212	0x37be792d	2.2706192e-05
213	0xba8903d3	-0.001045341
214	0xbb4e3c52	-0.003146906
215	0x393d5d32	0.00018059163
216	0xbab8d671	-0.0014101994
217	0xb889c343	-6.5690394e-05
218	0x39e174fd	0.00043002507
219	0x398fc460	0.00027421396
220	0x389c6622	7.4576834e-05
221	0x37c0b316	2.2971577e-05
222	0xbc13cbdc	-0.009020772
223	0xba9e09ee	-0.0012057403
224	0x3a1f05f9	0.00060662586
225	0x37c2bca6	2.3214448e-05
226	0x366b9157	3.5102328e-06
227	0xba83c54f	-0.0010053309
228	0x3b1b4648	0.0023693014
229	0xba93d841	-0.0011279659
230	0xba4d3767	-0.0007828385
231	0x3d9886b9	0.07447571
232	0x3b3cecba	0.0028827623
233	0xb72b9279	-1.0226498e-05
234	0x39ed738c	0.00045290252
235	0x3e04cf1b	0.1296963
236	0x3a2e7581	0.00066550827
237	0x38deb0a1	0.000106186846
238	0xbacaeb69	-0.0015481535
239	0xba538b90	-0.00080698077
240	0xb834048f	-4.291959e-05
241	0x3b852e2c	0.004064342
242	0xba0ac9a1	-0.0005294327
243	0x3a9b384e	0.0011842342
244	0xb9021f3d	-0.00012409403
245	0xbaaf69e3	-0.0013382997
246	0xb94319f4	-0.00018606317
247	0x38a6f5ac	7.961257e-05
248	0x3872882e	5.7824123e-05
249	0x3fb6182d	1.4226128
250	0x38656ab0	5.4697215e-05
251	0x39fbf947	0.00048060177
252	0xb954bd64	-0.00020288449
253	0xba27d871	-0.0006402797
254	0xba19d031	-0.000586751
255	0x41fcfb71	31.622774

batch_normalization_2/batchnorm/sub f4 [768]
0	0x39306c5e	0.00016825038
1	0xbfb44bdc	-1.408565
2	0xbc17be18	-0.0092616305
3	0xb995710e	-0.00028503727
4	0x39d4bcd8	0.0004057649
5	0xc0000a68	-2.0006351
6	0xbf0a52b3	-0.5403244
7	0xb9790134	-0.00023746939
8	0x399766b0	0.00028877473
9	0xc0370fb4	-2.8603334
10	0xba35fe57	-0.00069425016
11	0xbca74050	-0.020416409
12	0xbfd32099	-1.6494323
13	0xbafc0f24	-0.0019230586
14	0xbbbdbace	-0.005790091
15	0x3c315e53	0.010825711
16	0x3d1b3991	0.037896696
17	0xbaeab7d4	-0.0017907568
18	0xbf275b66	-0.6537384
19	0xbf2a7cde	-0.6659678
20	0x3d7308d6	0.0593346
21	0x3d5717a4	0.05251278
22	0x3da9d385	0.08292297
23	0x3c5641ed	0.013077241
24	0x3b00b5c6	0.0019639595
25	0xbfa80be8	-1.3128633
26	0x3be44ac4	0.0069669206
27	0xb7123d1a	-8.716504e-06
28	0x3aefcb38	0.0018294817
29	0x33865000	6.254413e-08
30	0x3d0d4b32	0.03449554
31	0x3a1b91d8	0.0005934513
32	0xbe8953ca	-0.26821738
33	0xbb7fe330	-0.0039045326
34	0xb9e03d98	-0.000427705
35	0xba9f4b3f	-0.0012153162
36	0xbbb5b521	-0.005545274
37	0xb95542b0	-0.00020338106
38	0xbc333150	-0.01093705
39	0x3bf0a0e6	0.0073433993
40	0x3bd74f9c	0.0065707695
41	0xbc5a350b	-0.0133183105
42	0xbba8b4c0	-0.0051485
43	0x3eb82cb7	0.35971615
44	0x3b9701c5	0.0046083652
45	0xbd214acb	-0.03937797
46	0x39d7403d	0.00041055857
47	0x3b33f77c	0.0027460745
48	0x3cb16c18	0.021657988
49	0x398160f1	0.00024677024
50	0x3cf63f12	0.030059371
51	0x3aeecbc0	0.0018218681
52	0x3e3a55e8	0.18196833
53	0x3d042755	0.032264072
54	0xbc0adccd	-0.008475495
55	0xbc9904c6	-0.018679034
56	0xbc170e85	-0.00921977
57	0x3c664526	0.014054572
58	0xbd530240	-0.051515818
59	0x3ca0c824	0.019626684
60	0x3c853ef2	0.016265366
61	0xbd48cb73	-0.04902215
62	0x3c310c3a	0.010806138
63	0xbb975e0c	-0.0046193656
64	0xbd1c3e5b	-0.038145404
65	0xbfb76cfc	-1.4330134
66	0x3d1eed2f	0.038800415
67	0x3cf4fe80	0.029906511
68	0xbabda417	-0.0014468458
69	0xbcd48f44	-0.02594722
70	0xbc5a0454	-0.013306696
71	0x3b8875b6	0.004164423
72	0xbc8ede19	-0.017439889
73	0xbc43d6f7	-0.011953107
74	0x3bf9b1d6	0.0076200766
75	0xbb957603	-0.0045611872
76	0xbb6902af	-0.0035554578
77	0x3a0b4900	0.0005313307
78	0x3bb2d55d	0.005457564
79	0x3c361082	0.011112334
80	0x3c336c7c	0.010951158
81	0xba393008	-0.0007064347
82	0x3c6c5c04	0.014426235
83	0xc0d6d289	-6.7132
84	0x3b587910	0.0033031143
85	0x3a4518c7	0.0007518646
86	0x3c8ff2a9	0.017571764
87	0xbcef7000	-0.02922821
88	0xbbf4c708	-0.0074700154
89	0xbc957b24	-0.018247195
90	0xbd01ec72	-0.031719632
91	0xbc873537	-0.016504867
92	0xbc4a9a1a	-0.012365842
93	0x3c26ca1a	0.010180021
94	0x3d18c29b	0.037294965
95	0xbbcdc0c5	-0.0062790834
96	0x3b1d397e	0.0023990567
97	0x3c8d13e0	0.017221391
98	0xbfaee25a	-1.3662827
99	0xba116943	-0.0005546996
100	0xbb4fc4ba	-0.0031702952
101	0xbc89b955	-0.016812006
102	0xbf9715f0	-1.180357
103	0x3c42669b	0.011865283
104	0xbc371d2b	-0.011176388
105	0xbb6d0471	-0.0036165977
106	0xbb84d57d	-0.00405377
107	0xbfa2ce07	-1.2719125
108	0xbb872f77	-0.0041255313
109	0xbfa976b4	-1.323935
110	0xbbbb9dc9	-0.0057255966
111	0xbb0d1de8	-0.0021532718
112	0xbfce04d3	-1.6095222
113	0xbb0852f2	-0.0020801392
114	0xbf46d0f5	-0.77662593
115	0xba06b4e6	-0.00051386503
116	0x3b0dad36	0.0021618134
117	0xbd034058	-0.032043785
118	0x3cb13ff4	0.02163694
119	0xbc11a698	-0.008889817
120	0xbb8c6354	-0.004284302
121	0x3c0c1121	0.008549006
122	0x3c4bb3aa	0.012432972
123	0x3b3597aa	0.0027708807
124	0xbc03a4a2	-0.008034857
125	0xbb04ca3d	-0.0020262145
126	0x3cc0e0be	0.023544665
127	0xbc922b6d	-0.017842973
128	0x3cab1a16	0.020886462
129	0xbfab5778	-1.3386068
130	0x3bb0339b	0.0053772456
131	0xba319d46	-0.000677545
132	0xbbe43b5a	-0.006965083
133	0x3d26aadb	0.040690284
134	0x3b984c4e	0.004647768
135	0xbf4889ab	-0.78335065
136	0xb7b197a1	-2.1170652e-05
137	0x3c2c38e4	0.010511611
138	0xbca2818c	-0.019837163
139	0xba1e9de8	-0.00060507515
140	0x3bff9f02	0.0078009376
141	0xbc2309b9	-0.0099510485
142	0x3c9aeb86	0.018911134
143	0xbc6b49e6	-0.0143608805
144	0x3c5152ca	0.012776086
145	0xba99ed33	-0.0011743665
146	0x3ce3f76e	0.027827945
147	0xbb0a3138	-0.0021086466
148	0xbc8b155c	-0.016977958
149	0x3c95a71d	0.018268162
150	0x3b86bb38	0.0041116737
151	0xbbb70a59	-0.0055859503
152	0xbbb8544b	-0.005625283
153	0x38ec4570	0.00011266291
154	0x3b89f668	0.004210282
155	0x3d0b5f1d	0.034026254
156	0xbc2b672a	-0.010461608
157	0x3bc0786f	0.005873732
158	0xbb628f9b	-0.0034570459
159	0x3bc091d6	0.00587676
160	0x3bffa0b2	0.007801139
161	0x39b03368	0.00033607637
162	0x3d328e97	0.043593016
163	0x3c933721	0.017970623
164	0xbaf9f9d2	-0.0019071645
165	0xbaf29ceb	-0.00185099
166	0xbbd75def	-0.006572477
167	0x3c366fac	0.011135023
168	0x3c908f80	0.017646551
169	0x3c19c258	0.009384714
170	0x3a4a3fb5	0.00077151816
171	0xc107c202	-8.484865
172	0x3c4a7472	0.012356864
173	0x3c1262f1	0.008934722
174	0xba006656	-0.0004898062
175	0x3c621781	0.013799549
176	0x3db32900	0.087480545
177	0xbbbc46b8	-0.005745735
178	0x3c60a37e	0.013710855
179	0xbfae3211	-1.3609029
180	0xbbddd836	-0.006770159
181	0xbf85fecf	-1.0468386
182	0x3cd72af0	0.026265591
183	0x3c612ed6	0.013744077
184	0xbb08b9ea	-0.0020862767
185	0x3a97eb47	0.0011590504
186	0xbfaa5654	-1.3307595
187	0xbc83bd2e	-0.016081419
188	0xbbb4a248	-0.0055125095
189	0x3ba695e6	0.0050837873
190	0x3c0eb8da	0.008711064
191	0x3c2c8932	0.010530757
192	0xbfa73d83	-1.3065647
193	0xbf930dc0	-1.1488571
194	0x3b4b1956	0.0030990443
195	0x3c9b6997	0.018971248
196	0xbc4ca27a	-0.012489909
197	0xbfc2746a	-1.5191777
198	0x3acb2fed	0.0015501954
199	0x3bef2490	0.0072980598
200	0xbb291169	-0.002579773
201	0x3b10534c	0.0022022305
202	0x3b4c926b	0.0031215202
203	0x3ca8612f	0.020554153
204	0xbc016338	-0.007897191
205	0xba20c965	-0.0006133526
206	0x3c05d19a	0.008167649
207	0x3c08923d	0.008335647
208	0xbfc111b1	-1.5083524
209	0x3c7774ac	0.0151035
210	0xbb9878f8	-0.0046530925
211	0x3c67edad	0.014155787
212	0xbb8c7e68	-0.0042875297
213	0x3c194b04	0.009356264
214	0x3cd103d3	0.025514519
215	0xbaf07277	-0.001834466
216	0x3ba47180	0.005018413
217	0x39b71afb	0.00034924582
218	0xbc90b5d9	-0.017664837
219	0xbb39626a	-0.002828742
220	0xba1b908e	-0.0005934321
221	0x3ba7dc9e	0.005122735
222	0x3d1e9523	0.038716447
223	0x3cfa0733	0.030521011
224	0xbc871d91	-0.01649359
225	0xbc637c48	-0.013884611
226	0xbb431820	-0.0029769018
227	0x3cf683a6	0.030092072
228	0xbc035c5e	-0.0080176275
229	0x3b0fbb75	0.0021931801
230	0x3c97c675	0.018527249
231	0xbf517d55	-0.81831867
232	0xbc0af7e2	-0.008481951
233	0x3bfcaa4a	0.0077107297
234	0x3bc23320	0.0059265047
235	0xbdf982a0	-0.12183118
236	0xbb65af25	-0.0035047021
237	0xbb8aefff	-0.0042400355
238	0x3c1de8e8	0.009638049
239	0x39df4f70	0.0004259306
240	0x3a9f6f60	0.001216393
241	0xbcb2a4b6	-0.021807056
242	0x3c993292	0.018700872
243	0x3a1f7460	0.000608271
244	0x3bd226f2	0.006413334
245	0x3c00818b	0.007843385
246	0x3ab7c4f0	0.0014020484
247	0xbc85ef06	-0.016349327
248	0xbba0c9c5	-0.0049068653
249	0xc10401c9	-8.250436
250	0x3b311645	0.002702133
251	0xba8319da	-0.0010002211
252	0x3c47041f	0.012146979
253	0x3bb2ad84	0.0054528136
254	0xbcb53fbe	-0.022125121
255	0xb3338352	-4.179612e-08

dense_1/MatMul_bias f4 [32]
0	0x3b63a702	0.0034736996
1	0xbd158427	-0.036502983
2	0xbc93ac1e	-0.018026408
3	0xbd11968f	-0.035543974
4	0xbc87a585	-0.016558418
5	0xbc47d7dc	-0.012197461
6	0xbb0a607b	-0.0021114636
7	0xbcbc2c65	-0.022970388
8	0x3b6c0752	0.0036015105
9	0xbcf6d2e7	-0.030129863
10	0xbb2f1408	-0.002671482
11	0xbc0a1e41	-0.008430065
12	0xbccea652	-0.025225792
13	0x3d0f0d17	0.034924593
14	0xbcc67e34	-0.0242301
15	0xbd1471d6	-0.036241375
16	0xbca6c856	-0.0203592
17	0xbd024539	-0.031804297
18	0x3d0c4684	0.034246936
19	0xbc88b0f4	-0.01668594
20	0x3d170177	0.03686663
21	0x3ce572f7	0.028008921
22	0x3ba0136b	0.0048851273
23	0xbd1506bc	-0.036383376
24	0xbd0c4434	-0.03424473
25	0x3c93cba2	0.018041436
26	0xbd19c704	-0.03754331
27	0x3d5e3f0f	0.054259356
28	0xbca4a74f	-0.02009931
29	0xbc210557	-0.009827933
30	0xbcd97008	-0.026542678
31	0xbbf147ed	-0.0073633105

dense_1/kernel/transpose f4 [32, 768]
0	0xb9906bbe	-0.00027546094
1	0x39c0019b	0.0003662229
2	0xba46bc03	-0.00075811165
3	0x38ed8a0a	0.000113267524
4	0x3a612f41	0.000859011
5	0x3a41b07b	0.00073886634
6	0xb9fb46f0	-0.00047927303
7	0xb94095a7	-0.00018366297
8	0x385ac774	5.2161005e-05
9	0xb8429ad4	-4.63974e-05
10	0xbb043b2a	-0.0020176866
11	0x39db282a	0.0004180086
12	0x3af6c6ff	0.0018827616
13	0x3adfb94e	0.0017068775
14	0xba4a8420	-0.00077253766
15	0xba57479d	-0.00082122703
16	0xb953e6c6	-0.00020208498
17	0x3993bce2	0.00028178754
18	0xba10de9e	-0.00055263366
19	0x3aa1129a	0.0012288869
20	0x38a5a56a	7.898624e-05
21	0xbb0cf985	-0.002151103
22	0xbb14679a	-0.002264476
23	0xbb20848f	-0.0024493074
24	0xbb2ffa1a	-0.0026851953
25	0x3afb3204	0.0019164686
26	0x3b2f1ece	0.0026721242
27	0xbb29c6a8	-0.0025905762
28	0xba323374	-0.0006797828
29	0xb9a975c4	-0.00032321934
30	0xbb2a0839	-0.0025944842
31	0xbb118199	-0.002220249
32	0xbb0384ed	-0.0020068244
33	0xbb2b8f4c	-0.002617794
34	0xba7dfe42	-0.00096890714
35	0x39bdc628	0.00036196527
36	0x3b0c557d	0.002141326
37	0x3ad5dbe6	0.0016316145
38	0x3abb2e2d	0.0014280729
39	0xba63237e	-0.00086646515
40	0xba6ee640	-0.00091132894
41	0x3a87a620	0.0010349192
42	0xba3cffc0	-0.00072097406
43	0xbaabaa2c	-0.001309698
44	0x3aa874cd	0.0012852192
45	0x3ab08ac0	0.0013469085
46	0x39c0777d	0.0003671012
47	0xbaa34140	-0.0012455359
48	0xba7f3a3a	-0.00097361545
49	0xbabfc4a1	-0.0014630744
50	0x3a36a89f	0.00069678755
51	0xba6d8699	-0.0009060889
52	0x39d56b73	0.00040706582
53	0xb9941054	-0.00028240925
54	0x3aa0ba69	0.0012262586
55	0xb98d4cd2	-0.0002695085
56	0xbae88635	-0.0017740192
57	0xb9caed67	-0.0003870532
58	0x39824fa4	0.0002485487
59	0xba5f6e86	-0.0008523244
60	0x3a661e50	0.00087783206
61	0xb9f23e6d	-0.00046204348
62	0x3a2dfcd2	0.00066370994
63	0x3a86d2fc	0.0010286267
64	0x3aaef437	0.0013347928
65	0xbaa63b6c	-0.0012682504
66	0x3abb9681	0.0014311821
67	0x3ab888c6	0.0014078848
68	0xba05405f	-0.00050831394
69	0xb7d76625	-2.5677562e-05
70	0xbad7fca0	-0.0016478486
71	0x39d84fce	0.0004125819
72	0x3832c57f	4.262244e-05
73	0x3afde663	0.0019371029
74	0x3957772c	0.00020548393
75	0xb96242ea	-0.00021577967
76	0x3a7c0d15	0.00096149865
77	0xbaa91013	-0.0012898467
78	0x3a03bcb5	0.0005025373
79	0xb95d418c	-0.0002110062
80	0xb9925adc	-0.00027914986
81	0x392fcd51	0.00016765787
82	0xb8b25088	-8.5027015e-05
83	0x397448bc	0.00023296749
84	0xb994df52	-0.00028395146
85	0xb90bfe79	-0.00013350871
86	0xb91b4a86	-0.00014809714
87	0x393abd11	0.00017808775
88	0xb92c6f58	-0.00016444677
89	0x39077d7a	0.00012921347
90	0x3a756792	0.00093614415
91	0x383b18c2	4.460733e-05
92	0x394f7eac	0.00019788247
93	0xb92e32bb	-0.00016612832
94	0xb8b460f3	-8.601127e-05
95	0xba6438f7	-0.0008705998
96	0x3a41c473	0.0007391639
97	0xb7879ade	-1.616537e-05
98	0xb8763b99	-5.8706475e-05
99	0xba010beb	-0.00049227354
100	0xb9f15a81	-0.00046034533
101	0xb994ffc2	-0.00028419314
102	0xb903abe2	-0.00012557165
103	0xb7a29bdc	-1.9384483e-05
104	0xb8fba262	-0.00011998859
105	0xb9205e9a	-0.00015294031
106	0xba64861b	-0.0008717493
107	0xba965bb1	-0.0011471418
108	0x3a4d3e9e	0.000782946
109	0xba5e71ff	-0.00084856147
110	0x38b4318f	8.5923e-05
111	0x3a22efc4	0.00062155374
112	0xba335ce3	-0.00068421493
113	0x39386d62	0.00017588356
114	0xba766609	-0.00093993597
115	0x3a68e7c1	0.00088846317
116	0x3abd2b08	0.001443238
117	0xbaa2851e	-0.0012399291
118	0x3a92dabf	0.0011204107
119	0x3819bdf0	3.6654936e-05
120	0xba529899	-0.0008033603
121	0xb9cc9ebe	-0.00039028184
122	0x3a82ac50	0.0009969566
123	0xba800e62	-0.0009769911
124	0x3a962cc0	0.0011457428
125	0xb98bb50e	-0.00026647042
126	0xba75d1b3	-0.0009377256
127	0x3a185264	0.0005810617
128	0xb9e78a93	-0.00044163
129	0xb97cfe06	-0.00024127224
130	0xba0f11c2	-0.0005457663
131	0x39b5ad21	0.00034652
132	0x39167bd3	0.00014351243
133	0xb952dc42	-0.00020109213
134	0x3a3f1958	0.0007289848
135	0xb7a55a03	-1.9711448e-05
136	0xb876339d	-5.869904e-05
137	0x39894cd8	0.0002618793
138	0x39bdd140	0.00036204793
139	0xb99abbf0	-0.00029513193
140	0x3aad446e	0.0013219246
141	0x3a9e7f4d	0.0012092382
142	0xb9994793	-0.0002923576
143	0xb98c6c0b	-0.0002678338
144	0x39dc11be	0.0004197489
145	0x39dd5f98	0.00042223628
146	0xb9043f3c	-0.00012612058
147	0xb933e340	-0.00017155427
148	0x3ad07586	0.0015904165
149	0x399f7973	0.0003041733
150	0xbaa4778f	-0.0012547838
151	0x39baa0aa	0.0003559639
152	0xbb2b1605	-0.0026105654
153	0xbab2a4c8	-0.0013629431
154	0xbb049e14	-0.0020235823
155	0xba991482	-0.0011679085
156	0xbb06d61e	-0.00205744
157	0x3a6367b1	0.0008674814
158	0x3a8ec38b	0.0010892017
159	0xba52626e	-0.00080255314
160	0x3a370111	0.0006981055
161	0xbab39c73	-0.0013703242
162	0xba7eefa4	-0.000972504
163	0xba021ae4	-0.00049631135
164	0x3afe6392	0.0019408336
165	0xbae9c645	-0.0017835578
166	0x371477bb	8.849364e-06
167	0xbac8175c	-0.0015265751
168	0x39a03c67	0.0003056258
169	0x3ab614fa	0.001389175
170	0x37e93c7c	2.780393e-05
171	0xba7319fc	-0.00092735863
172	0x373dab88	1.1305216e-05
173	0xba3b3731	-0.0007141708
174	0xba668faa	-0.00087952113
175	0x386542e6	5.466016e-05
176	0xba6271fb	-0.00086382
177	0xba25e5c9	-0.0006328491
178	0x39c40379	0.0003738662
179	0xba8fe776	-0.0010979015
180	0xb9154ab4	-0.00014237576
181	0xb990d90f	-0.00027627542
182	0x3a50f03c	0.0007970368
183	0xb9c03a8f	-0.00036664723
184	0xb9e7ef39	-0.00044237988
185	0xbafd32c6	-0.00193175
186	0x38afb023	8.377458e-05
187	0xba38f676	-0.00070557685
188	0x3a2c1b45	0.0006565343
189	0xb94a4d8e	-0.00019293113
190	0xb9b052dd	-0.00033631074
191	0xb82a6595	-4.0625764e-05
192	0x372c90d0	1.0285716e-05
193	0xbaace89c	-0.0013191882
194	0xba9e4c19	-0.0012077122
195	0xb917035e	-0.00014401737
196	0x38c3fa80	9.344984e-05
197	0x39232c18	0.00015561318
198	0x3a894ae8	0.0010474594
199	0x3a5b5d13	0.0008368056
200	0x39cfc48a	0.0003962855
201	0xb833604a	-4.2766602e-05
202	0xba3cec56	-0.00072068477
203	0x36bfc837	5.7155517e-06
204	0x387052bf	5.7297522e-05
205	0x393c2b1a	0.00017945134
206	0x39a8cdbb	0.00032196738
207	0xba1c02d0	-0.0005951347
208	0x3aa18055	0.0012321571
209	0x39427c02	0.00018547478
210	0x3a84821a	0.0010109574
211	0xb723b4de	-9.7576685e-06
212	0x39ff65bc	0.00048713188
213	0xba20722a	-0.00061205274
214	0x3a35ee22	0.00069400866
215	0xba897a26	-0.0010488674
216	0x3aa8bb6c	0.0012873239
217	0xba9db427	-0.0012031839
218	0xb9edcb44	-0.00045355607
219	0xba43abb7	-0.0007464247
220	0x3a1cf230	0.00059870165
221	0xba3a5e22	-0.0007109364
222	0xb925a949	-0.0001579869
223	0x3ac758ba	0.0015208938
224	0xba650ebf	-0.0008737854
225	0x3a593b60	0.00082867406
226	0x3a57bc08	0.0008229618
227	0xb951851d	-0.00019981382
228	0xb9bcdb76	-0.00036021665
229	0x3a4b2364	0.0007749109
230	0x39ec1489	0.00045028728
231	0x381fd28a	3.8104634e-05
232	0xba583d57	-0.00082488864
233	0xba00dc9a	-0.00049156847
234	0x39ca3752	0.0003856966
235	0xb724d598	-9.824893e-06
236	0x38f85bdd	0.000118426724
237	0xb8ddc214	-0.00010574251
238	0x38e59a57	0.00010948319
239	0x39c5c1cb	0.00037719155
240	0xb897abea	-7.2322626e-05
241	0xb78e7817	-1.698364e-05
242	0xb9a9adeb	-0.0003236377
243	0x397d5227	0.00024158564
244	0x38ee4b79	0.00011362782
245	0x3942b9e7	0.00018570536
246	0x38847cae	6.317474e-05
247	0x3993100d	0.00028049984
248	0xb9213093	-0.00015372252
249	0xb94accd4	-0.00019340526
250	0x39dc0c80	0.00041970983
251	0x3a186d3e	0.0005814618
252	0x3a25a5ab	0.0006318937
253	0xba06f5a7	-0.00051482994
254	0x3a09ee1d	0.0005261617
255	0xba4fd3c1	-0.0007927977

dense_2/MatMul_bias f4 [16]
0	0xba849ce2	-0.0010117556
1	0xb8e9cf3b	-0.000111489055
2	0xb9dad1e2	-0.00041736575
3	0xbc07d1e1	-0.008289785
4	0x39299929	0.00016174153
5	0xb6a1666c	-4.8100974e-06
6	0x3d294e1c	0.041334257
7	0xb9160ce3	-0.00014309915
8	0xb992599f	-0.00027914063
9	0x3a0f24d3	0.00054605043
10	0xbca33da1	-0.019926848
11	0x3d2d797a	0.042352177
12	0x38f4b20f	0.00011667993
13	0x3d5a4099	0.05328426
14	0xbd4fe958	-0.050759643
15	0x3d53498a	0.051583804

dense_2/kernel/transpose f4 [16, 32]
0	0xb7113c0f	-8.656657e-06
1	0xb9c4053d	-0.00037387936
2	0xb6d3114e	-6.2903046e-06
3	0xb9b7a547	-0.0003502762
4	0xb903bdc4	-0.00012563827
5	0xb81fc1b3	-3.808895e-05
6	0xb95a6653	-0.00020828219
7	0xb995f8ac	-0.0002860477
8	0x38c99f71	9.614125e-05
9	0xb99db347	-0.00030078946
10	0x37a3c530	1.9522937e-05
11	0xb8b952ee	-8.836934e-05
12	0xb9aa1223	-0.0003243844
13	0x39b6a7d9	0.000348388
14	0xb98365cd	-0.00025062115
15	0xb9bf56d3	-0.00036495048
16	0xb943cb87	-0.00018672469
17	0xb9c9752e	-0.00038425013
18	0x39b544ca	0.00034574262
19	0xb905976f	-0.00012740282
20	0x39e574f8	0.00043765432
21	0x398fabae	0.00027402997
22	0xb8c80d3a	-9.539207e-05
23	0xba1f03c0	-0.00060659274
24	0xb9b2fadd	-0.00034137713
25	0x39331d5b	0.00017081706
26	0xb9c2e369	-0.00037171997
27	0x3a73839c	0.00092893257
28	0xb93c1449	-0.00017936634
29	0xb968b2cb	-0.0002219185
30	0xb9a3176a	-0.00031107228
31	0xb89c11a9	-7.441949e-05
32	0xb8a8fe8b	-8.0582766e-05
33	0xb8a6d697	-7.955467e-05
34	0x38d0513a	9.9333425e-05
35	0xb868a439	-5.5466055e-05
36	0x38389c38	4.401451e-05
37	0x38a99cbb	8.087741e-05
38	0xb8dbe551	-0.00010485447
39	0x37ebd774	2.8114511e-05
40	0x38d53d22	0.00010168018
41	0xb796b54c	-1.7965816e-05
42	0x38c26809	9.270019e-05
43	0xb7d08f2a	-2.4862198e-05
44	0xb675418c	-3.6545998e-06
45	0x383b08e6	4.459256e-05
46	0xb628d7f0	-2.5159643e-06
47	0xb87ccc4a	-6.027174e-05
48	0x37aa2394	2.0282147e-05
49	0xb82ebd34	-4.1661042e-05
50	0x382831c2	4.0100662e-05
51	0x38358dae	4.3285712e-05
52	0x3870c5e3	5.7404755e-05
53	0x37527b25	1.2545647e-05
54	0xb89768e0	-7.2197756e-05
55	0xb8e3a44a	-0.00010854805
56	0xb82a29a5	-4.0569943e-05
57	0xb8033c11	-3.1288775e-05
58	0xb828ed65	-4.0275412e-05
59	0x3918de97	0.00014578771
60	0x37a805ab	2.00298e-05
61	0xb90fc6a7	-0.00013711546
62	0xb798eed4	-1.8231025e-05
63	0x38774a4b	5.895858e-05
64	0xb9171d53	-0.00014411406
65	0x38bda8ef	9.0436886e-05
66	0x390e1e28	0.0001355341
67	0x39274d73	0.00015955213
68	0x393454e7	0.00017197766
69	0x3936d1e7	0.00017435067
70	0xb99a1d10	-0.00029394822
71	0x393dbcd1	0.00018094784
72	0x3922f9e7	0.0001554262
73	0x392eeed0	0.00016682898
74	0x39221055	0.00015455608
75	0xb76286cc	-1.3502035e-05
76	0x39228d47	0.00015502154
77	0xb9263c39	-0.00015853428
78	0x39260019	0.0001583103
79	0x390db732	0.00013515053
80	0x392ded7f	0.0001658704
81	0x3931f6c6	0.00016971966
82	0xb927cfb5	-0.00016003738
83	0x393443c9	0.0001719139
84	0xb9081f62	-0.00012981662
85	0xb92dd880	-0.00016579218
86	0xb988f088	-0.0002611915
87	0x396486f6	0.00021794051
88	0x39288ff7	0.0001607536
89	0xb92df074	-0.00016588141
90	0x3942a4da	0.00018562694
91	0xb9857ac2	-0.00025459199
92	0x392c14c5	0.00016410935
93	0xb92d5d45	-0.00016533311
94	0x3927b367	0.00015993194
95	0x3916194c	0.00014314539
96	0x3ba199ee	0.00493168
97	0xbc19f881	-0.009397627
98	0xbc2af5ee	-0.010434611
99	0xbc2f6404	-0.010704998
100	0xbc024317	-0.007950566
101	0xbc037ee6	-0.00802586
102	0x3b92f330	0.0044845566
103	0xbc258634	-0.010102797
104	0xbb29fb26	-0.002593705
105	0xbc22962c	-0.009923499
106	0xbba1786e	-0.0049276864
107	0xba1ba507	-0.0005937372
108	0xbc0e4666	-0.0086837765
109	0x3c307941	0.010771097
110	0xbc0d44d9	-0.008622372
111	0xbc29797d	-0.0103439065
112	0xbc065246	-0.008198326
113	0xbc27af91	-0.010234729
114	0x3c303392	0.010754483
115	0xbc022b0c	-0.0079448335
116	0x3c302696	0.010751387
117	0x3c1f5f8a	0.009727368
118	0x3bbbc15a	0.0057298364
119	0xbc38df18	-0.011283658
120	0xbc2f9b9a	-0.010718251
121	0x3bfc7316	0.007704149
122	0xbc47bbc6	-0.012190765
123	0x3c88f514	0.016718425
124	0xbc0290cb	-0.007969092
125	0x3ae9205a	0.0017786131
126	0xbc14a639	-0.009072834
127	0xbbb4d2f6	-0.0055183126
128	0x389b602f	7.4088915e-05
129	0x37a6f995	1.9904963e-05
130	0xb8b23898	-8.498243e-05
131	0xb6d748db	-6.415981e-06
132	0xb8833250	-6.255938e-05
133	0xb8acde93	-8.243057e-05
134	0x38deb356	0.00010619189
135	0xb85becf6	-5.2434356e-05
136	0xb8b78631	-8.751115e-05
137	0xb7faa789	-2.9880337e-05
138	0xb8ac952c	-8.2293845e-05
139	0x375a539e	1.3013281e-05
140	0xb80e2012	-3.3885306e-05
141	0x375c6b94	1.3138069e-05
142	0xb8123078	-3.4854253e-05
143	0x34584930	2.0143193e-07
144	0xb84a8479	-4.8283928e-05
145	0xb7843edd	-1.57649e-05
146	0x3786d4e2	1.6073176e-05
147	0xb882622c	-6.217169e-05
148	0x3637f1a9	2.740979e-06
149	0x380494b9	3.160976e-05
150	0x38b2600d	8.505592e-05
151	0xb50a1496	-5.143896e-07
152	0xb7846bc0	-1.5785801e-05
153	0x3862230c	5.391524e-05
154	0xb7b71c69	-2.182853e-05
155	0xb7454633	-1.175846e-05
156	0xb84a8467	-4.8283862e-05
157	0x38ddcb52	0.000105759726
158	0xb7cfd36d	-2.4774776e-05
159	0xb88627ef	-6.397056e-05
160	0x356d9236	8.8502145e-07
161	0xb6315038	-2.6421749e-06
162	0xb668048d	-3.4573343e-06
163	0xb62e4744	-2.5969503e-06
164	0xb5f5f3fd	-1.8324932e-06
165	0xb60398e6	-1.960952e-06
166	0x3541e585	7.22321e-07
167	0xb627eafe	-2.5021723e-06
168	0xb38f4467	-6.671399e-08
169	0xb626470e	-2.4777287e-06
170	0xb571efa5	-9.0128225e-07
171	0xb54b64c1	-7.577001e-07
172	0xb610728b	-2.1524345e-06
173	0x36377b1b	2.7340782e-06
174	0xb60dae62	-2.1112141e-06
175	0xb6355b55	-2.7024264e-06
176	0xb602186f	-1.9385732e-06
177	0xb60e02fa	-2.1161381e-06
178	0x36379e7c	2.7361375e-06
179	0xb5f5746e	-1.8287808e-06
180	0x3640187a	2.8624477e-06
181	0x3621ef65	2.4130215e-06
182	0x3563c847	8.485553e-07
183	0xb4a8098f	-3.1299393e-07
184	0xb63634ae	-2.7150777e-06
185	0x35eceace	1.7651707e-06
186	0xb64cb3d2	-3.0503038e-06
187	0x361fbd3e	2.3803e-06
188	0xb5fb7df5	-1.8737616e-06
189	0xb4b96398	-3.45314e-07
190	0xb6079807	-2.020506e-06
191	0xb58a2c6c	-1.029473e-06
192	0x3a1f2c66	0.00060719845
193	0x3c14f487	0.009091503
194	0xb7e64476	-2.7450016e-05
195	0x3c0e8617	0.008698962
196	0x3b2d4ef0	0.0026444755
197	0x3a40bb1e	0.00073521014
198	0x3b2c0b08	0.0026251692
199	0x3b57ba82	0.0032917564
200	0xbb2a22bd	-0.0025960647
201	0x3be3ea3b	0.0069554127
202	0xba6a073f	-0.00089274714
203	0x3b3cc438	0.002880348
204	0x3ba9e9b4	0.0051853303
205	0xbc098975	-0.008394589
206	0x3ba93bbf	0.005164593
207	0x3c1075b7	0.008817128
208	0x3b7dfcd5	0.0038755436
209	0x3be31f66	0.006931233
210	0xbc0670e8	-0.00820563
211	0x3b3018c4	0.002687023
212	0xbc116eca	-0.008876512
213	0xbbd8aeb0	-0.0066126212
214	0xb8e69529	-0.00010995038
215	0x3bf9b867	0.0076208594
216	0x3c068434	0.008210231
217	0xbb797877	-0.0038066187
218	0x3c0d32f6	0.008618107
219	0xbc1bfd06	-0.009520775
220	0x3b80cb22	0.0039304653
221	0x3ba5488f	0.00504405
222	0x3bad6666	0.005291748
223	0x3a247aa1	0.00062743766
224	0xb7e4235e	-2.7196187e-05
225	0xb80dd78f	-3.3817774e-05
226	0x38b0ed81	8.4365725e-05
227	0xb71e6e48	-9.443211e-06
228	0x387681ca	5.8771846e-05
229	0x38ad9b44	8.278203e-05
230	0xb8dafa55	-0.00010441678
231	0x371270c1	8.728531e-06
232	0x38bb752e	8.938681e-05
233	0x379f93d4	1.9023115e-05
234	0x37cb09cd	2.420405e-05
235	0xb786ae50	-1.6055215e-05
236	0x36aaf2ca	5.094659e-06
237	0xb41e38f2	-1.4735613e-07
238	0x37cf0d9b	2.4682658e-05
239	0xb772631f	-1.44474025e-05
240	0x382756b4	3.989665e-05
241	0x366b83d3	3.509446e-06
242	0xb68aff99	-4.142476e-06
243	0x3873c650	5.8120408e-05
244	0x376580a3	1.3679414e-05
245	0xb7bd69fe	-2.2579912e-05
246	0xb8be985a	-9.088284e-05
247	0xb7bd4b64	-2.2565662e-05
248	0x36665ca7	3.4326602e-06
249	0xb7d7e9e6	-2.5738915e-05
250	0x36e54ca2	6.833653e-06
251	0x382a1124	4.0547122e-05
252	0x382ee9b3	4.1702482e-05
253	0xb8c3bebf	-9.333854e-05
254	0x37588a58	1.2906814e-05
255	0x371737f1	9.013326e-06

dense_3/MatMul_bias f4 [32]
0	0xbcd0c845	-0.025486121
1	0xc035bc84	-2.839631
2	0x3c37539f	0.01118937
3	0x3bd4c386	0.006493035
4	0x3f81e038	1.0146551
5	0xbd31ac16	-0.043377005
6	0x3c1d5ad5	0.009604176
7	0x3d1a657d	0.037694443
8	0xbd7a4717	-0.061102953
9	0xc0357e10	-2.8358192
10	0xbcef29d6	-0.029194754
11	0x3b235b5b	0.0024926278
12	0xbba271f2	-0.004957431
13	0x3c99c8fe	0.018772598
14	0xbbc79e64	-0.0060918797
15	0x3c16ac14	0.0091963
16	0x3e0cc64c	0.13747519
17	0xbc8d2ac7	-0.017232312
18	0xbc452bf4	-0.012034405
19	0x3d0c2201	0.034212116
20	0xc006c3c2	-2.105698
21	0xba8590d2	-0.0010190255
22	0xbd89da67	-0.0673111
23	0xbc798d78	-0.015231483
24	0xbd186a51	-0.037210766
25	0x3d0d7810	0.03453833
26	0x40602399	3.5021727
27	0x3afba022	0.0019197504
28	0x407ebd7d	3.9803154
29	0xbd199614	-0.03749664
30	0x3bc3fe07	0.00598121
31	0x3d4d86e9	0.05017749
